LSTNetModel_12_84.pt (torch, 34311 bytes, 9 tensors)

weight f4 [30, 1, 6, 8]
0	0xbe100156	-0.1406301
1	0xbe04c336	-0.12965092
2	0x3d6464db	0.055760246
3	0xbcb95821	-0.022625031
4	0x3de92852	0.113846436
5	0x3de15528	0.110025704
6	0x3b28577b	0.0025686908
7	0x3d4cc5c6	0.0499933
8	0x3e028537	0.1274613
9	0x3db094a7	0.08622103
10	0xbd6792d9	-0.05653653
11	0xbdeef4a1	-0.11667753
12	0xbdc6bd33	-0.09704056
13	0xbda04a43	-0.07826664
14	0x3d824523	0.06360843
15	0xbe0604fe	-0.13087842
16	0x3da8a84f	0.08235227
17	0x3e05e011	0.13073756
18	0xbca1711e	-0.019707259
19	0xbd58928f	-0.052874144
20	0x3dc38ad3	0.09547963
21	0x3dcb8f37	0.099394254
22	0xbca12d19	-0.019674825
23	0xbe02e3f2	-0.12782267
24	0x3dbf7d15	0.093500294
25	0x3cd6626c	0.026169978
26	0xbd357dab	-0.0443093
27	0xbdf2774f	-0.118391626
28	0x3ca88110	0.020569354
29	0xbdc984cf	-0.09839784
30	0xbd0e4975	-0.034738023
31	0xbd306fc2	-0.04307533
32	0xbde7246e	-0.11286245
33	0xbd920b50	-0.07131064
34	0xbdbf5f99	-0.09344406
35	0xbc880fa2	-0.016609017
36	0xbd1856d3	-0.037192177
37	0x3dd4927d	0.10379503
38	0xbdd1ad92	-0.10238184
39	0xbd8260f6	-0.0636615
40	0xbd960545	-0.07325224
41	0xbaf0d143	-0.0018372912
42	0x3da322f1	0.07965649
43	0x3caddbe6	0.02122302
44	0xbd01225c	-0.03152691
45	0xbddad033	-0.10684242
46	0x3c2d6f06	0.010585552
47	0xbdb20a8f	-0.0869342
48	0x3d87b719	0.0662672
49	0x3db525f7	0.08845132
50	0xbcd31d7d	-0.025770897
51	0x3d58e32c	0.052951023
52	0x3df1bc18	0.11803454
53	0x3d4c12da	0.049822666
54	0xbdb62596	-0.08893888
55	0x3cf8f4af	0.030390112
56	0x3d6b0860	0.057381034
57	0xbdf9e534	-0.1220192
58	0x3dc801c3	0.09765961
59	0x3dc5eacd	0.09663925
60	0x3d9aad74	0.07552615
61	0xbcd33082	-0.025779966
62	0xbcfbd605	-0.0307417
63	0x3df6dcd9	0.12053842
64	0xbe2630dd	-0.16229577
65	0x3d2a7485	0.041615028
66	0x3dbb0201	0.091312416
67	0x3dd865fe	0.105663285
68	0xbe0802c0	-0.13282299
69	0xbe1a1d7d	-0.15050311
70	0xbdf66fa3	-0.12033012
71	0xbdd72874	-0.10505763
72	0xbd92ae5c	-0.07162163
73	0xbad7e7e4	-0.0016472307
74	0x3d9ff8b9	0.07811112
75	0x3dae413d	0.08508537
76	0xbd909e36	-0.07061426
77	0xbd853305	-0.06503872
78	0x3b807e84	0.003921332
79	0x3cf55740	0.02994883
80	0xbd8cc9e0	-0.06874442
81	0x3d926282	0.07147695
82	0xbe1c1331	-0.15241696
83	0x3daa606b	0.083191715
84	0xbd3c1c36	-0.04592534
85	0xbe01e83a	-0.12686244
86	0xbdda4ac8	-0.10658795
87	0x3dd48e1b	0.10378667
88	0x3b6424f3	0.0034812063
89	0xbdecdf20	-0.11565995
90	0x3d3f72d9	0.046740387
91	0x3d8ed358	0.06973904
92	0x3d230b1b	0.039805513
93	0x3d4b9b04	0.04970838
94	0xbd5f5ed3	-0.05453379
95	0x3d36b329	0.044604454
96	0x3d7c8b73	0.061656427
97	0xbd8827e4	-0.066482335
98	0xbdf821d3	-0.121158265
99	0x3da034b7	0.078225546
100	0x3d8c795f	0.06859087
101	0xbd63e167	-0.055634882
102	0x3bf901f7	0.007599111
103	0xbdbe3287	-0.09286981
104	0xbe048fb8	-0.1294545
105	0xbdfdd0b9	-0.12393326
106	0x3cfeae09	0.031088846
107	0xbbc22128	-0.0059243627
108	0xbd04d88c	-0.032433078
109	0xbd62ee69	-0.055403147
110	0xbe02be01	-0.12767793
111	0x3e047c00	0.12937927
112	0x3df780b1	0.12085093
113	0xbc2c918b	-0.010532747
114	0xbd85db82	-0.065360084
115	0xbe0cf478	-0.13765132
116	0x3e042e65	0.12908323
117	0xbcff27a4	-0.031146832
118	0xbda41b33	-0.08013
119	0xbda2d63b	-0.079510175
120	0x3d9df583	0.07712843
121	0x3d8ee077	0.06976407
122	0xbdf963e1	-0.121772535
123	0xbdbc7812	-0.09202589
124	0x3dc09d62	0.094050184
125	0x3d978baf	0.073996894
126	0x3d4a1ca2	0.049343713
127	0x3c326ae7	0.010889745
128	0xbda1350f	-0.07871448
129	0x3c6c1daf	0.014411374
130	0x3c32bee8	0.010909773
131	0x3e049469	0.12947239
132	0xbdcb2436	-0.09919016
133	0x3ca6b49d	0.020349795
134	0x3c04e0af	0.008110209
135	0xbdcf8ddc	-0.101344794
136	0xbd7705e1	-0.06030834
137	0x3d3aa1af	0.04556435
138	0x3d8e46d1	0.06947101
139	0x3ca2bc42	0.019865159
140	0xbd843cd1	-0.06456912
141	0xbd2759d8	-0.040857166
142	0xbde04c6a	-0.10952075
143	0xbe071c45	-0.13194378
144	0x3d959dd5	0.07305495
145	0x3d2f4035	0.042785842
146	0x3be0f5a0	0.0068652183
147	0x3b4e6ead	0.0031499073
148	0xbe0780f9	-0.13232793
149	0xbdfe2e7b	-0.12411209
150	0xbdad0a77	-0.08449262
151	0x3c05a726	0.008157527
152	0x3dfa74fa	0.12229343
153	0xbdee5832	-0.11637916
154	0xbdf7e76d	-0.12104688
155	0xbd92ed5a	-0.071741775
156	0xbdb8698c	-0.090045065
157	0xbdfbe68c	-0.12299833
158	0x3d8fe613	0.07026305
159	0x3d715733	0.05892105
160	0xbe218c62	-0.15776208
161	0x3aa25400	0.0012384653
162	0x3d874057	0.06604069
163	0x3d40e260	0.047090888
164	0x3d66fa7a	0.056391217
165	0xbd5b09fc	-0.05347632
166	0xbe109f64	-0.14123303
167	0x3d0d116f	0.034440454
168	0x3d1f94b5	0.038960177
169	0xbd08a42d	-0.033359695
170	0xbdcccc99	-0.099999614
171	0xbdf14b63	-0.11781957
172	0x3da9d116	0.08291833
173	0x3d3f634a	0.04672555
174	0x3d78c379	0.060733292
175	0xbdc0c0c1	-0.09411765
176	0x3c696873	0.014246094
177	0x3d65652e	0.056004696
178	0xbd003f12	-0.03131015
179	0xbd613ed7	-0.05499157
180	0xbde90cf7	-0.11379426
181	0xbac0bd48	-0.0014704848
182	0xbd57dfa3	-0.05270351
183	0xbdad6d8d	-0.08468161
184	0xbc867b6b	-0.016416272
185	0xbd22bfbd	-0.039733637
186	0xbcd589e2	-0.026066724
187	0xbdcabf95	-0.098998226
188	0xbdd1b0bb	-0.10238787
189	0x3d89cb7d	0.067282654
190	0xbd3422cd	-0.0439785
191	0x3d7c329d	0.061571706
192	0x3e1440aa	0.14477792
193	0x3d8604b9	0.065438695
194	0x3e1e34e8	0.1544987
195	0x3e25556f	0.16145872
196	0xbc293bf7	-0.010329238
197	0xbdcd03c9	-0.100104876
198	0xbc7b211e	-0.01532772
199	0x3d989056	0.07449405
200	0x3d7bd98f	0.061486777
201	0xbce7d7a3	-0.028301066
202	0x3db4a857	0.08821171
203	0x3e27dd88	0.16393101
204	0xbdb446f4	-0.08802596
205	0xbd6966d8	-0.056982845
206	0xbde7d2c8	-0.113195
207	0x3dfc574d	0.12321339
208	0x3e44de8e	0.19225523
209	0xbd7e92ae	-0.062151603
210	0xbc8ae641	-0.016955497
211	0x3d54d94b	0.05196504
212	0xbd0b52a6	-0.034014367
213	0x3d539006	0.051651023
214	0xbd9331ce	-0.07187234
215	0x3d86b7cc	0.06578025
216	0xbd1634a2	-0.03667129
217	0x3e103d94	0.1408599
218	0xbdce06cc	-0.1005989
219	0xbd0fb311	-0.03508288
220	0x3d868861	0.06568981
221	0x3d91a26c	0.07111058
222	0x3cf267f6	0.029590588
223	0x3d2aa372	0.04165978
224	0xbc1fb112	-0.009746807
225	0x3e2432ea	0.16035047
226	0x3e22db3d	0.15903945
227	0x3e36a167	0.17835008
228	0x3d956659	0.07294912
229	0xbd90feef	-0.07079875
230	0xbc00c5f8	-0.007859699
231	0x3c6be7da	0.014398539
232	0x3e208597	0.1567596
233	0x3d1f43c0	0.03888297
234	0x3e044143	0.1291552
235	0x3e2246df	0.15847348
236	0x3cfde66f	0.030993668
237	0x3daaf018	0.083465755
238	0x3d577837	0.05260488
239	0x3e0ff14d	0.14056893
240	0x3ca1e902	0.019764427
241	0x3e008f87	0.12554751
242	0xbd2017fc	-0.039085373
243	0x3d148119	0.03625593
244	0xbe0b2e38	-0.1359185
245	0x3c7bbf30	0.015365407
246	0x3d30eb58	0.04319319
247	0xbca986f0	-0.020694226
248	0xbd95ba94	-0.073109776
249	0xbcd3a06d	-0.025833333
250	0x3dbcfce8	0.092279255
251	0x3e027c23	0.12742667
252	0x3db179fd	0.086658455
253	0xbd2dda63	-0.042444598
254	0xbd066645	-0.032812376
255	0xbe17700f	-0.1478884

bias f4 [30]
0	0x3dbbdc38	0.09172863
1	0x3dd9b330	0.106298804
2	0xbdf4d295	-0.11954228
3	0xbd1789c8	-0.036996633
4	0xbd9f3268	-0.07773286
5	0xbe10c2ad	-0.14136763
6	0xbdeab7b3	-0.11460819
7	0x3e250159	0.16113795
8	0x3dd02ec7	0.10165172
9	0x3e4e8581	0.20168115
10	0xbdaa9729	-0.08329613
11	0x3da32f0e	0.07967959
12	0xbd927705	-0.071516074
13	0xbc68157a	-0.014165277
14	0xb9c5cf06	-0.00037729013
15	0x3dd4868a	0.10377224
16	0x3d2ceb1f	0.042216416
17	0x3cae3daf	0.021269647
18	0xbdfe3f8f	-0.124144666
19	0xbb68356d	-0.0035432235
20	0x3cc8fcd7	0.024534626
21	0x3daba8ea	0.08381827
22	0x3e05f5f1	0.130821
23	0x3dfa4784	0.12220672
24	0xbcf5460d	-0.02994063
25	0x3de53d0b	0.11193284
26	0xbd78bb24	-0.060725346
27	0x3de609bf	0.11232328
28	0x3d80a009	0.06280524
29	0x3d215e7a	0.03939674

weight_ih_l0 f4 [90, 30]
0	0xbe14f0a3	-0.1454492
1	0xbe061df8	-0.1309737
2	0x3e14de2a	0.14537874
3	0xbd35e544	-0.044408098
4	0x3d473fcb	0.048644822
5	0xbd6b8dbe	-0.057508223
6	0xbe0b5ece	-0.13610384
7	0x3df81dd8	0.12115067
8	0x3de232c5	0.1104484
9	0xbd74a4b3	-0.059727382
10	0xbcacc24c	-0.021088742
11	0x3da8b50b	0.08237656
12	0x3dc4f13f	0.096163265
13	0x3dc6f5f8	0.097148836
14	0xbdae3334	-0.0850586
15	0xbdb15bad	-0.08660064
16	0xbdfa6742	-0.12226726
17	0x3d4bec30	0.049785793
18	0xbdde181d	-0.10844443
19	0x3dcf9c7c	0.10137269
20	0x3e102aa7	0.1407877
21	0x3da472d3	0.080297135
22	0xbc904ebf	-0.017615674
23	0x3d046838	0.032325953
24	0xbdf0b768	-0.11753732
25	0x3d2e5d21	0.042569283
26	0x3e2742b9	0.16334046
27	0x3c3b9d3e	0.011451064
28	0xbe150c45	-0.14555462
29	0x3e0c9f2c	0.13732594
30	0x3d5d8acd	0.05408745
31	0x3e325996	0.17416987
32	0xbc5bbd92	-0.013411896
33	0xbd023a5a	-0.03179393
34	0x3e4caaeb	0.19987075
35	0xbe17ab10	-0.14811349
36	0xbdcc6c4d	-0.09981594
37	0xbd048d49	-0.032361303
38	0x3e1a2d53	0.15056352
39	0xbe293463	-0.1652389
40	0x3dfeef20	0.12447953
41	0x3e0c13dd	0.13679452
42	0xbd2cab46	-0.042155527
43	0xbde99f9e	-0.11407398
44	0x3e03dee0	0.12877989
45	0x3e1202f7	0.14258943
46	0xbe06a7af	-0.13149904
47	0xbd6fd4f6	-0.058552705
48	0x3cdf285c	0.027240925
49	0x3df4fef5	0.11962692
50	0x3ced8066	0.02899189
51	0x3d9b9a72	0.075978175
52	0x3d28ca67	0.04120865
53	0xbdede6e9	-0.11616308
54	0xbe34b2d6	-0.17646345
55	0xbdfadddd	-0.12249348
56	0xbdabaa8f	-0.08382141
57	0x3dcce9ec	0.100055546
58	0x3cae5da7	0.021284891
59	0x3e1da0ac	0.15393323
60	0x3e2e3967	0.17014085
61	0xbe2c4e25	-0.16826685
62	0x3cf7d210	0.030251533
63	0xbe0fb0a6	-0.1403223
64	0xbe1912d5	-0.1494859
65	0x3d009dae	0.031400375
66	0xbdaf00ba	-0.085450605
67	0x3d185d22	0.037198193
68	0x3e0c57c6	0.13705358
69	0xbcb3881e	-0.021915492
70	0xbdc2b859	-0.09507818
71	0x3c79bebd	0.015243229
72	0x3a447c0a	0.000749529
73	0x3dc316aa	0.09525807
74	0xbc00dd7d	-0.007865307
75	0x3dfdf445	0.12400106
76	0x3e1e9bfc	0.15489191
77	0x3d62f2a4	0.05540718
78	0x3de9911d	0.11404631
79	0x3e0e581b	0.13900797
80	0x3dfc30f5	0.12314025
81	0x3da97e26	0.08276014
82	0x3d0ee006	0.034881614
83	0x3e280dce	0.16411516
84	0xbc9805a6	-0.01855738
85	0xbdd5242d	-0.104072906
86	0x3cda80eb	0.026672801
87	0xbe2cb7de	-0.16867015
88	0xbdb73d7b	-0.08947273
89	0xbdece97a	-0.115679696
90	0x3dbb8c93	0.09157672
91	0x3d18c871	0.03730053
92	0xbdfdd715	-0.12394539
93	0x3e2117a5	0.15731676
94	0xbb9d4187	-0.0047990712
95	0x3b80507a	0.0039158436
96	0x3e1dbb8d	0.15403576
97	0xbccc227f	-0.024918793
98	0xbdaaabce	-0.083335504
99	0x3d9720cd	0.07379303
100	0x3ce802b2	0.028321598
101	0x3e2200f5	0.15820678
102	0x3e1ca256	0.15296301
103	0xbd1c5177	-0.03816363
104	0xbe07087e	-0.13186833
105	0x3d356e53	0.044294666
106	0x3dec48b3	0.11537304
107	0x3e2e485e	0.17019793
108	0xbd1fceda	-0.03901563
109	0x3cb79fe0	0.022415102
110	0x3e329bc4	0.17442232
111	0xbe29301e	-0.16522262
112	0xbda9c265	-0.08289031
113	0x3d9acbb7	0.07558387
114	0xbcf5f22b	-0.030022701
115	0x3d45a8a4	0.04825653
116	0x3d9eaaec	0.077474445
117	0xbe26bf81	-0.1628399
118	0xbe16b3a4	-0.14716965
119	0x3e07b8e0	0.13254118
120	0x3b5bf2c2	0.0033561443
121	0x3db03c62	0.08605267
122	0x3d7dde45	0.06197955
123	0x3d9add0e	0.07561694
124	0x3d41c13f	0.047303434
125	0x3d1815c7	0.037130143
126	0x3dda37c6	0.10655169
127	0x3d93cadc	0.07216427
128	0xbd72a120	-0.059235692
129	0x3db32294	0.0874683
130	0xbd303317	-0.043017473
131	0x3e306a23	0.17227988
132	0xbd929631	-0.07157553
133	0x3dce2acb	0.10066756
134	0x3d8aff09	0.06786925
135	0x3c5979e6	0.013273692
136	0x3d815c78	0.06316465
137	0x3df8fabf	0.12157201
138	0x3d6d6f71	0.057967607
139	0xbe1a8b4a	-0.15092197
140	0xbdba6c7e	-0.091027245
141	0x3d547e87	0.05187848
142	0xbdcead42	-0.1009164
143	0x3d1e0689	0.03858045
144	0xbe32ab9c	-0.17448276
145	0x3dc0fd8b	0.094233595
146	0x3cec1a39	0.028821098
147	0x3d86da1f	0.06584572
148	0x3cee50da	0.029091287
149	0x3d807170	0.062716365
150	0x3b687094	0.0035467492
151	0x3cffb91b	0.031216195
152	0x3c866222	0.016404215
153	0xbded5a07	-0.11589437
154	0x3dff64be	0.12470387
155	0x3e2f3e80	0.17113686
156	0x3dd0c9c2	0.10194732
157	0xbcb23d37	-0.021757705
158	0x3d76c063	0.060242068
159	0x3dbf5480	0.09342289
160	0x3e063878	0.13107479
161	0x3d9c4d93	0.076319836
162	0xbdb901a3	-0.09033515
163	0x3e2dfc16	0.16990694
164	0x3b9ff198	0.004881095
165	0xbdf1b581	-0.11802197
166	0xbd33981b	-0.04384623
167	0x3da4f915	0.08055321
168	0xbd6e09bd	-0.058114756
169	0x3d8e055e	0.069346175
170	0x3de3c757	0.111220054
171	0x3e13043c	0.14357084
172	0x3df232cc	0.11826095
173	0x3db53785	0.0884848
174	0xbe14a562	-0.14516214
175	0x3c07a17d	0.008278248
176	0x3e060742	0.13088706
177	0x3d27293e	0.040810816
178	0x3b4bf433	0.0031120896
179	0x3de7f560	0.113260984
180	0xbe223e06	-0.15843973
181	0xbe2f0652	-0.17092255
182	0x3e2bb881	0.16769601
183	0x3dc24397	0.09485548
184	0x39aabbc4	0.00032564823
185	0xbd2d697d	-0.04233693
186	0xbd9b57a3	-0.07585075
187	0x3cc80d51	0.024420412
188	0x3e369d26	0.17833385
189	0xbd859b44	-0.06523755
190	0xbe1844e7	-0.14870034
191	0xbe2978a7	-0.16549931
192	0xbd9fe884	-0.07808021
193	0xbd86185b	-0.06547614
194	0xbda7ff0c	-0.08202943
195	0x3dd352da	0.10318537
196	0x3d695ec5	0.056975145
197	0x3d544769	0.051825915
198	0xbe1b50e5	-0.15167578
199	0x3d8e6ad2	0.06953968
200	0xbd79784a	-0.060905732
201	0xbe09acdb	-0.13444845
202	0xbd3ec9ed	-0.04657929
203	0x3c9aac52	0.018880997
204	0x3c9b9e19	0.018996285
205	0x3dfeba87	0.12437921
206	0xbd487651	-0.04894096
207	0x3e0086f4	0.1255148
208	0x3d6a9b83	0.057277214
209	0xbd57ded5	-0.052702744
210	0xbe2611c2	-0.16217712
211	0x3d424760	0.04743135
212	0xbce5f550	-0.028071076
213	0xbd21bd03	-0.039486896
214	0xbddf4053	-0.10900941
215	0x3a462588	0.0007558693
216	0x3ca3f13e	0.020012494
217	0xbda6b9ab	-0.08140882
218	0x3e37eb31	0.17960812
219	0x3e3b92b8	0.18317688
220	0xbdd94ff7	-0.10610955
221	0x3d43fed5	0.04785045
222	0xbc06ed53	-0.008235293
223	0xbce1ea32	-0.027577493
224	0x3e1bf39f	0.15229653
225	0xbd81ac7e	-0.063317284
226	0xbdbbf2c7	-0.091771655
227	0x3de15ff4	0.1100463
228	0xbe0baaa1	-0.13639309
229	0x3e0fa9e0	0.14029646
230	0xbd338a29	-0.04383293
231	0xbe2b0726	-0.16701946
232	0xbd5d1d4d	-0.05398302
233	0xbd724a05	-0.05915262
234	0xbdc99761	-0.09843326
235	0x3cfa3918	0.030544803
236	0xbd420388	-0.04736665
237	0x3d25f8e4	0.040520564
238	0x3d9b8d93	0.075953625
239	0x3ca484fd	0.020082945
240	0x3e2d14e9	0.16902508
241	0xbe2e208f	-0.17004608
242	0xbdada2f0	-0.084783435
243	0x3d9ae56b	0.07563289
244	0xbdceced1	-0.10098041
245	0xbb636ee3	-0.0034703545
246	0xbd1ccc3c	-0.03828071
247	0xbe2f33c0	-0.17109585
248	0xbc922d41	-0.017843844
249	0x3d9071e6	0.070529744
250	0x3d833beb	0.06407913
251	0x3cb773ec	0.022394143
252	0x3d86b961	0.06578327
253	0xbe06a5f6	-0.13149247
254	0x3e173fe1	0.14770462
255	0x3e31e248	0.17371476

weight_hh_l0 f4 [90, 30]
0	0x3da43ed0	0.08019793
1	0xbe437d95	-0.19090874
2	0xbc5de30b	-0.013542901
3	0x3e44052a	0.19142595
4	0x3d90087c	0.07032868
5	0xbe3af4a1	-0.18257381
6	0x3de16292	0.11005129
7	0x3d828d56	0.06374614
8	0x3dd8b081	0.105805404
9	0x3d0a18b0	0.03371495
10	0xbe19f34e	-0.1503422
11	0x3d8412e4	0.064489156
12	0xbd2a75b7	-0.041616168
13	0xbd54cc99	-0.051952932
14	0x3dada133	0.08478012
15	0xbdf50354	-0.119635254
16	0xbd4b90f2	-0.049698777
17	0xbdec479e	-0.115370974
18	0xbe445ee5	-0.19176824
19	0xbd0e9c3a	-0.034816958
20	0x3dd2a40e	0.10285197
21	0x3e0eac55	0.13932927
22	0x3d896850	0.06709349
23	0x3deafadc	0.11473629
24	0xbdaf71cd	-0.08566628
25	0xbd0abdcf	-0.03387242
26	0xbdf037c9	-0.1172939
27	0xbb7856ad	-0.003789346
28	0x3e16d649	0.14730181
29	0xbc0da36b	-0.008644919
30	0xbdf78b02	-0.120870605
31	0xbd858ade	-0.065206274
32	0xbe44ff70	-0.19238067
33	0x3de62872	0.11238183
34	0x3d57b706	0.05266478
35	0xbe1c90d5	-0.15289624
36	0x3d6f43bd	0.05841421
37	0xbdd67b7c	-0.104727715
38	0xbe121810	-0.14266992
39	0x3cce48c0	0.025181174
40	0xbc62dbc3	-0.013846341
41	0xbe48e14e	-0.19617197
42	0x3dc46da0	0.09591222
43	0xbe4bda80	-0.1990757
44	0xbdbd3bcb	-0.0923992
45	0x3d37f687	0.04491284
46	0x3d23c32c	0.039981052
47	0xbd3c94d7	-0.046040382
48	0xbd836f71	-0.0641774
49	0xbdb16cd3	-0.08663335
50	0xbc808991	-0.015690597
51	0xbd80e3f7	-0.06293481
52	0xbcff2790	-0.031146795
53	0x3d82e2d5	0.06390921
54	0x3cf97591	0.030451568
55	0xbd3111c1	-0.043229822
56	0x3dea9ba5	0.11455468
57	0x3c119625	0.008885895
58	0x3da25d39	0.07927937
59	0xbe3f631c	-0.18690151
60	0xbe255c30	-0.16148448
61	0x3e3a106c	0.18170327
62	0xbe051da0	-0.12999582
63	0xbd2aec49	-0.041729245
64	0xbd8e9f44	-0.06963971
65	0xbdd48a55	-0.10377947
66	0xbd12df9c	-0.03585778
67	0x3ca62a74	0.020283915
68	0xbe1be2ae	-0.1522319
69	0xbe1a244e	-0.15052912
70	0x3dd65575	0.104655184
71	0x3e2519f9	0.16123189
72	0xbddf5e2f	-0.10906636
73	0xbd6a63b7	-0.057224
74	0x3d83ed4b	0.064417444
75	0x3e16dbb6	0.1473225
76	0xbd8a02fd	-0.06738851
77	0xbd3bc674	-0.045843557
78	0x3dbcfa80	0.092274666
79	0x3bdb39cb	0.006690239
80	0x3cccf310	0.025018245
81	0x3e4f3c21	0.20237781
82	0xbe17bc1f	-0.14817856
83	0xbd84a231	-0.06476248
84	0xbdb96769	-0.09052927
85	0x3df2ebd8	0.1186139
86	0xbbe7b338	-0.007070925
87	0x3db83381	0.089941986
88	0x3e1105ae	0.14162323
89	0xbded6738	-0.11591953
90	0x3d112f5e	0.035445563
91	0x3ddd3d5c	0.10802719
92	0xbe31e986	-0.17374238
93	0x3e528350	0.20557904
94	0xbe088655	-0.13332494
95	0x3dd7c89d	0.10536311
96	0xbbb73f8c	-0.005592292
97	0xbd60a4c4	-0.054844633
98	0x3e4227d9	0.18960513
99	0x3dee74e2	0.116433874
100	0xbc451605	-0.012029176
101	0x3dade20a	0.08490379
102	0xbc6212fb	-0.013798471
103	0xbe684914	-0.22684127
104	0x3d7d76a6	0.06188073
105	0xbddabdd7	-0.1068074
106	0xbd961228	-0.07327682
107	0xbda3550b	-0.07975205
108	0xbdd6f87d	-0.10496614
109	0x3d281a95	0.041040976
110	0x3e34fac1	0.1767378
111	0x3d79160a	0.060812034
112	0x3dd51022	0.10403468
113	0xbc9acab9	-0.018895494
114	0xbd943a9e	-0.07237743
115	0xbe0fcd6d	-0.14043207
116	0x3d9a4f68	0.07534677
117	0x3e1cbec2	0.15307143
118	0x3ca8dd17	0.020613236
119	0xbdf91130	-0.121614814
120	0x3ccffb2d	0.025388325
121	0xbe458c2f	-0.19291757
122	0xbcd25657	-0.025675936
123	0x3ddfd731	0.109297164
124	0x3d012c1e	0.031536214
125	0x3da0899d	0.07838748
126	0x3de28bd4	0.11061826
127	0xbc6eb198	-0.014568709
128	0x3e4ded0e	0.2010996
129	0x3e4f43f0	0.2024076
130	0x3e039b56	0.12852225
131	0xbd75cbec	-0.06000893
132	0x3d598ac5	0.053110857
133	0xbdacc1e0	-0.08435416
134	0x3dab58fa	0.0836658
135	0x3d8f6da8	0.07003337
136	0x3d64054f	0.055669125
137	0xbdc50964	-0.09620932
138	0xbe72791c	-0.23679012
139	0x3d890ce8	0.06691915
140	0x3e5b093c	0.21390241
141	0x3d4f9ef6	0.050688706
142	0xbd84b793	-0.064803265
143	0x3e5cb707	0.21554194
144	0xbd642a6e	-0.055704527
145	0xbe090d22	-0.13383916
146	0x3dbb8952	0.09157051
147	0xbe05b7dc	-0.13058418
148	0x3d57a6bd	0.05264925
149	0xbe39ee1b	-0.18157236
150	0xba991728	-0.0011679875
151	0xbd7487b4	-0.05969973
152	0x3bed644c	0.0072446223
153	0xbd028194	-0.031861857
154	0x39b886dc	0.00035195693
155	0xbd8b76fb	-0.06809803
156	0xbe33d4cc	-0.17561644
157	0xbe16f500	-0.14741898
158	0x3e1c47e6	0.15261802
159	0xbe1a1f17	-0.15050922
160	0x3e1559d2	0.14585045
161	0x3dc38ca8	0.095483124
162	0xbe1d816d	-0.15381403
163	0xbddddc05	-0.10832981
164	0x3d943f87	0.072386794
165	0xbdc2338b	-0.09482487
166	0x3e2ad81d	0.16684003
167	0x3d01ed13	0.031720232
168	0xbcbd09e3	-0.023076003
169	0x3df15bab	0.117850624
170	0xbe006718	-0.12539327
171	0x3deac098	0.114625156
172	0xbdd9a7d3	-0.10627713
173	0xbd1c94f9	-0.03822801
174	0xbc2d6c08	-0.010584839
175	0xbe395f8c	-0.18102854
176	0x3e28d701	0.16488267
177	0x3cd9f16a	0.026604373
178	0xbb8cf166	-0.004301238
179	0xbe3d7a5e	-0.1850371
180	0x3e52609b	0.20544665
181	0xbe0fc04a	-0.14038196
182	0x3e03638e	0.12830946
183	0xbde92ed5	-0.113858856
184	0xbd86a6f5	-0.06574813
185	0x3ce1e19a	0.027573396
186	0xbe347428	-0.17622435
187	0xbe085fb1	-0.13317753
188	0xbe380e51	-0.17974211
189	0xbd59f13a	-0.053208567
190	0xbe1571c7	-0.14594184
191	0x3e37c61c	0.17946666
192	0xbe2d153b	-0.1690263
193	0xbd58951f	-0.052876588
194	0x3e1df1f8	0.15424335
195	0x3d22dfc9	0.0397642
196	0xbd71e251	-0.059053723
197	0xbe2a0252	-0.16602448
198	0xbddd6fd1	-0.10812343
199	0x3dbd50e1	0.09243942
200	0xbde77067	-0.11300736
201	0xbe186751	-0.14883162
202	0x3df1a7ab	0.11799558
203	0x3be4cfae	0.006982765
204	0xbe201f9f	-0.15637062
205	0x3c79cafc	0.015246149
206	0x3deab413	0.11460128
207	0x3dc40db2	0.09572925
208	0xbe330bfb	-0.17485039
209	0xbb8cc2f4	-0.004295701
210	0xbe775c89	-0.24156393
211	0xbd854fd0	-0.06509364
212	0x3bea9528	0.007158894
213	0x3e875cac	0.2643789
214	0x3d29dac0	0.041468382
215	0xbe2b5797	-0.16732632
216	0x3de9bbf4	0.11412802
217	0x3dc6864f	0.09693586
218	0x3db21409	0.08695228
219	0x3e67e813	0.22647123
220	0x3d816ea4	0.06319931
221	0xbe1098a8	-0.14120734
222	0xbdc51c4a	-0.09624536
223	0x3cb3010a	0.021851081
224	0xbdccd5c3	-0.10001709
225	0x3dc3c2b5	0.09558622
226	0xbd9ea60f	-0.07746517
227	0x3d07380b	0.03301243
228	0xbe306146	-0.17224607
229	0x3ce9e346	0.028550755
230	0x3e5d969f	0.21639489
231	0x3d96cb59	0.07363004
232	0xbdade323	-0.084905885
233	0x3e196cf3	0.14982967
234	0xbd176472	-0.036961026
235	0x3dc43636	0.095806524
236	0xbd4d1a94	-0.050074175
237	0xbe5b6aee	-0.21427509
238	0x3b178954	0.0023122625
239	0xbe234f91	-0.15948321
240	0xbe3f76a2	-0.18697599
241	0x3d92cfdc	0.07168552
242	0xbdba10c8	-0.09085232
243	0x3e668290	0.22510743
244	0xbe689a99	-0.22715224
245	0xbd37ff5a	-0.044921257
246	0xbe8d9265	-0.27650753
247	0xbe87a85f	-0.26495644
248	0x3e91fc98	0.28513026
249	0x3e9600d1	0.29297498
250	0xbd8af850	-0.06785643
251	0xbe29db3e	-0.1658754
252	0xbdb73eab	-0.089475
253	0xbe610ba7	-0.21977101
254	0x3e04a897	0.12954937
255	0x3e226bfb	0.15861504

bias_ih_l0 f4 [90]
0	0x3b7026d4	0.0036644237
1	0x3cd27173	0.025688862
2	0x3d48b7fa	0.04900358
3	0xbd5bd237	-0.053667273
4	0x3e5f43f5	0.21803267
5	0x3e0658fe	0.13119885
6	0xbddf82a7	-0.10913592
7	0x3e363443	0.17793374
8	0x3e8f3553	0.2797037
9	0x3e061f1e	0.13097808
10	0xbe06d027	-0.13165341
11	0xbc879308	-0.016549602
12	0xbda2da29	-0.07951767
13	0x3dc437dc	0.09580967
14	0x3da61a37	0.08110469
15	0x3dcceca9	0.10006077
16	0x3d8e25bf	0.06940793
17	0xbdb73e24	-0.08947399
18	0xbd0f6f58	-0.035018295
19	0x3d01e04b	0.031708043
20	0x3db0cc4d	0.08632717
21	0x3db4dc0b	0.08831032
22	0x3e46bc80	0.19407845
23	0xbe0a079e	-0.13479468
24	0x3d4c099c	0.04981385
25	0xbdbd5b77	-0.09245961
26	0x3caba62a	0.020953257
27	0x3d287ddf	0.041135665
28	0xbbd95bba	-0.006633249
29	0x3e09b547	0.13448058
30	0xbdb6340f	-0.08896648
31	0xbe0591e4	-0.13043934
32	0xbc3c5aee	-0.011496289
33	0xbdab36cc	-0.08360061
34	0xbd412877	-0.04715773
35	0xbe18a5af	-0.14906953
36	0x3dd64dcf	0.104640596
37	0x3df49bc2	0.11943771
38	0xbe1268ae	-0.14297745
39	0xbe59171e	-0.21200225
40	0x3dc6ea41	0.09712649
41	0x3e385527	0.18001233
42	0x3df94f8c	0.121733755
43	0xbdf94925	-0.12172154
44	0xbab96c02	-0.0014146569
45	0x3e189f70	0.1490457
46	0xbd195959	-0.037438724
47	0x3e50c9cb	0.20389478
48	0x3dbcf27d	0.092259385
49	0xbe002b3a	-0.1251649
50	0x3c8bef2d	0.017081821
51	0xbcf05340	-0.029336572
52	0x3d9be128	0.076113045
53	0x3df840e7	0.12121754
54	0x3d6b249e	0.057407968
55	0xbe2477c3	-0.1606131
56	0x3e014e57	0.1262754
57	0x3df01b04	0.11723903
58	0x3ce00324	0.027345248
59	0xbc73b52b	-0.014874737
60	0xbe10b646	-0.14132032
61	0x3dc39da5	0.09551553
62	0x3e4f4bb1	0.20243718
63	0xbd1bfb4a	-0.038081445
64	0xbded4140	-0.11584711
65	0xbe3442d3	-0.17603616
66	0xbd02e935	-0.031960685
67	0x3c95d0f1	0.018288108
68	0x3e41e3df	0.18934582
69	0x3e87c5f9	0.2651823
70	0x3cfdf1a8	0.03099902
71	0xbde2488f	-0.11048996
72	0xbe0c1050	-0.13678098
73	0xbe0d69f0	-0.13809943
74	0xbde86b14	-0.113485485
75	0xbd98acae	-0.07454811
76	0x3e466195	0.19373162
77	0x3df797bb	0.12089487
78	0xbc9bcc02	-0.019018177
79	0x3e059731	0.13045956
80	0x3df8de28	0.12151748
81	0x3e23edae	0.16008636
82	0xbdf5b342	-0.11997081
83	0xbd6d442e	-0.05792635
84	0x3c970bb4	0.018438198
85	0xbd8010b6	-0.06253187
86	0xbe6db676	-0.23214135
87	0xbde0068e	-0.1093875
88	0xbd6ded00	-0.05808735
89	0xbe70120a	-0.23444381

bias_hh_l0 f4 [90]
0	0xbd63a3a5	-0.055575985
1	0x3d2cfe60	0.04223478
2	0xbe3b5ec4	-0.18297869
3	0x3e6987cf	0.22805713
4	0x3d56f6d5	0.05248149
5	0x3e4b928a	0.19880119
6	0xbe5a3bad	-0.21311827
7	0x3e6692f9	0.22517003
8	0x3e016ef6	0.12639984
9	0xbda47972	-0.08030976
10	0x3dfd2892	0.12361254
11	0xbcc62b87	-0.024190677
12	0x3df63e26	0.120235726
13	0xbd8ae9b1	-0.06782854
14	0xbe6a571e	-0.22884795
15	0xbdc811bd	-0.09769008
16	0x3cc4d4fb	0.024027338
17	0xbe0bc8c7	-0.13650809
18	0x3e3d3276	0.1847628
19	0x3bf5f32c	0.007505795
20	0x3df7f911	0.121080525
21	0xbe014ad5	-0.12626202
22	0x3ddf4cfb	0.10903355
23	0x3c3f9ddd	0.011695352
24	0x3ddb8546	0.10718779
25	0x3df32a95	0.11873356
26	0xbd1dcd99	-0.03852615
27	0xbcab957e	-0.020945307
28	0xbd8a90af	-0.067658775
29	0x3dbf9965	0.093554296
30	0xbdf8aa48	-0.121418536
31	0xbe650962	-0.2236686
32	0x3e3d1368	0.18464434
33	0x3e13043c	0.14357084
34	0xbdce29df	-0.1006658
35	0x3d636e4d	0.055525113
36	0x3d466b94	0.04844244
37	0xbd20ea05	-0.03928568
38	0xbd9d5d28	-0.07683784
39	0xbe235016	-0.15948519
40	0x3e14685c	0.14492935
41	0x3cbb651a	0.022875357
42	0x3d022f25	0.03178324
43	0x3ddd5f67	0.10809212
44	0x3d2375f3	0.039907407
45	0x3e827110	0.25476885
46	0x3de6825a	0.11255331
47	0xbd132744	-0.03592612
48	0xbdf8df14	-0.12151924
49	0xbd656e6a	-0.056013502
50	0x3d93ea75	0.072224535
51	0x3dc0c67b	0.09412857
52	0xbd0f5729	-0.03499523
53	0x3e094cbe	0.13408181
54	0xbd8d5f7a	-0.06902976
55	0xbe18bd1d	-0.14915891
56	0x3e001122	0.12506536
57	0xbd9c5585	-0.07633499
58	0xbd45c780	-0.04828596
59	0x3d3cee88	0.04612592
60	0xbe868f8e	-0.262814
61	0xbe009bf6	-0.12559494
62	0x3ddf5009	0.10903937
63	0x3a771864	0.0009425937
64	0xbdd02bb3	-0.10164585
65	0xbc5ab2ae	-0.013348265
66	0x3e189d3a	0.14903727
67	0xbe7c64bd	-0.24647804
68	0xbd888b52	-0.06667198
69	0x3e85bc01	0.26119998
70	0xbcef9b68	-0.029248908
71	0x3d95ab20	0.0730803
72	0xbdb15fb2	-0.086608306
73	0xbd0891fe	-0.033342354
74	0x3e07695d	0.13223787
75	0xbcec54c0	-0.028849006
76	0xbd6cfb08	-0.05785659
77	0xbc365a75	-0.011129965
78	0xbdf47fdc	-0.1193845
79	0x3c8aff5a	0.016967464
80	0x3e5a082b	0.21292178
81	0x3e90a815	0.28253236
82	0xbe286113	-0.16443281
83	0x3c8ee680	0.017443895
84	0xbe906788	-0.28203988
85	0xbdd06880	-0.10176182
86	0xbb88a823	-0.004170434
87	0xbe74161a	-0.23836556
88	0x3dfac7e7	0.122451596
89	0xbdf0b4e4	-0.11753252

weight f4 [8, 30]
0	0x3d0a1b10	0.033717215
1	0xbcba9447	-0.022775782
2	0x3de7664c	0.112988085
3	0x3cb056a4	0.021525688
4	0x3d6a8b06	0.05726149
5	0xbce6b5d2	-0.02816287
6	0x3cdb69ba	0.026783813
7	0x3cf6e7a2	0.030139748
8	0x3d2dbd7e	0.042417042
9	0x3c2679f5	0.010160913
10	0x3d84aa20	0.06477761
11	0x3cad1c03	0.021131521
12	0xbe122ba7	-0.14274465
13	0xbd84dee7	-0.06487828
14	0x3d51b3e3	0.051196944
15	0x3d0ab135	0.033860404
16	0x3c3880ba	0.01126116
17	0xbe0d3930	-0.13791347
18	0x3cab2347	0.020890845
19	0xb9ee0aeb	-0.00045403032
20	0x3cc3ac95	0.023886004
21	0x3c5433ff	0.01295185
22	0xbcb48553	-0.02203623
23	0xbafe6a26	-0.0019410297
24	0xbd25f811	-0.040519778
25	0xbacfd32a	-0.0015855778
26	0xbd0fc1c4	-0.0350969
27	0x3caa1e6b	0.020766458
28	0x3d458352	0.04822094
29	0xbc08f5c4	-0.008359376
30	0xbd8e5be5	-0.06951121
31	0xbdc04dba	-0.09389825
32	0x3e53bf47	0.20678435
33	0x3db66f35	0.0890793
34	0xbdc74335	-0.097296156
35	0xbcfb9bad	-0.03071388
36	0x3cf12011	0.029434236
37	0xbd93d4ec	-0.07218346
38	0x3d297b9c	0.04137765
39	0x3db37c83	0.08763983
40	0xbe31ce1a	-0.17363778
41	0xbc631240	-0.013859332
42	0xbdd18343	-0.10230114
43	0xbdad2be7	-0.08455639
44	0xbca41423	-0.020029133
45	0x3db80dbb	0.08986994
46	0x3d66923e	0.05629181
47	0x3caf087c	0.02136635
48	0x3da65e43	0.08123448
49	0x3d34e53f	0.04416394
50	0x3caff1f5	0.021477679
51	0xbc73d98f	-0.014883413
52	0xbd998572	-0.07496156
53	0x3d965f17	0.07342356
54	0xbdb54d6c	-0.08852658
55	0xbd9e0eeb	-0.07717689
56	0xbd45cfa0	-0.04829371
57	0xbd637154	-0.055528
58	0x3da3807a	0.07983489
59	0xbdb77771	-0.089583285
60	0x3b25fb93	0.0025326952
61	0x399b3d23	0.00029609454
62	0x3ac3e371	0.0014945102
63	0xbaada86d	-0.0013249047
64	0x3afe0ac0	0.0019381866
65	0x3b01ad97	0.0019787306
66	0x3ab8957b	0.0014082635
67	0x3af0f998	0.0018384932
68	0xbae4ad5e	-0.0017446687
69	0xbb34f25a	-0.0027610273
70	0xbbd64fea	-0.006540288
71	0x3b27e2f7	0.002561746
72	0x3baebb45	0.005332383
73	0x3b36c690	0.0027889349
74	0x3b06b655	0.0020555456
75	0xbb021b56	-0.001985272
76	0xb8fe348e	-0.00012121453
77	0xbc9ef8fa	-0.01940583
78	0x3ae29a4b	0.0017288415
79	0x3a97636c	0.0011550016
80	0xbad03650	-0.0015885327
81	0xba0258a9	-0.0004972318
82	0x3b0e0518	0.0021670517
83	0xbac83a62	-0.0015276188
84	0x3a40df43	0.00073574873
85	0x3ae1eb29	0.0017236221
86	0x3bb9e375	0.005672867
87	0xba84820f	-0.0010109561
88	0xbb05d43d	-0.0020420693
89	0x3b131b1c	0.0022446578
90	0x3a63b37f	0.000868611
91	0x39cde4a6	0.00039271003
92	0x3d0256c9	0.031821046
93	0xba659273	-0.00087574794
94	0x3a5f9968	0.0008529634
95	0x3a60d3eb	0.00085765
96	0x3a290ea0	0.00064490177
97	0x3a60d017	0.00085759297
98	0xba539cbd	-0.0008072367
99	0xba405db7	-0.00073381833
100	0xbb2df81f	-0.0026545597
101	0x3a54182e	0.0008090761
102	0xbc240b17	-0.01001241
103	0x3a691aa8	0.0008892217
104	0xba0ae9cd	-0.0005299121
105	0xba60ded8	-0.0008578128
106	0xba2ff1c4	-0.0006711746
107	0xbc9f3b42	-0.019437436
108	0x3a37f410	0.0007017264
109	0xb93080af	-0.00016832606
110	0xba5d932a	-0.000845241
111	0xb995c3ff	-0.00028565523
112	0x3a692065	0.0008893072
113	0xba4f3ef9	-0.0007905807
114	0x398bc695	0.000266601
115	0x3a003438	0.00048905937
116	0x3c2fc096	0.010727068
117	0xb9d5132e	-0.00040640816
118	0xba6d1f60	-0.0009045508
119	0x3a5f0893	0.00085080526
120	0x3ad45f69	0.0016202751
121	0x3cb867b4	0.022510387
122	0xbda6aafd	-0.08138082
123	0x3d0a9967	0.033837702
124	0x3cc52ea2	0.024070088
125	0xbc1a2f4a	-0.009410689
126	0x3cef24f6	0.029192429
127	0x3979c148	0.00023818493
128	0xb9d81a9e	-0.00041218562
129	0xbc25ec96	-0.010127207
130	0x3d73157d	0.059346665
131	0x3cae1dd8	0.021254465
132	0x3c92f457	0.017938776
133	0x3c21768e	0.009854926
134	0x3c820181	0.015869858
135	0xbc90b7a1	-0.017665686
136	0xbc7fed49	-0.015620538
137	0xbd3a864b	-0.045538228
138	0x39c4bd8f	0.00037525265
139	0xba90258b	-0.0010997517
140	0xbab48411	-0.0013772269
141	0xbad542b2	-0.0016270487
142	0x3c893eab	0.016753515
143	0xbbcd6e83	-0.0062692775
144	0xbc97a915	-0.018513242
145	0xbbee1f3a	-0.007266906
146	0xbd604138	-0.054749697
147	0xbbc16f38	-0.005903151
148	0xbd033313	-0.03203113
149	0xbb83b7b8	-0.0040197037
150	0x3ca447aa	0.020053703
151	0xbbf39884	-0.0074339528
152	0xb93c94b3	-0.00017984472
153	0x3b95252d	0.004551551
154	0xbc5efa23	-0.013609442
155	0xbb95edca	-0.004575466
156	0xbbba49ab	-0.0056850514
157	0x3c99b5f8	0.018763527
158	0xbbb60e22	-0.005555884
159	0x3c99d6ad	0.018779123
160	0x3d765578	0.060140103
161	0xbbcad454	-0.0061898623
162	0x3d20c17c	0.03924702
163	0x3c47f33d	0.012203989
164	0xba01394f	-0.0004929499
165	0x3ceb8979	0.028752076
166	0xb98938ca	-0.00026172987
167	0x3d8654bc	0.065591305
168	0x3c26ea6b	0.010187726
169	0x3c532fed	0.012889844
170	0xbcb1aa0b	-0.021687528
171	0xbb7c7ec9	-0.0038527718
172	0x3be325c0	0.0069319904
173	0xba06bdd8	-0.0005139983
174	0x3ca64544	0.0202967
175	0x3c56458b	0.013078104
176	0x3d561e80	0.05227518
177	0x3cab4a26	0.02090938
178	0x3cbdf5de	0.023188528
179	0xbca7de07	-0.020491613
180	0x3b37dcc1	0.0028055164
181	0x3a63298e	0.0008665555
182	0x3ccfe4ee	0.025377717
183	0xbb597b00	-0.0033184886
184	0x3b5916fb	0.003312527
185	0x3b766899	0.0037598966
186	0x3b2e8184	0.002662749
187	0x3b03be7c	0.0020102551
188	0xbb661eb8	-0.0035113525
189	0xbb252aa2	-0.0025202413
190	0x3c85ad40	0.016317964
191	0x3b5f9c59	0.003412029
192	0xbaf98ccc	-0.0019039153
193	0x3b248043	0.0025100864
194	0x3b062928	0.0020471308
195	0xbafc69a5	-0.0019257559
196	0x3a28ae85	0.0006434697
197	0x3cfdb9d8	0.030972406
198	0x3aa3767f	0.0012471228
199	0xbb24a455	-0.0025122364
200	0xbbbc6581	-0.005749405
201	0xbaf8fe14	-0.001899662
202	0x3b626dc8	0.0034550298
203	0xbb2ebe0a	-0.0026663565
204	0xb8c7e0cc	-9.530931e-05
205	0x3aa313a3	0.0012441765
206	0x3b98c285	0.0046618604
207	0xbb503250	-0.003176827
208	0xba030edc	-0.00049994676
209	0x3b3a2923	0.0028405867
210	0xbd099e04	-0.03359796
211	0xbc7c5425	-0.015400921
212	0x3da25ae5	0.07927493
213	0x3c3ba2a5	0.011452352
214	0x3d425630	0.047445476
215	0xbd970e77	-0.07375806
216	0x3cd11cd2	0.025526438
217	0x3ca2cd8a	0.0198734
218	0xbc7d4420	-0.015458137
219	0x3c05e7d3	0.008172947
220	0xbd494454	-0.04913743
221	0xbd65636c	-0.05600302
222	0xbd0d8634	-0.034551814
223	0x3c60560b	0.013692389
224	0xbce26964	-0.027638145
225	0x3ce9eabc	0.028554313
226	0xbc923574	-0.017847754
227	0x3cc64f5a	0.02420776
228	0x3cc1952e	0.023630705
229	0x3ba2473b	0.004952339
230	0x3d75cb17	0.060008135
231	0xbcdb3370	-0.026757926
232	0xbc7a292e	-0.015268607
233	0x3c8631c3	0.01638115
234	0xbc03912d	-0.008030218
235	0xbd177eb0	-0.036986053
236	0xbbf8fa4a	-0.007598196
237	0xbd0101b1	-0.031495754
238	0x3d1010cb	0.035172265
239	0xbd2bc796	-0.041938387

bias f4 [8]
0	0x3d45ff5d	0.048339237
1	0x3e1fd863	0.15609889
2	0xbd7b6c9f	-0.061382886
3	0xbdab5d0a	-0.08367355
4	0x3d9804e4	0.07422808
5	0xbe21166c	-0.1573121
6	0xbd2a22df	-0.041537162
7	0xbd2ef015	-0.04270943

weight f4 [1, 24]
0	0x3d8f7cf3	0.07006254
1	0xbdc5c74a	-0.09657152
2	0xbdd9317e	-0.10605143
3	0x3dbb249f	0.09137844
4	0xbd8e15d1	-0.06937755
5	0xbc47d48d	-0.012196672
6	0xbc86f5f1	-0.016474696
7	0x3ddf7433	0.10910835
8	0xbdbf981b	-0.09355184
9	0xbd2ad53d	-0.041707266
10	0x3db155f3	0.08658972
11	0x3ec6119d	0.38685313
12	0x3e3308ff	0.174839
13	0x3d8d5067	0.06900101
14	0x3ddce846	0.1078649
15	0xbe30b651	-0.17257048
16	0x3dc13620	0.09434152
17	0x3e097c89	0.13426413
18	0xbe07f818	-0.13278234
19	0xbd3469d0	-0.044046223
20	0x3db08607	0.08619314
21	0xbcfc8169	-0.030823426
22	0x3e33591e	0.17514464
23	0x3e6882be	0.22706124
