lstnet_model.pt (torch, 41275 bytes, 13 tensors)

weight f4 [30, 1, 6, 8]
00000000: 4c00 4e3d 45ba bbbd 9993 a63d e574 c3bd
00000010: 3ca7 4bbd a259 bfbc 2f6d 80bd 751a ffbd
00000020: 39e3 21bc 114f b03c 5daa d9bd 479c 3c3d
00000030: 5a2f 203d 7b38 243d e6f6 9b3d 6e0e 863b
00000040: daaf 30bd ab83 c7bc 6eac 2a3d 5474 07bd
00000050: 31a5 adba 3807 1c3d e371 00bd 8f4a b53d
00000060: 9d49 433d b92b 6c3d dd1f 09be 43dc f1bc
00000070: e375 1cbd fb2f 1ebe a1b0 ce3d f22b 61bc
00000080: 615b a03c 7146 903d 4d51 d93d ded6 d9bd
00000090: f6e7 ce3c 4d45 ef3d cb2d 7cbc 9687 403d
000000a0: f8be 143d e467 b3bd 34fa 25be e38b 7ebd
000000b0: e3d1 b8bc 1741 96bd afbd b63d 9938 2dbe
000000c0: 703e 2f3c 4e26 01be c8ce 0cbe 68a3 de3d
000000d0: da2c fabd 46ca 893d 827b 01be 6a18 82bd
000000e0: fc9e d93d 4cf1 743d a8a6 e03d a0e8 ffbb
000000f0: 0054 44b9 194f 97bd c7e6 96bd bae1 e3bd
00000100: 108b 6f3d b55d 91bd fed6 a13d bffe 02be
00000110: ee6c d4bd eaf0 973d bef5 d2bd d42a 5abd
00000120: d660 0e3e 60f3 403c 2aab 133e 9cba 083e
00000130: 9071 38bc 705b b43d 7e6e b2bd 4cc7 013e
00000140: d47b 183d 6412 ddbd 5c0c bbbd d873 b0bc
00000150: ac9a 03be d211 2fbd 2c8d 953d b6eb 96bd
00000160: 64f7 f6bc 48a2 23bd 6861 08be a450 d3bc
00000170: ca0e 0bbe 54d3 213d 3074 133d 2041 483c
00000180: 39d7 893b 9737 3ebc 3597 06bd dcae e6bd
00000190: ff63 03be 6175 2dbe f3bf 563d eefc 52bd
000001a0: bb6e d0bd d2d2 a53d b90e 953c 7485 04be
000001b0: 3c8e e1bd d9b4 68bd 03de f1bd 1cf0 3cbe
000001c0: 8dc5 b33c 0ccf 8a3d 2f0f 40bb 63cf c4bd
000001d0: 21fd 723d 438d 5abe baf0 5a3c 3550 f6bb
000001e0: 1c4c 5bbe 5948 cc3c b82d b73d e852 77bb
000001f0: d796 d73d 5cac e13c 0c68 2cbd 7f78 05be
00000200: 142e 12be 8280 213d b309 7d3b 3dfb 90bd
00000210: 4cb1 173e b979 b23d 6580 153d 53d6 2ebe
00000220: 1081 27bd 7aba b8bb 82df a33c d6ad 35be
00000230: f463 563e 4605 5fbc 7482 dbbd 1350 b03d
00000240: 35ee 913c e187 80bd e521 63bd a029 f3bd
00000250: fb3b b73b 7908 e53d 9154 f33c 9981 55bc
00000260: 8d4f 7c3d a815 993d 370f e4bd 95ce 6b3c
00000270: 4862 20be 7e7c a9bd 696a 2d3e 4507 ed3c
00000280: c1d7 fabd 2e00 983d fab9 eabc 9852 cdbd
00000290: 6a42 12be 5b3e 97bd ba29 b7bd 7d53 a53d
000002a0: 8a93 1e3d 4013 a5bb 20fd 88bb 02ef bdbd
000002b0: 89ba 603d fe51 943d 5624 4abd 1574 63bd
000002c0: 9d91 dbbc e9de 03bd 108c 56bd adf3 45be
000002d0: 0558 ef3c 0078 403d 772e c83d 1739 ccbd
000002e0: 35bd 403b 7916 62bd 8b0d ffbd fe56 28be
000002f0: c951 a83d d706 c33c 6d85 383e d859 213c
00000300: ced2 2fbd 2471 3e3d 400e 2dbd 202c 273d
00000310: f11b a6bd 96e5 a3bd 1879 423d 98e6 60bd
00000320: 1073 dd3d 36d2 ffbd 58ce b73c 8ce9 e53d
00000330: 2ef2 0cbe 2ea9 5cbd a0a5 b03b 29e0 0abe
00000340: 0077 cd3d 8062 4d3c 3f61 e3bd 8a25 3ebd
00000350: 061b 07be fccc 7f3d 220e d6bd 9020 42bd
00000360: 8466 723d 807e 533b d02e 4ebc 2edb 52bd
00000370: e8bd 0e3e 0078 e93c 66af 113e d92a dfbd
00000380: e98e d5bd 40ce 953d edb3 07be 6837 e43d
00000390: 3861 40bd e044 433d 833e b7bd a213 0c3e
000003a0: 01a7 0ebe 2c02 10be 98c1 fabc 0018 9ab8
000003b0: 35f4 93bd c4c5 ecbc d8df e4bc 806f 083b
000003c0: 4300 13be 3094 103c 3e96 883d c0e3 c1bd
000003d0: 48c2 9c3c a836 e83d 22e8 ccbd 4033 c43d
000003e0: ad20 0ebe d047 c93d fc7e ae3d 4e90 f4bd
000003f0: c477 973d 001e 6aba 3252 13be 46c6 b23d
0.050293252 -0.091663875 0.08133621 -0.0954378 -0.049720034 -0.02335817 -0.06270825 -0.12456218
-0.009880834 0.021522077 -0.10628197 0.046047475 0.039107658 0.040092926 0.076154515 0.0040910756
-0.043136455 -0.024354776 0.041668348 -0.033069924 -0.0013248083 0.03809282 -0.03135861 0.088521115
0.047677625 0.057658885 -0.13391061 -0.029523974 -0.038198363 -0.1544799 0.10092283 -0.013743388
0.019574823 0.07044686 0.1061121 -0.10636686 0.025257092 0.1168314 -0.015391777 0.047004305
0.036314934 -0.0876005 -0.16208726 -0.062145125 -0.02256102 -0.07336634 0.08922898 -0.16916122
0.010696039 -0.12612268 -0.13750756 0.10871011 -0.12215586 0.06728034 -0.1264477 -0.06352313
0.10626027 0.05980043 0.10969287 -0.0078097135 -0.00018723309 -0.073881336 -0.07368236 -0.11127038
0.05848223 -0.07097951 0.07902335 -0.1279249 -0.10372339 0.074189976 -0.10300778 -0.0532635
0.13904127 0.011776775 0.14420763 0.13352436 -0.011257544 0.08806503 -0.08712481 0.12673682
0.037227467 -0.10794523 -0.09133217 -0.021539614 -0.12851971 -0.042741604 0.07302317 -0.07369177
-0.030147262 -0.039949685 -0.13318408 -0.025795288 -0.1357986 0.03950818 0.035999477 0.012222558
0.0042065647 -0.011609933 -0.032859046 -0.112638205 -0.12831114 -0.16939308 0.05242915 -0.051510744
-0.1017737 0.080968514 0.018195497 -0.12941533 -0.11013457 -0.056813095 -0.118099235 -0.1845097
0.021944785 0.06777772 -0.0029305925 -0.096098684 0.059323434 -0.2134295 0.013363058 -0.0075168856
-0.21415752 0.024936842 0.08944267 -0.0037738625 0.10526817 0.027548008 -0.042091414 -0.13034247
-0.1427539 0.039429195 0.0038610518 -0.0707917 0.14813727 0.08714623 0.0364994 -0.17073946
-0.040894568 -0.005637464 0.020004038 -0.17742094 0.20936567 -0.013612097 -0.10718241 0.08609023
0.017813781 -0.06275917 -0.055452246 -0.11873174 0.005591867 0.11183257 0.02970341 -0.013031387
0.061599303 0.07474834 -0.111357145 0.014392515 -0.15662491 -0.08275698 0.16935124 0.02893413
-0.12248183 0.07421909 -0.028653134 -0.10025519 -0.14283147 -0.0738494 -0.089435056 0.08072565
0.038714923 -0.005037695 -0.0041805655 -0.09274103 0.054865394 0.07242201 -0.04935106 -0.055530626
-0.026802832 -0.032195006 -0.052379668 -0.19331236 0.029216776 0.04698944 0.097744875 -0.099718265
0.0029409651 -0.055197213 -0.12453755 -0.16439435 0.08218724 0.023806972 0.18019648 0.009848081
-0.04292565 0.046494618 -0.042249918 0.040813565 -0.08110798 -0.080027744 0.047478765 -0.05490741
0.10812962 -0.124912664 0.02243726 0.11226186 -0.13764259 -0.05387228 0.005390838 -0.13562073
0.10032463 0.012535691 -0.111025326 -0.04642252 -0.13193902 0.062451348 -0.10451914 -0.047394335
0.059179798 0.0032271445 -0.012584403 -0.051478557 0.13939631 0.028499603 0.14227065 -0.108968444
-0.104276486 0.0731473 -0.1325223 0.111433804 -0.046967715 0.047673106 -0.0894747 0.13679364
-0.13930894 -0.14063329 -0.03060989 -7.3477626e-05 -0.07224313 -0.028902896 -0.027938768 0.0020818412
-0.14355569 0.008824393 0.066692814 -0.09467268 0.01913561 0.1133855 -0.10005213 0.09580088
-0.13879652 0.0982815 0.08520314 -0.119415864 0.0739589 -0.0008930862 -0.14386824 0.08729224

bias f4 [30]
00000000: e613 1cbd 723e 03bd a866 90bd cec9 193d
00000010: c62f af3d ffc2 0cbe 8174 193d fd5d e2bc
00000020: 1c7d 6e3d 3487 c0bc 7cc8 fa3d 0cf0 ec3d
00000030: 9789 d6bd 0856 5d3d 0063 ea3c 95f6 953d
00000040: dead 973c 5cf5 cebd b0d8 d53c 656f bd3d
00000050: d153 df3d e01a 7bbc 8c74 dbbc 204c 093e
00000060: 602f c2bc 035a b7bd 1375 c4bc 636b 0bbd
00000070: cc1a 563d 8c7f 3ebd
-0.038104914 -0.032041974 -0.0705083 0.03754597 0.08554034 -0.1374626 0.037464622 -0.027632708
0.058224782 -0.02350197 0.122452706 0.11569223 -0.10475462 0.054037124 0.02861166 0.073224224
0.018515524 -0.10105392 0.026104301 0.092497624 0.109046586 -0.015326232 -0.026788972 0.13407946
-0.02370423 -0.08952715 -0.023981607 -0.03403796 0.05227165 -0.046508357

weight_ih_l0 f4 [90, 30]
00000000: a44f 373e 3a62 13be 8308 293e 5435 05be
00000010: 4772 35be 04b2 1e3e 906f 393d aa2b 343e
00000020: b4eb 65bd 287f 2ebd 48de bf3d 2c4a c13d
00000030: c011 11bb 624b 653d ce7d 27be 4163 13be
00000040: 5e5b 8dbd 4701 27be 1485 59bd e674 4b3d
00000050: 0486 f53d 28b3 563d f606 133e ead3 023e
00000060: 5024 1bbe 8956 4e3d b00d db3d 4478 14be
00000070: 7888 a5bc ecaf d63d 0598 1d3e 5cd0 2ebd
00000080: 642c 4b3c 514f 7e3b ac43 143d f093 8d3d
00000090: 3215 38be 8394 e7bc f8cc f6bd fa75 45be
000000a0: 784c 763c 6e36 123e cc39 fd3d 2366 65bd
000000b0: 982b cebd ff97 debd 4df0 ec3d 91ae 25be
000000c0: 3048 7ebd 8475 f93c 15ea 113d e205 dcbd
000000d0: c8ed 3abe efef d6bd f6cd f6bd 44db 7abd
000000e0: 00c3 28be d101 14be 3474 7e3d 5023 9d3d
000000f0: e1be cbbc 9043 bc3c a394 34be 9dda 12be
00000100: f60f 90bd b4aa 0dbe f502 f73d a355 efba
00000110: f824 b53c 555e 0a3e 1c00 e6bc d466 9b3d
00000120: 3c18 2d3e 91c0 5fbd b0f2 e33c ebcd ba3d
00000130: a2b8 183e 702e b83d a4ef ad3d 9cda 10bd
00000140: 24be 973c 4c55 2bbd 9ba0 9abd d703 16be
00000150: 1ff1 2e3e af2e ee3d 50a4 903d 866a a6bd
00000160: f081 64bc a071 98bb d874 1f3e 93ac afbd
00000170: 5993 f0bd 6753 d03c 5422 ad3d 489b 953d
00000180: 8b76 16bd 7050 19bc 3ced 073e cc1c 473e
00000190: 2cca 29bd 9dd2 80bd 28a4 273d 487a f2bd
000001a0: c84a ba3c 9cb9 c9bd 24a8 e6bd fca6 a5bd
000001b0: a62f 0a3e 984c 493d b879 f83d 76cf 1c3e
000001c0: 20a3 8cbb 9080 373e ed6d f8bd 3d90 383e
000001d0: 4144 33be 81b0 bb3d 2a32 0b3e e8c7 313e
000001e0: 2423 2e3e b458 473d 8682 1d3e e8eb 9c3d
000001f0: b420 e1bd 1876 a83d f599 2f3e 003e 453d
00000200: 1c2c 9b3d 29fe 943d 7c2e 933d e6b2 7bbd
00000210: 6892 78bd 3e73 fbbd 18d5 133e 3738 e9bd
00000220: 6cdf 8cbd 20b6 b5bb b035 213e 2c91 4ebc
00000230: 196a c93d 2c82 65bd 47b0 2dbe cf3c bbbd
00000240: bc9d 0c3e 1358 0fbe c444 b6bd 372c 293e
00000250: 0063 cbbc f02a a23d 7846 88bd 6cd9 173e
00000260: 1a26 8d3c deba 4d3d 64ef a6bd ec1a 143e
00000270: 77f6 0cbe 929a 2c3e 165a 333e 7ff8 c43d
00000280: f375 8dbd 2c16 c53d 46ce 323e 7b48 053c
00000290: 40e3 2fbc c0f6 49bd 0ca9 0b3e e81c aebd
000002a0: 200f 4c3d 6c0b 7abd 7c13 023d e67a b1bd
000002b0: 60a2 dd3b 4cd3 febd 7f99 d23a 13a4 7abd
000002c0: 2178 05be 14a0 f73d b0f8 433d 4852 643d
000002d0: 3f9c 0e3d dcff d03d 629f a83d 9b30 093e
000002e0: 1834 833c 501d f0bc fcee cdbd ada2 863c
000002f0: 109e 493d f122 44be d09c 3abe f050 7dbd
00000300: 602d c0bb 6455 2fbe d915 26be 5b4d 2cbe
00000310: 0ef1 1bbe 9ca0 36be 807a e53b 36c4 a1bc
00000320: 4e4a 9a3d 306e aabd 60bb a83b 6e04 2ebe
00000330: 612d bfbd 9162 a6bc a0d9 cfbd 4431 a0bd
00000340: 89ba 18be b477 0f3e c047 d03b d6a5 c6bd
00000350: 775c b0bd 25ba 0b3c 43f5 a4bd e032 ab3b
00000360: 4cfa ebbd 2b76 10be e739 84bd 1af4 21be
00000370: f444 2c3e e0f8 843d fceb 2cbe 5272 ddbd
00000380: 6021 cfbc b690 1abe 132e babd e216 c0bd
00000390: 00a1 dbbb dbc4 f3bc e4b6 963d 7878 21bd
000003a0: 2c4c 6ebd 26c0 7fbd a09d 21be ac58 483d
000003b0: df92 e9bd 2799 0dbe 2c85 183d a006 cabc
000003c0: 0e87 fdbd 2469 483d 08f6 323e 9c3d ff3d
000003d0: a76f 18be 407c 05be 1f7f 24be 8bb9 95bd
000003e0: c171 2bbe 0e13 7ebd 39a6 bfbc 0903 e1bd
000003f0: 1edf 213e 062e eabd bc4d 31be ca7e bb3d
0.17901474 -0.14392939 0.16507153 -0.13008624 -0.17719375 0.15497595 0.04527241 0.17594782
-0.056132987 -0.042601734 0.09368569 0.09437975 -0.0022135824 0.055980094 -0.16356584 -0.14393331
-0.069021925 -0.16309081 -0.05310543 0.04967203 0.11988452 0.05241695 0.14358124 0.12776151
-0.15150571 0.050375495 0.1069597 -0.14499003 -0.020206675 0.10482773 0.15390022 -0.042679176
0.01240072 0.00388046 0.03619735 0.069129825 -0.17976835 -0.028269058 -0.120508134 -0.19283286
0.01503288 0.14278576 0.123645395 -0.05600561 -0.100669086 -0.10868835 0.11569271 -0.16179873
-0.062080562 0.030451544 0.03562363 -0.107433096 -0.18254769 -0.104949825 -0.12051003 -0.061244264
-0.16480637 -0.14453818 0.06212254 0.07672751 -0.024871292 0.022981435 -0.17634825 -0.14341207
-0.07034294 -0.1383465 0.12061111 -0.0018259775 0.022112355 0.13512547 -0.028076224 0.07587972
0.16903776 -0.054627005 0.027825683 0.09121307 0.14914182 0.08993232 0.084929734 -0.035364732
0.018523283 -0.041829392 -0.07550164 -0.14649902 0.17084168 0.11629998 0.0706259 -0.081257865
-0.013946995 -0.004652217 0.15571916 -0.08577838 -0.11746854 0.025430394 0.08453813 0.07305008
-0.036734145 -0.009357557 0.13274091 0.19444579 -0.04145257 -0.06290171 0.040928036 -0.118397295
0.022740737 -0.09849855 -0.11262539 -0.0808849 0.13494739 0.04914531 0.12132591 0.15313515
-0.004291907 0.17920136 -0.12130342 0.18023773 -0.17506506 0.09164525 0.13593355 0.17361414
0.17005593 0.04866858 0.15381822 0.07662183 -0.10992566 0.082256496 0.17148574 0.04815483
0.075767726 0.0727504 0.071866006 -0.061449908 -0.0606865 -0.1227784 0.14436758 -0.11387675
-0.06878552 -0.0055453926 0.15743136 -0.012607854 0.0983469 -0.056032345 -0.16961776 -0.09142458
0.13732046 -0.13998441 -0.08899835 0.16520773 -0.02482748 0.07918346 -0.06654066 0.14829034
0.017230082 0.05022704 -0.08151129 0.14463395 -0.13765894 0.16855839 0.17514834 0.09617709
-0.06907263 0.096233696 0.174615 0.0081349565 -0.010735333 -0.049307585 0.13638705 -0.08501607
0.04981911 -0.06104605 0.031756863 -0.08666019 0.0067637414 -0.124426454 0.0016067474 -0.06119163
-0.13034107 0.12091079 0.04784459 0.055742532 0.034816977 0.10205051 0.08233525 0.13397448
0.016016051 -0.029310852 -0.10055348 0.016434992 0.049223006 -0.19153954 -0.18223882 -0.061844766
-0.005864784 -0.17122418 -0.16219272 -0.16826384 -0.15228674 -0.17834705 0.0070031285 -0.019746881
0.07533704 -0.08321798 0.00514929 -0.16993877 -0.09334827 -0.020310672 -0.101489305 -0.07821897
-0.14914908 0.14010507 0.0063562095 -0.096995994 -0.08611386 0.008528267 -0.080545925 0.0052245706
-0.1152235 -0.14107578 -0.064563565 -0.15815774 0.16823179 0.06492782 -0.16886896 -0.108128205
-0.02528447 -0.15094265 -0.09090819 -0.093793646 -0.0067025423 -0.029756954 0.07359102 -0.03942153
-0.058178112 -0.062439106 -0.15782785 0.04891269 -0.114049666 -0.13827954 0.037236378 -0.024661362
-0.12379275 0.048928395 0.17476666 0.12462923 -0.14886342 -0.13035679 -0.16064118 -0.0731078
-0.16742612 -0.06202989 -0.02339469 -0.10986907 0.15807769 -0.114345595 -0.1731481 0.091550425

weight_hh_l0 f4 [90, 30]
00000000: 602a a0bd 15df 043e c884 053e bbaa 163d
00000010: 5132 b33b 50fa 45bc dc98 f03d 2599 02be
00000020: 5b3d 593e 2dc5 01bd 2dc9 973d 0fe2 273e
00000030: 28c6 f0bd ecd9 80bd ee05 6b3d 1667 44bb
00000040: 5312 ac3d 374b 2dbe ef9e 40bd cd24 8f3d
00000050: d193 d5bc ca30 fdbd 33f2 7cbd 856c f8bd
00000060: e8f4 43bd e801 f4bd d218 b43d e6c7 ebbc
00000070: de80 ba3d e774 0fbd 59a0 b03d c9cb 9b3d
00000080: 334e d4bd 7fb4 18be 42ee 153e 24b9 1abd
00000090: 6227 1ebe 5826 013c 3491 38bd a5f1 32be
000000a0: 6444 443e 3367 febd 233d e23d 380b 143e
000000b0: ad49 efbd 9c31 22be 2ba2 c9bd 35d7 e13d
000000c0: 8627 f7bd 118e 4fbe deb0 2bbc e9e9 f8bb
000000d0: ebe8 2b3e 6428 0a3e 783c eabd ca95 0b3e
000000e0: d1e7 dd3b 21f8 fdbc b453 1cbe 4812 a73d
000000f0: a065 dd3d 9c4d 46be 48a3 44be adc2 febd
00000100: acba 44be 2941 d73c 1414 1c3e 5b83 d03d
00000110: f3e0 1fb8 cb05 273d 91a5 553e a131 a83d
00000120: 5e8d c23c fa01 293e 4750 02bb 543b 14bd
00000130: 227d 29bb 636e e8bd 4f87 18bc 0e66 da3d
00000140: f0f7 bd3d 932d 643d 9b13 b53d 0d8d 0dbe
00000150: 316f b1bd 8105 0a3e 730c a0bd 3cbd ed3d
00000160: 19a6 c23d 096e 5a3e 3006 97bd 6ce1 8abd
00000170: 6f03 113e f161 613d a92a 3abe 111f 803d
00000180: 24fb 3dbe 7abb 9ebd 7e4e 173d b141 093e
00000190: 735c 52bc 60ba 5c3c 56ad bb3d 6588 bbbc
000001a0: d4ea a6bc de0a 46be 6171 74bd ce49 ecbd
000001b0: 2e2e 2bbd 51b9 46be f21c 8f3d 6f34 f13c
000001c0: b58c 3bbe 6771 503d 9922 943b cae6 f9bd
000001d0: 5fc8 8a3d 16e1 19be c7e0 1bbe eacc 2c3d
000001e0: 618b 4c3e d4e0 283d 339d f0bd 7c46 0d3e
000001f0: bada b5bd 5cc6 39bd 85c4 253e 69e2 503e
00000200: a7cf 0fbe 072f 8b3d 29f6 513d 19fd 553d
00000210: 6cd7 8b3e 41a5 113e 8727 0ebd e9d4 293e
00000220: 03e1 eabd ca2a 70bd d82c bc3d 0571 82bd
00000230: c071 113c f5ae c3bd 04ba ec3d 6115 dbbd
00000240: cabc dcbd 022c c0bd ae01 283e f36c 423e
00000250: 726d 463e f567 5ebe 8edb 31be 2db3 97bd
00000260: 2ffa 9e3d 88bc 53bd 2a00 743d 189a a43d
00000270: 125c 1d3b 287d c5bd 4bcb 14be ef76 b53d
00000280: b6a9 153e 6585 273e ec42 18be 069a fcbc
00000290: ab77 483d 6d93 70bd f331 ab3d 11c0 a4bd
000002a0: d459 7b3d 099f 3a3d eb32 12be fc23 20be
000002b0: b1e2 1e3e 6d6b aebd a23a bc3d 3bd7 1ebe
000002c0: c855 07bd a2a5 14bc 7a87 9b3d 2e2d ebbd
000002d0: bd11 90be 0007 173d 3d08 eb3d 257e 87bd
000002e0: 8b71 0c3d 0d9d c6bc c3fa 13be 204b 6abe
000002f0: 6b82 d83c 0a18 c93d d92a 6d3e 89de 0e3e
00000300: 8aca b0bd 0277 07be ed30 c33d 5914 a23d
00000310: 725a c03d 594f bf3d a72a a43d bfee 92be
00000320: df1a a03d 9411 7cbe d4a5 2f3e 5488 b8bd
00000330: 9c82 4f3e c0a4 133e 80e1 163d b2b1 79be
00000340: 20ee 283d 98a9 163e 62ab a1bb 6a1d 813d
00000350: 7ba2 56be d443 7dbd b184 99bd af9e 023e
00000360: bc4c 0ebe 58e9 583d 17ab 02be 9171 ba3c
00000370: 7858 49bd 4af9 f43c a7ea e0bc 23e3 d63d
00000380: 18df 7c3d 4d35 aa3b 4635 d63c adb0 e73d
00000390: e93c 883d 4bcd 143d 7c78 d33c 0b5b f93d
000003a0: 5717 18bd 245e 2abe 4cf7 80bd 9788 2bbe
000003b0: f4f0 373e 46cc 6f3c ea02 293e a6ef 12be
000003c0: 220b 2e3d 4e05 843c 73dd 57bd feda 943e
000003d0: bd6e 333d 467d 2b3c 5b26 063d 28aa f93d
000003e0: 792d 713e 0dea 84bc 46ac 1ebe 8a04 8cbe
000003f0: 2018 403e 2db8 3e3e b56a 17bd e3b5 c03c
-0.078205824 0.12975724 0.13038933 0.036783915 0.0054686447 -0.012083605 0.117479056 -0.12753733
0.21214812 -0.031682182 0.07411418 0.16394828 -0.11756545 -0.06291565 0.057378702 -0.002996867
0.084019326 -0.16923223 -0.04702657 0.06989441 -0.02607146 -0.123628214 -0.061754417 -0.121300735
-0.047840983 -0.11914426 0.087937966 -0.028781842 0.09106611 -0.035023596 0.08624334 0.07607228
-0.10366478 -0.14912604 0.1464167 -0.03777422 -0.15444711 0.007882677 -0.04506035 -0.17474993
0.19166714 -0.124220274 0.11046817 0.14457405 -0.116839744 -0.15839237 -0.09845384 0.110273756
-0.12068085 -0.20269038 -0.01047918 -0.0075962436 0.1678807 0.1349197 -0.11437315 0.13631359
0.0067720194 -0.031002106 -0.15266305 0.08157784 0.10810399 -0.19365543 -0.19202912 -0.12439475
-0.19211835 0.026276188 0.15242034 0.10181304 -3.8118054e-05 0.04077701 0.2086394 0.08212591
0.02374905 0.1650466 -0.0019884275 -0.036189392 -0.0025861938 -0.113491796 -0.009309604 0.10663997
0.09275806 0.055707525 0.0884163 -0.13823338 -0.08663786 0.13478662 -0.078148745 0.11608359
0.09504337 0.21331038 -0.07374227 -0.06781277 0.14161466 0.055025045 -0.18180336 0.062559254
-0.18552834 -0.07750602 0.03694009 0.13403966 -0.012839424 0.01347217 0.091639206 -0.022892186
-0.020375647 -0.19340083 -0.05967844 -0.115375146 -0.041792087 -0.1940663 0.06987943 0.029443948
-0.18315394 0.0508894 0.004520726 -0.12202223 0.06776499 -0.1502727 -0.15222465 0.04218761
0.19975044 0.041230038 -0.11748733 0.13796419 -0.088796094 -0.045355186 0.16188248 0.20398869
-0.14044057 0.06796079 0.051260147 0.052243326 0.2731279 0.14223196 -0.034705665 0.16585125
-0.11468699 -0.058634557 0.09188241 -0.06369213 0.008877218 -0.09554855 0.11558917 -0.10697437
-0.10778196 -0.09383394 0.16406891 0.18986873 0.19377688 -0.21719344 -0.1736891 -0.07407222
0.077625625 -0.05169347 0.05957047 0.080372036 0.0024011177 -0.09643012 -0.14530675 0.088605754
0.14615521 0.1635948 -0.14869279 -0.030835163 0.04894225 -0.058734346 0.083591364 -0.08044446
0.061364964 0.045561824 -0.14277236 -0.15638727 0.15516163 -0.085165836 0.09190871 -0.15511791
-0.03304079 -0.009072693 0.075941995 -0.11483227 -0.28138533 0.03687191 0.11476181 -0.06615857
0.03428797 -0.02424481 -0.14451127 -0.2288022 0.026429376 0.09819038 0.23160876 0.13952078
-0.08632381 -0.13228992 0.09530816 0.07914037 0.09392251 0.09341306 0.08015948 -0.28697774
0.07817625 -0.2461608 0.17153102 -0.090103775 0.20264667 0.14418316 0.036836147 -0.24384192
0.04124272 0.14713132 -0.0049337605 0.063044384 -0.20960419 -0.061832264 -0.07496012 0.12755845
-0.1389646 0.05295691 -0.12760578 0.02275923 -0.049156636 0.029904027 -0.027455641 0.10492542
0.061736196 0.005194342 0.02614845 0.11312995 0.06652243 0.036328595 0.025814287 0.12175568
-0.037131634 -0.16637474 -0.06297168 -0.16751324 0.1796301 0.014636105 0.16505018 -0.14349231
0.042491086 0.01611581 -0.052701425 0.29073328 0.04380678 0.010466879 0.032751422 0.12190658
0.23552503 -0.016224885 -0.15495405 -0.27347213 0.18759203 0.18624945 -0.036966998 0.02352423

bias_ih_l0 f4 [90]
00000000: e9c2 1c3e b30f 41be 0ed3 0abe 63ce eabd
00000010: 4142 3f3e 4754 0bbd cf16 443d 8abf 073e
00000020: 468a 363e 492c cabc 8397 383d 7e16 50be
00000030: e9cb 7c3e c83c 0d3b bd88 3d3c 2591 2a3e
00000040: 4a7c dabb 3da2 d5bb c656 06be c0fb 23be
00000050: 8702 203e 6fbf 4abd 77e4 8cbe 30b5 2bbe
00000060: db83 183e bb41 0a3e 91f2 063d 1164 003e
00000070: 6ea1 3dbe 685d 1cbe 9352 2dbe 75aa 39bd
00000080: 83b7 253e 6958 63bc 9ec6 e3bd 3749 5b3e
00000090: f59c 693e d19b 9cbd 3f25 e13d 22b6 26be
000000a0: a4bb 9abd 395f d03d 3fdf 95bd 67ef d73d
000000b0: 4bd6 db3d a030 9a3d 12e8 5fbc cc2d 453e
000000c0: 2b53 653e 5cee 393e 8871 b93d 68c2 ce3d
000000d0: d970 373d fa1d e6bc 318d 0bbe c128 96bd
000000e0: 8f8c 953d 027b 61bb a896 8bbd 45aa db3c
000000f0: 8185 ccbd 9fcf 0b3e 40e5 66be 8b5b 5f3e
00000100: 371f 5bbd d709 473e f407 f43d 6e52 acbc
00000110: d271 f8bd 5be4 11be 3de4 2ebe 04df 353d
00000120: 86ab 1c3c a4cc 373e fac1 5d3b 5d87 853e
00000130: afcb 06bd c3fe efbd 5621 163e bf0a b6bd
00000140: a7b6 0d3e cd95 fe3d b141 ddbd 16fc 3abe
00000150: 6d2a 98bc afd1 14be 17df 8fbd 6e8e 263d
00000160: 8e95 013e 21bc dcbd
0.15308727 -0.18853645 -0.13557073 -0.114651464 0.18677618 -0.03401592 0.047873314 0.1325666
0.17826185 -0.02467932 0.045066368 -0.2032108 0.2468716 0.002155112 0.0115682455 0.1665693
-0.0066676484 -0.0065195845 -0.13119039 -0.16014004 0.15625964 -0.04949897 -0.27518055 -0.16768336
0.14894049 0.13501637 0.032946173 0.12538172 -0.18518612 -0.15270007 -0.16926031 -0.045328576
0.16183285 -0.013876059 -0.111218676 0.21414648 0.2281378 -0.07646907 0.10993432 -0.16280416
-0.07555321 0.10174412 -0.073179714 0.10543709 0.107342325 0.07528806 -0.01366617 0.19255751
0.22395007 0.18157333 0.090548575 0.10095674 0.044785354 -0.028090466 -0.13628079 -0.07331992
0.073022 -0.0034405594 -0.06815845 0.02681459 -0.09986401 0.1365342 -0.2254839 0.21812265
-0.053496566 0.19437347 0.119155794 -0.0210354 -0.121310845 -0.14247267 -0.17079253 0.044402137
0.009562379 0.17949158 0.0033837543 0.26079836 -0.03290909 -0.11718514 0.14661154 -0.088887684
0.13839208 0.12430916 -0.10803545 -0.18260226 -0.018574918 -0.14533113 -0.07024973 0.040663175
0.12654707 -0.1077807

bias_hh_l0 f4 [90]
00000000: d3b1 743d efbb 993d 256a ce3d 6177 2cbd
00000010: b71f 0abd c73b 48be bc63 853d 0191 d1bc
00000020: ae2a 7a3e 6286 81bd 71f3 383d 5227 9c3d
00000030: e22c 313d f124 81be 4f51 c5bd 5b2d a63d
00000040: 52a1 14bd 5f7b 49bd 8a74 43be 21ee a03d
00000050: 2d57 a1bc dae6 4c3e a6bb abbe eebd 73be
00000060: a907 fc3d e51a 82bd 8bc2 27bd d15a e9bd
00000070: 7bd6 e63d da09 3e3e f506 cdbd d413 d8bd
00000080: bffe ed3d 6988 ac3d 824d 86bc 26cb a53d
00000090: 6fa0 073e 9188 e9bc 9cbb 42be 8507 f33d
000000a0: 06b0 be3d 6376 abbd 448b 1a3c 88b2 913d
000000b0: 62e1 04be 55fe 0cbe 3a62 10be 0a2e 1e3d
000000c0: 6cdc 3dbd 9e74 fb3d b52a 3a3e 3c7b 43bd
000000d0: 7f2c 623e 9e84 a53c 6d2e 69be 9c23 943d
000000e0: b5d2 17be 23d0 3fbd dd90 1fbe 7394 e2bd
000000f0: 3100 893d 52be b2bd 3492 16be a787 b23d
00000100: dbbf 9ebb 87e1 81bd ae80 96bd 4544 463d
00000110: beb5 bebd 7313 29be 0458 3ebe c289 723d
00000120: c660 873e 0eb8 cd3d c88c a43c d521 903e
00000130: d39c 14be 12d6 2abe faa0 2e3e 8b7c 013e
00000140: 8881 0f3c bf6d 473e 39fc c53d 9342 f0bb
00000150: 7f74 313d 9fec 853c 18de 073e 4de8 6e3e
00000160: 4671 5c3d 23ca 843d
0.0597399 0.075065486 0.10078839 -0.042106036 -0.033721652 -0.19554053 0.065131634 -0.025581839
0.24430344 -0.063244596 0.04515404 0.07624687 0.043255694 -0.25223497 -0.09634649 0.081141196
-0.03628666 -0.04918992 -0.19087425 0.078579195 -0.019694889 0.20009938 -0.33541602 -0.23802921
0.123061486 -0.06352786 -0.040957015 -0.11394275 0.11271378 0.18558446 -0.100110926 -0.10550657
0.116208546 0.08424456 -0.01639438 0.08095388 0.13244794 -0.028507503 -0.1901688 0.118666686
0.093109176 -0.0837219 0.009432618 0.0711413 -0.12976602 -0.13768895 -0.1409997 0.038618125
-0.04635279 0.12278102 0.18180354 -0.047724947 0.22087286 0.020204838 -0.22771616 0.072333544
-0.14826472 -0.046829354 -0.15582605 -0.11063471 0.0668949 -0.08727707 -0.1470421 0.0871728
-0.0048446483 -0.06341844 -0.073487625 0.04840495 -0.09312008 -0.16511326 -0.18588263 0.059213407
0.2644102 0.10044871 0.020086661 0.28150812 -0.14512949 -0.16683224 0.17053595 0.12645166
0.00875891 0.19475459 0.09667248 -0.007332155 0.04332399 0.016348181 0.13268316 0.23330803
0.053818963 0.06483867

weight_ih_l0 f4 [15, 30]
00000000: 70fb b2be 2459 6d3e a464 ac3d 4689 433e
00000010: e430 f8bd eecc 93be 6218 973e 381b ab3d
00000020: e058 18bc 12d3 853e 20c2 0f3c 007a fc3b
00000030: 5c15 cb3e d7de c0bc 20e3 3ebe ba4d 893e
00000040: 1fa8 b5be 40dd a0be 1497 913e 46f4 35be
00000050: 888e 3ebe ace5 333e 0e8b b63e 10ca 9bbc
00000060: ec13 abbe ac73 0e3d b36d 10be 062b 843e
00000070: ed35 a9be 18d0 dd3d b49a d4be bccc d6bd
00000080: ef7b 133e 56fa 70be a4c0 103e 10ef c6be
00000090: 1978 ef39 48c2 333e 88c8 7b3e a098 d53d
000000a0: 68b5 f7bd 2009 f63c 005e db3d 16d8 17be
000000b0: 3ab1 b5be 401f c9bc 003e 5b3b 106d ffbd
000000c0: 6cf4 8ebe 028f 89bd ec19 bbbe dce9 07be
000000d0: 1a2a 24be 9ad7 e0be bcdd 323e 6251 cd3e
000000e0: ec93 8c3e 3e4f 50be 3098 a83e 42df 873e
000000f0: 6879 36be 9001 e4bc f7b6 9bbe 5cea 42be
00000100: 4cdf 95be d1c8 d8be 5e44 693e 34b7 cdbe
00000110: ae02 be3e f5d2 d33e b326 d13e e85e c5be
00000120: 9457 193e 5cf1 5e3e 9844 99be 1fc9 c6be
00000130: e052 cfbe 840a 9c3e a4f9 fbbd f688 073e
00000140: 5230 25be 583a 033e f2b5 973e 0041 8e3b
00000150: 2f1c 89be 43e6 12be 768e b23d 70cf e63d
00000160: c07b 483d 801c 023e 8710 e0be 0060 ebb9
00000170: e3cc cebe 35ae 813e b81d 14bd 1e7a 993e
00000180: f9b4 bb3d 91f5 6fbe b420 d3be 80a1 25bc
00000190: bd8e 79be b649 9e3e ac50 273e 14f3 a03e
000001a0: 2674 92be 1709 97bc a418 e2be 2697 b43e
000001b0: f30d 6ebe 6171 16be 7ce3 c0bd c62e 9ebe
000001c0: 413f dabe 7729 66be 5bac 6bbe 8583 02bb
000001d0: ea35 b53d c527 14be c03b 613c 32f2 11be
000001e0: 8007 fd3d 86db 81be 1bf1 303e 1323 acbe
000001f0: 0618 b6be e6c4 b63e 73eb 963e 96c6 d53e
00000200: 08c7 733e 882c a73e 7281 db3e 2334 7abe
00000210: e627 a2be 0ba7 d23e 08de c13e 4453 8c3d
00000220: 26c2 913e 9ce0 9a3e 9419 ba3e a081 983d
00000230: a438 19bd 1478 dc3e da78 33be 86ca d33e
00000240: 2574 1abe e894 d7bd 8fbd d23e fb8f 42be
00000250: 8ad2 dd3e 915a b6be e963 09be f8ac 5f3e
00000260: 7d08 fa3d 8372 e33d dab6 b5be 604e 913d
00000270: 630c 3cbe 7ffc 8f3e 5843 e7bd 090d af3e
00000280: d3a1 a5be a6fc ad3e e018 023e 667c 48be
00000290: 3ade e4be 7e9e 1a3e 81e2 0cbd 50aa e23e
000002a0: b8dc 813e 14d8 8c3e 94b0 303e 1842 15be
000002b0: 5409 d4bd 2cfc b83e e39c d93e 0170 5dbe
000002c0: e619 7d3e fa8c 153e 6001 ad3e e8bf bf3d
000002d0: bf90 363d 20c6 943d bd4e 873e 17e8 0cbe
000002e0: eef1 80be a0cc 423d bc56 d2be 7cb9 ccbd
000002f0: 1856 983e bd33 533d 69fe 9bbe 5bb4 d0be
00000300: d0e1 6a3e 35c2 32bd a628 b43e 6bf8 e6bd
00000310: 309c d5be f4c5 073e f4b0 73be c4db f9bd
00000320: f87f afbe a0fe 343e cce6 26be 4c7c 9d3e
00000330: 09a5 d9be e83b 0fbe 5907 af3e 02b0 c53e
00000340: b4a4 debe c670 d83e a471 8abe 3f37 d7be
00000350: 51f0 73be b044 373e de6a 72be fc03 a1bd
00000360: 21a6 d6be c7f2 dbbe ae8d bd3e 5894 1e3e
00000370: 31d1 b03e 5c12 133e 7861 873d ae0e 78be
00000380: 1cb2 8dbe e7b5 fabe c1a6 eabc bc74 73be
00000390: 2851 ab3e c507 483e 34d2 a1bc 10ad b43c
000003a0: 40cd 263c 34db a0be 1bdd c8bd 165a 6e3e
000003b0: 83e1 0bbd 1208 28be 842f 89bd b18e 76be
000003c0: 42bf af3e d05b f4bc 44c2 8d3e 1679 e0be
000003d0: 2c18 c6bd 0a87 d73e 320d 603e da15 2b3e
000003e0: 501b 173e 6280 863e 76d4 d53e 783b 4fbe
000003f0: d20c 04be 4916 313e fdf1 a6be 39e9 26bd
-0.34957457 0.23178536 0.08417633 0.19095334 -0.121187 -0.28867286 0.2951079 0.08354801
-0.009298533 0.26137596 0.00877431 0.007704973 0.39664733 -0.023543758 -0.18641329 0.26817113
-0.3547983 -0.314188 0.28435576 -0.17768964 -0.18609059 0.17568082 0.35652965 -0.01901725
-0.33413637 0.034778282 -0.14104347 0.25814074 -0.33048955 0.10830706 -0.4152428 -0.10488269
0.14402746 -0.23532996 0.14135987 -0.38854265 0.00045675112 0.17554581 0.24588215 0.104295015
-0.12095147 0.030033648 0.107112885 -0.14828524 -0.35486776 -0.024551034 0.0033453703 -0.12471974
-0.27920854 -0.0671673 -0.36543214 -0.13272804 -0.16031685 -0.4391449 0.17467397 0.40101153
0.27456605 -0.20342728 0.3292861 0.2653752 -0.1781975 -0.027832776 -0.3041303 -0.19034714
-0.29271924 -0.4234071 0.22779986 -0.40178835 0.3711142 0.41371885 0.40849838 -0.3854897
0.14974815 0.21771759 -0.29935145 -0.38825318 -0.40492916 0.30476773 -0.123034745 0.1323584
-0.16131714 0.12815225 0.29631 0.0043412447 -0.26779315 -0.1434565 0.087185785 0.11270034
0.048946142 0.12706184 -0.4376261 -0.00044894218 -0.4039069 0.25328222 -0.036161155 0.2997598
0.09165377 -0.2343352 -0.41235888 -0.010109305 -0.24370857 0.30915612 0.16339368 0.31435454
-0.2860424 -0.018436952 -0.44159424 0.35271567 -0.23247509 -0.14691688 -0.09418389 -0.3089506
-0.42626384 -0.22476755 -0.23014967 -0.0019914818 0.08848174 -0.14468296 0.013747156 -0.14252546
0.12354946 -0.25362796 0.17279474 -0.3362051 -0.35565203 0.35697097 0.29476508 0.41753072
0.23806393 0.32651162 0.42872196 -0.24433951 -0.31671065 0.4114307 0.3786471 0.06851819
0.28468436 0.30249488 0.3634764 0.07446599 -0.037407532 0.43060362 -0.1752657 0.4136545
-0.15083368 -0.105264485 0.41160247 -0.19000237 0.4332469 -0.35615972 -0.13417019 0.21843326
0.1220865 0.11105826 -0.35491067 0.07095027 -0.183641 0.28122327 -0.11292142 0.34189633
-0.32350025 0.33981818 0.12704802 -0.19578704 -0.44700795 0.15099522 -0.0343957 0.44270563
0.25363708 0.27508605 0.17254859 -0.14575994 -0.10353342 0.36129892 0.42502508 -0.21624757
0.2471691 0.1460456 0.33790112 0.09362775 0.044571634 0.07264352 0.2642726 -0.1376041
-0.25184578 0.047558427 -0.41081798 -0.09996316 0.29753184 0.051563013 -0.30467537 -0.407626
0.22937703 -0.04364224 0.35187262 -0.11277851 -0.41720724 0.13259107 -0.23797971 -0.1220012
-0.3427732 0.17675257 -0.1629898 0.30758893 -0.42508724 -0.13987696 0.34185293 0.38610846
-0.43485034 0.4227354 -0.27039826 -0.42034337 -0.23822142 0.17897296 -0.23673579 -0.07862088
-0.4192362 -0.42958662 0.37022156 0.15486276 0.345346 0.14362472 0.066103876 -0.2422435
-0.2767495 -0.48966905 -0.028643968 -0.23775 0.33460355 0.19534214 -0.019753553 0.022055179
0.010180771 -0.3141724 -0.098077975 0.23276553 -0.03415061 -0.16409329 -0.06698516 -0.2407787
0.34325606 -0.029828936 0.27687275 -0.4384238 -0.09672579 0.42095214 0.21880034 0.16707554
0.14756513 0.26269823 0.41763657 -0.2023753 -0.12895516 0.17293657 -0.32606497 -0.040749762

weight_hh_l0 f4 [15, 5]
00000000: d686 6ebe 987d 353d 0aa9 9e3e b8f1 313e
00000010: b8be 853d 9038 92bd 549e 4c3e a093 fabd
00000020: 875a 6abe 64cf 4c3e 308c e43d 6c2d d3be
00000030: 84cd 923e 2520 d6be 7cc1 c3be 2413 583e
00000040: 20b8 5dbe c02a db3e 60cb 913e 62ff cbbe
00000050: 4474 eebd 18cd a0be 4e16 9dbe 5857 7a3e
00000060: 9228 d3be 2006 313d a827 993d 6cf8 07be
00000070: caa9 b0be a2f8 c63e 0e1b 09be d069 813c
00000080: 2c7b 97be 00a6 163e c010 8abd 9ad6 d43e
00000090: 8d38 cebe 00e1 7abd 2044 34bd d884 0c3e
000000a0: 40b8 9a3c 5481 2ebe 9801 3a3e 83b7 acbe
000000b0: 2701 b0be 98be 39bd 4854 1fbd 48db 8cbe
000000c0: 50a9 afbc a63f 39be 48fe 70bd dbc0 87be
000000d0: 1ca9 9dbd 68f6 8d3e 3e47 07be b074 af3d
000000e0: d44c ba3e 08c5 a43d a26d 913e 27a1 d7be
000000f0: 596b d7be 5263 8c3e 780a 573d 661c da3e
00000100: 4250 b1be 188e c5bd 129c 913e a67d c93e
00000110: 8a71 14be 7e85 9cbe 0685 70be 50b4 c43e
00000120: 6022 af3e 3215 1dbe 980c a0be
-0.23293623 0.04430923 0.30988342 0.17377365 0.06530517 -0.07139695 0.19982272 -0.122351885
-0.22886096 0.20000988 0.11159551 -0.41245592 0.2867242 -0.418214 -0.38233554 0.21101052
-0.2165227 0.42806053 0.28475475 -0.3984328 -0.1164327 -0.31406474 -0.3068108 0.24447381
-0.4124189 0.043218732 0.07478267 -0.13278359 -0.3450454 0.38861567 -0.13389227 0.015797526
-0.2958616 0.14711761 -0.06741476 0.41569978 -0.4027752 -0.061249733 -0.04401028 0.13722551
0.018886685 -0.17041522 0.1816467 -0.33733758 -0.3437588 -0.04534778 -0.038898736 -0.27511048
-0.02144304 -0.18090686 -0.05883625 -0.26514325 -0.07698271 0.27727056 -0.1321077 0.08567178
0.3638674 0.08045393 0.28403956 -0.42115137 -0.42074087 0.27419525 0.05250022 0.4259979
-0.34631544 -0.09646243 0.28439385 0.39353675 -0.14496437 -0.30570596 -0.23488244 0.38418818
0.34205914 -0.15340117 -0.31259608

bias_ih_l0 f4 [15]
00000000: adba b3be 27ed 5fbe 6324 9c3c 0cda af3e
00000010: efa4 01be dbf7 be3b caf9 133e 0b81 eebd
00000020: 9249 bbbe f04b 973e e9f5 82be 9219 8d3d
00000030: 49f7 063e d1df ec3e 6d4b a7be
-0.3510336 -0.2186781 0.01906032 0.34346044 -0.12660573 0.0058278865 0.14450756 -0.11645707
-0.36579567 0.29550123 -0.2557824 0.06889643 0.1318027 0.46264508 -0.32674733

bias_hh_l0 f4 [15]
00000000: 1123 d4bd f8b1 56bd 3b04 313e c064 9a3e
00000010: c14d f83d 6dae 16be 83d5 bdbe f30f 10bd
00000020: da1a 693e 7ddd eebd 59f5 36be d215 9d3e
00000030: 2181 0dbd 47e6 333e fcdd d53b
-0.10358251 -0.052415818 0.1728677 0.3015499 0.121242054 -0.14714976 -0.3707696 -0.03517146
0.2276415 -0.11663339 -0.1786703 0.3068071 -0.034546975 0.17568313 0.0065267067

weight f4 [8, 150]
00000000: fb7e 04bc 929d f0bb a205 d2bc c973 dabb
00000010: 52cf b9bb 5b2a 633c 48ed 86bc 5461 aabb
00000020: a58d b9bb fa5a de3b e9ce 0d3c 22cb 993b
00000030: 328a 20bc c6b3 c6bd b801 4a3c a9b5 48bb
00000040: e129 0a3c a2b2 2dbb c64e 7c3b f4d2 013a
00000050: 071b c039 2c5e 5dbb 3af7 033d 0ba5 653a
00000060: 4af9 27ba 2f0c 85bc af93 5d3b 0e15 c8bb
00000070: 0a99 1dbb fb76 daba 1edd 053d 9240 12bb
00000080: a8a0 bb3b bbc5 1d3c 9ef1 97bc dc0f dfbc
00000090: 67ca c5bb 94ca 93bb 79f5 ebbb 9029 293b
000000a0: a892 c3bb 2c4e ae3a c6c5 ecbb 1ea4 05bc
000000b0: 264f 5abb 6cbd 743d 3059 683b 79b2 aebb
000000c0: 6536 963b 554c 83bb 5ea2 ab3a 31bf 24ba
000000d0: a891 1d3b 696c 69bc 897b f7ba 789f 02bc
000000e0: 92e9 a5ba 20d0 8abb 24d6 e13a cf0c 2e3b
000000f0: 9cab b8bb ed64 043b 7f1b 41bb 8e64 763a
00000100: 5c20 453c aeed 2fbc f8f1 eebb f30e d93a
00000110: 8828 dcbb 10b1 1e3b 36e3 f4bb 6778 6cbc
00000120: efe4 883b 4056 243c fe60 86bc 4f9d 12bc
00000130: 452d d63b 0423 c139 c16e ebba b2a2 46bc
00000140: 107f 88bc d852 633b 4ab4 1a3b 4853 b73b
00000150: 1bba 13bc 380b 533d c27d 7c3b 378d f13a
00000160: 00ef 7d3b 2b33 5c3c 2e1e 60bc a655 c03a
00000170: 6f20 0e3c 6d1b 843b f9a8 1a3c 8078 07bc
00000180: d04f 923b c63a 9abb dc49 b83c de93 a8bb
00000190: d75c 62bd fc1d 263b 0055 17b8 8697 ff3a
000001a0: 63db a03c 9415 173c 4278 8abb 61b8 35ba
000001b0: 3952 93ba 1f62 b5bb dab7 7abc 368d b53b
000001c0: c559 313a b2ca 0abb f160 2ebc 794f 05bc
000001d0: 6dba 003b d8d0 903b ef81 573c 3b7a 7abc
000001e0: 54e7 0f3d cf96 0cbc 0be2 593b 509a c93b
000001f0: c1e7 113c 22ff a93c 2443 383b 2685 893b
00000200: 3a5a 13bb 1264 98bb 2204 a83c 1cf4 a23a
00000210: 98a4 e73b cd5a 33bc 9f54 1bbc ce8c 423b
00000220: 54cd 963b 4f7c f8bb 9e8f 5f3b e632 41bc
00000230: 46d3 a7bc dfd2 db3b adfe a2bb 2769 11bb
00000240: a045 efba 7ea1 01bc 1f7c d3ba 749a a73b
00000250: 0884 43bb 5c29 c1bc 4d74 a13c 7a2f 1fbc
00000260: f28a d93b 534e fb3b 158c 3f3c 7437 433b
00000270: 2a9a 1abd 1bde d53b c5f3 8fbb c328 95bb
00000280: dbe4 b8bc 53b4 bcbc c0a0 7a3c 5ec3 033d
00000290: da5d 45b9 6809 b93b 2834 973b 304b 753c
000002a0: 722f 9838 4642 dfbb 9873 57bc d7a9 493b
000002b0: a225 d43b 285c 5ebc 2c5b a53c 29df bcbc
000002c0: 5480 ca3c 3bb3 793b a9c2 0abc 5bf2 abbb
000002d0: 8f45 9abd 32aa c6bc f2ed 11bc 08e9 38bc
000002e0: 2037 4b3b 0afc d6bc 18d5 30bb f4dd 20bc
000002f0: 5a21 a73b 7c49 7abd bb7a 0ebd 05ae f0bb
00000300: 8ab2 c03b 867c 7a3c 12b4 773c de0e 76bc
00000310: ecd8 b9bb 5768 613c cb26 5ebc 0d43 0a3d
00000320: 4327 afbd 2fbf 82bc f337 cf3c 20dc e0bc
00000330: e818 4939 edf0 c7bb ffba c93c 7b65 973c
00000340: 3296 e3ba 861e 4bbc 0182 e1bc 18a2 dcbb
00000350: 3259 2b3c 907d b13b 477c aabd 2806 5dbd
00000360: 5f12 debc 73ff 84bc 0a6d 323d e45f 083d
00000370: b8e3 a13d f7f3 2d3a 1306 a93c f148 29bc
00000380: cbd0 b0bc 4212 3f3d 87c0 0fbc 63e5 46bb
00000390: 7470 d6bc 09d8 c13b 3d11 6abd f166 bbbb
000003a0: c9c8 883c 7e28 663c 859f ecbc bbc2 39bd
000003b0: 4dca 95bc 96b7 983c 10c2 05bd 6891 d6b9
000003c0: 2916 1fbb 476e 4dbc 0ded e03b 6dc6 03bd
000003d0: 1f79 83bc 86b7 1bbd ebc9 81bc 4cd5 17ba
000003e0: 4e54 8a3a 76a6 1dbd f63c c7bd 20a5 4d3c
000003f0: 4774 babb 3bcc f03b 206a 313c 4832 0ebd
-0.008086915 -0.0073430026 -0.025637452 -0.0066666347 -0.0056704665 0.013865079 -0.016470566 -0.0051995907
-0.0056626373 0.0067857476 0.008655288 0.004693405 -0.009798573 -0.09702258 0.012329511 -0.0030625856
0.008432836 -0.0026504179 0.00384991 0.0004952394 0.0003664123 -0.0033778055 0.032218195 0.000876025
-0.00064076914 -0.016241161 0.003380995 -0.0061060255 -0.0024047517 -0.0016667539 0.032681577 -0.002231632
0.005725939 0.009629662 -0.01854783 -0.027229242 -0.006036091 -0.004510233 -0.0072008935 0.0025812127
-0.0059684105 0.0013298444 -0.007225725 -0.008156804 -0.0033311336 0.05975096 0.003545355 -0.005331334
0.004584121 -0.004006902 0.0013094654 -0.0006284593 0.0024043117 -0.014247038 -0.0018881421 -0.007972591
-0.001265811 -0.004236236 0.0017229957 0.0026557927 -0.005635692 0.0020201758 -0.0029465852 0.0009399139
0.012031641 -0.01073782 -0.0072920285 0.0016560241 -0.006718699 0.0024214424 -0.0074733747 -0.014433003
0.0041776816 0.010030329 -0.016403671 -0.008948638 0.0065361583 0.00036837917 -0.0017962084 -0.0121237505
-0.01666215 0.003468683 0.0023605996 0.0055946447 -0.009016539 0.05152437 0.0038527106 0.0018428926
0.0038747191 0.013439934 -0.01367907 0.0014673963 0.008674725 0.0040315897 0.0094397 -0.0082684755
0.004465081 -0.0047067134 0.022496156 -0.0051445803 -0.05526432 0.0025347462 -3.6080368e-05 0.0019500114
0.019635862 0.009221453 -0.0042257616 -0.00069320766 -0.0011239714 -0.0055353786 -0.015302623 0.0055405153
0.0006765391 -0.0021177945 -0.01064323 -0.008136624 0.0019642368 0.0044194274 0.013153537 -0.015287931
0.03513272 -0.008580877 0.0033246304 0.0061524287 0.008905352 0.02075154 0.002811619 0.0041967807
-0.00224842 -0.004650601 0.020509783 0.0012432369 0.0070691817 -0.010946942 -0.009480624 0.0029685977
0.0046021137 -0.007583178 0.0034112702 -0.01179192 -0.020486485 0.0067084874 -0.0049742074 -0.002218792
-0.0018255003 -0.007912038 -0.0016135013 0.005114848 -0.0029833335 -0.023579292 0.019708777 -0.009715909
0.006638878 0.007669249 0.011691113 0.0029787691 -0.03774468 0.006526721 -0.0043930733 -0.0045519783
-0.022570064 -0.023035204 0.015297115 0.03216874 -0.00018822346 0.0056468733 0.004614372 0.014971539
7.256762e-05 -0.0068133203 -0.013150118 0.0030771398 0.0064742127 -0.013571776 0.020185076 -0.02305563
0.024719395 0.0038101214 -0.008469262 -0.005247397 -0.075327985 -0.024251077 -0.008906828 -0.011286028
0.00310082 -0.026243228 -0.0026982483 -0.009818543 0.0051004114 -0.061105236 -0.034785014 -0.0073449635
0.0058806585 0.015288478 0.015118616 -0.015018193 -0.005671611 0.013757787 -0.013559054 0.03375535
-0.085524105 -0.015960304 0.025295233 -0.027448714 0.00019178132 -0.0061017186 0.0246253 0.018481007
-0.0017363487 -0.012397414 -0.027527811 -0.0067331903 0.010458278 0.0054165795 -0.08324485 -0.05396095
-0.02710837 -0.016235089 0.04356102 0.033294573 0.07904762 0.000663578 0.02063278 -0.010332332
-0.021583935 0.04664827 -0.008773929 -0.0030349127 -0.026176669 0.005915646 -0.057145346 -0.0057190587
0.016697304 0.01404774 -0.028884659 -0.045351725 -0.018284941 0.018642228 -0.032655776 -0.00040925597
-0.0024274683 -0.012538499 0.006864196 -0.032171655 -0.016048966 -0.03801682 -0.015843352 -0.00057919766
0.0010553689 -0.038488828 -0.09728424 0.012551576 -0.005690131 0.007348565 0.010828525 -0.03471592

bias f4 [8]
00000000: 3145 7b3d 0815 513d eca2 40bd 6a0d a4bd
00000010: 3b80 9cbd 6df9 243d 2665 99bd 9dbb 41bd
0.061345283 0.051045448 -0.047030374 -0.08010371 -0.076416455 0.040276933 -0.07489996 -0.047298063

weight f4 [1, 24]
00000000: 20ee 943e 3388 993d 7b65 c8bc 6e31 a3bd
00000010: ae3b 0a3d 54df 2dbd 51b0 633d ba29 d0bd
00000020: be77 b9bd 0d3e eabc 7a8d 20be edde 433e
00000030: 5724 b73e 6e7d f53d 69a9 b5bc 130d b73d
00000040: cf43 47bc 8715 f5bc 5121 01bb d491 e63d
00000050: ef00 b73d d8e8 a2bb d29e a23d 467c cf3d
0.29087925 0.07496681 -0.024462452 -0.07968412 0.03374832 -0.04244931 0.05558807 -0.10164209
-0.09056042 -0.028594041 -0.15678969 0.19128008 0.35769913 0.119868144 -0.022175508 0.089380406
-0.012162163 -0.029917492 -0.0019703696 0.11258283 0.08935725 -0.004971605 0.07940449 0.10131125
