model_files/LSTNET/blockrnn.pt.ckpt (torch, 45319 bytes, 10 tensors)

rnn.weight_ih_l0 f8 [25, 16]
0	0x3fc47eb7e0000000	0.16011713445186615
1	0x3fc6b51ae0000000	0.17740188539028168
2	0xbfc840e7a0000000	-0.1894807368516922
3	0x3fb90f82e0000000	0.09789293259382248
4	0x3fb569ca00000000	0.08364546298980713
5	0x3fc41fd5a0000000	0.15722151100635529
6	0xbf81223660000000	-0.008366036228835583
7	0x3fbfa437a0000000	0.12359950691461563
8	0x3fb013f000000000	0.0628042221069336
9	0x3fc1c76c60000000	0.13889841735363007
10	0xbf9b4a8ce0000000	-0.026651574298739433
11	0xbfc2925aa0000000	-0.14509136974811554
12	0xbfc7d14500000000	-0.186073899269104
13	0xbfc2722f00000000	-0.1441096067428589
14	0x3fc784b9a0000000	0.18373794853687286
15	0x3faf329da0000000	0.06093304231762886
16	0x3f76df0ce0000000	0.0055838110856711864
17	0xbfc7d71260000000	-0.1862509697675705
18	0x3fc45e0960000000	0.15911976993083954
19	0xbfc58f2600000000	-0.16843104362487793
20	0x3fbc821ce0000000	0.11136036366224289
21	0xbfc021e740000000	-0.12603464722633362
22	0xbfb0c3b140000000	-0.06548602879047394
23	0x3fc7070800000000	0.1799020767211914
24	0xbfc7235ce0000000	-0.18076668679714203
25	0xbfc2604ba0000000	-0.14356370270252228
26	0x3fb289ba60000000	0.07241406291723251
27	0xbfc96ca1a0000000	-0.19862766563892365
28	0x3f929d4800000000	0.018178105354309082
29	0xbf950bb9a0000000	-0.020552540197968483
30	0x3fc5797800000000	0.1677694320678711
31	0xbf79a88660000000	-0.006264233496040106
32	0x3fa2284b40000000	0.035463668406009674
33	0xbfbba85800000000	-0.10803747177124023
34	0xbfb37a2860000000	-0.0760827288031578
35	0x3f9f515000000000	0.030583620071411133
36	0x3fc3155200000000	0.14908814430236816
37	0xbfc55168e0000000	-0.16654692590236664
38	0xbfbafffa60000000	-0.10546841472387314
39	0x3fa738b800000000	0.045354604721069336
40	0xbfa1d2f000000000	-0.03481245040893555
41	0x3fc528ede0000000	0.1653115600347519
42	0x3fc78cc8e0000000	0.1839839071035385
43	0x3fc44c2340000000	0.15857353806495667
44	0xbfbde42ee0000000	-0.11676304787397385
45	0x3fc5bcc9a0000000	0.16982384026050568
46	0x3fc50bc340000000	0.1644214689731598
47	0xbfa5382660000000	-0.04144401475787163
48	0x3fad9b0ce0000000	0.05782356485724449
49	0xbf966e4e60000000	-0.021905159577727318
50	0xbfc93b3be0000000	-0.19712017476558685
51	0xbfc5057400000000	-0.1642289161682129
52	0x3f77e5f9a0000000	0.005834555719047785
53	0xbf951251a0000000	-0.020577693358063698
54	0xbf8229ace0000000	-0.008868551813066006
55	0xbfc2036a60000000	-0.14072923362255096
56	0xbf9439e000000000	-0.019752025604248047
57	0xbfc3e8e9a0000000	-0.1555454283952713
58	0xbf91735000000000	-0.017041444778442383
59	0x3f99870ce0000000	0.024929238483309746
60	0x3fc43ddba0000000	0.1581377536058426
61	0xbfa2bf4f40000000	-0.036615826189517975
62	0xbfc9793a00000000	-0.19901204109191895
63	0xbfb614cf40000000	-0.0862550288438797
64	0x3fbd962060000000	0.1155719980597496
65	0x3fc78cfea0000000	0.18399031460285187
66	0x3fc1eb8240000000	0.139999657869339
67	0xbfa8984340000000	-0.04803667217493057
68	0x3fac398000000000	0.055126190185546875
69	0x3fbaff0000000000	0.1054534912109375
70	0x3fb953e540000000	0.09893639385700226
71	0xbfbb0bd8e0000000	-0.10564952343702316
72	0x3fa311fce0000000	0.03724661096930504
73	0x3fbf9847a0000000	0.12341735512018204
74	0xbfbad36c00000000	-0.10478854179382324
75	0x3fc4eb38a0000000	0.1634283810853958
76	0x3fb4ccd940000000	0.08125074207782745
77	0x3fb356c600000000	0.07554280757904053
78	0x3fbfd0a140000000	0.12427718937397003
79	0xbfaf75bda0000000	-0.06144516542553902
80	0xbfb098d4e0000000	-0.06483202427625656
81	0xbfbcbb2ee0000000	-0.11223118752241135
82	0xbfb0d9b340000000	-0.06582184135913849
83	0x3fc0ac5ea0000000	0.13026030361652374
84	0x3f92bf6e60000000	0.018308376893401146
85	0xbee8800000000000	-1.1682510375976562e-05
86	0x3fbd64b340000000	0.11481781303882599
87	0xbf59d53340000000	-0.0015767097938805819
88	0x3fa00260e0000000	0.03126814588904381
89	0x3f991cf800000000	0.024524569511413574
90	0x3fc2a5cb40000000	0.1456846296787262
91	0xbf8e30cce0000000	-0.014741516672074795
92	0xbfafd1a260000000	-0.06214625760912895
93	0x3fc58b2ee0000000	0.1683100312948227
94	0x3fc2ff3e60000000	0.14841441810131073
95	0x3fc630f9a0000000	0.1733696013689041
96	0x3fa24f0a60000000	0.03575928136706352
97	0xbfb305f2e0000000	-0.07430952042341232
98	0x3fc0984100000000	0.1296464204788208
99	0x3f93e259a0000000	0.01941814459860325
100	0x3fc4c10fe0000000	0.16214178502559662
101	0x3fc8654660000000	0.19059066474437714
102	0x3fc2b2f900000000	0.14608681201934814
103	0x3fc79573e0000000	0.1842484325170517
104	0xbf8c474ce0000000	-0.013807869516313076
105	0xbf68498000000000	-0.0029647350311279297
106	0xbfc7fb55e0000000	-0.18735764920711517
107	0x3fc2c10900000000	0.14651596546173096
108	0x3fc8ec1740000000	0.19470492005348206
109	0x3fc233d400000000	0.14220666885375977
110	0xbfc0820360000000	-0.12896768748760223
111	0xbfc5c10440000000	-0.1699528992176056
112	0x3f899ac660000000	0.01250224094837904
113	0xbfb4314060000000	-0.07887651771306992
114	0x3fb6216400000000	0.08644700050354004
115	0xbfc2e08fa0000000	-0.14747805893421173
116	0xbfc6c12da0000000	-0.17777033150196075
117	0xbfc065da40000000	-0.12810829281806946
118	0x3fba046260000000	0.10162939876317978
119	0x3f85a85340000000	0.010574961081147194
120	0x3fc7564740000000	0.1823205053806305
121	0x3fc884f240000000	0.19155719876289368
122	0xbfc2f5a5a0000000	-0.14812155067920685
123	0x3fc03e2de0000000	0.12689755856990814
124	0xbfc6938c40000000	-0.1763778030872345
125	0xbfa037b9a0000000	-0.031675148755311966
126	0xbfc8fa08a0000000	-0.19513042271137238
127	0xbfb3a43860000000	-0.07672455161809921
128	0xbfbae3e9dea9c0c7	-0.10504018484221254
129	0xbfbbf6f915d76adf	-0.10923725875128863
130	0xbfc2c4289d91710e	-0.1466112870574609
131	0xbfbc80f5253f88a7	-0.11134273681048744
132	0xbfc5ed0360d724e5	-0.1712955687383221
133	0xbfc0c1566046599a	-0.13090018940847586
134	0x3fb0d1af793f984f	0.06569954595724535
135	0x3fc510e35ca7a3e4	0.1645778849045022
136	0x3fc53c1720ab1fde	0.16589631171359448
137	0x3f9ab75da8a251c8	0.026090110223394608
138	0xbfc61838fd91710e	-0.1726142156720773
139	0x3fc6d3a04d603be2	0.17833331850167072
140	0x3fa16e53fca36b55	0.03404486140217126
141	0x3fb02ff15f734d66	0.06323155002910638
142	0xbfae225aad80d05e	-0.058855851821505864
143	0xbfb0e91876b0b8d6	-0.0660567559977808
144	0xbfc7eb6740000000	-0.18687143921852112
145	0xbfb33efa00000000	-0.07517969608306885
146	0xbfc7f79e00000000	-0.18724417686462402
147	0xbf7d942000000000	-0.007221341133117676
148	0x3fc0fafb00000000	0.13265931606292725
149	0xbf8fcca000000000	-0.015527009963989258
150	0x3fbde7b660000000	0.11681690067052841
151	0x3fabfa4da0000000	0.054644037038087845
152	0x3fc4212100000000	0.15726101398468018
153	0xbfb05368e0000000	-0.06377273052930832
154	0xbfb3e737a0000000	-0.07774684578180313
155	0x3f84ff1ce0000000	0.010252214036881924
156	0xbfc07158a0000000	-0.12845905125141144
157	0xbfb4e332e0000000	-0.08159177750349045
158	0xbfc13ec000000000	-0.13472747802734375
159	0x3fb77b6000000000	0.09172630310058594
160	0x3fbdbb1800000000	0.11613607406616211
161	0x3fb6e0f260000000	0.08936991542577744
162	0x3fbf9d3e00000000	0.12349307537078857
163	0xbf89f179a0000000	-0.012667608447372913
164	0xbfc0480aa0000000	-0.12719853222370148
165	0xbfc70e20a0000000	-0.1801186352968216
166	0xbf7d22a000000000	-0.007113099098205566
167	0xbfa2813e60000000	-0.03614230081439018
168	0x3fbb1f6940000000	0.10594804584980011
169	0x3fc043efa0000000	0.1270732432603836
170	0xbfb19eae60000000	-0.06882753223180771
171	0xbfb2dd1860000000	-0.0736861452460289
172	0x3fc11b6de0000000	0.1336495727300644
173	0x3fa3d665a0000000	0.03874509409070015
174	0xbfb4f3a860000000	-0.08184292167425156
175	0xbfc6cb9600000000	-0.17808794975280762
176	0x3facfd1da0000000	0.056618619710206985
177	0x3fa39284e0000000	0.038227226585149765
178	0x3f9a3ae660000000	0.025615310296416283
179	0xbfbcf92000000000	-0.11317634582519531
180	0xbfc639a5e0000000	-0.17363427579402924
181	0x3f6aea19a0000000	0.0032854557503014803
182	0xbfc7f4e6e0000000	-0.18716131150722504
183	0x3fbc4ef600000000	0.11057984828948975
184	0xbfb95d2200000000	-0.09907734394073486
185	0x3f827dc000000000	0.009028911590576172
186	0xbfa469e000000000	-0.039870262145996094
187	0xbf8ffcfce0000000	-0.015619254671037197
188	0xbfbaa06200000000	-0.10400974750518799
189	0xbfa951f5a0000000	-0.04945342615246773
190	0x3fc04dcbe0000000	0.12737415730953217
191	0x3fadfc6660000000	0.05856628343462944
192	0x3fc89ae040000000	0.19222643971443176
193	0xbfc8ea1860000000	-0.1946440190076828
194	0xbf9d5b5000000000	-0.028668642044067383
195	0xbfc6e2bca0000000	-0.17879445850849152
196	0x3f8808a340000000	0.011735225096344948
197	0x3fc26169a0000000	0.1435977965593338
198	0xbfc83b5de0000000	-0.18931172788143158
199	0xbfb5645e00000000	-0.08356273174285889
200	0x3fb31c8a00000000	0.074654221534729
201	0xbfc7cf4500000000	-0.186012864112854
202	0xbfc276aea0000000	-0.1442468911409378
203	0x3fa45f68e0000000	0.03979041799902916
204	0xbf856ec000000000	-0.010465145111083984
205	0xbfc2115e60000000	-0.14115504920482635
206	0x3fc5fdf3a0000000	0.1718124896287918
207	0x3fc00d4d00000000	0.1254059076309204
208	0x3f94ddb896e6a7c6	0.020377048692956888
209	0xbfadd040de13dfbe	-0.058229472264371904
210	0x3fbb56cc0b78829b	0.10679316787764963
211	0x3f8df6e051e6248d	0.014631035327300057
212	0xbf8988f994b344d8	-0.012468290186378558
213	0xbfc1e7f4e913747f	-0.1398912561479939
214	0x3fc5b407dcced760	0.1695566013492522
215	0xbfbce02bfcbb8e11	-0.11279559059362777
216	0xbfbbaac31a46560b	-0.10807437316392325
217	0x3fa3235741ec2042	0.037379004285015074
218	0x3fbf3b4eeb788297	0.12199872254178455
219	0xbfc749b562e19db8	-0.18193690612973312
220	0xbfa8c806552cd11a	-0.048401067635867004
221	0xbfc519274913747f	-0.16483012264408
222	0x3fc1ce9cdcced760	0.13911782056464528
223	0x3fc74b3241a238f9	0.1819823093869173
224	0x3f925a9660000000	0.017923688516020775
225	0xbf8f09f660000000	-0.01515572052448988
226	0x3fbd2b62e0000000	0.11394327133893967
227	0x3fc4e6c6e0000000	0.1632927507162094
228	0x3fc62b8ea0000000	0.17320425808429718
229	0xbfb5659c00000000	-0.08358168601989746
230	0x3fc8d01a60000000	0.1938508003950119
231	0xbfb91b0a60000000	-0.09806885570287704
232	0x3f8d467ce0000000	0.014294601045548916
233	0xbfaa2b3c00000000	-0.05111110210418701
234	0x3fc36feba0000000	0.1518530398607254
235	0x3f8a4c2000000000	0.012840509414672852
236	0x3fb5fe1340000000	0.08590812981128693
237	0xbfb3dc2e60000000	-0.07757844775915146
238	0xbfb395d4e0000000	-0.07650499790906906
239	0x3fb87e2a00000000	0.09567511081695557
240	0xbf921d59a0000000	-0.017690086737275124
241	0xbf976671a0000000	-0.0228517297655344
242	0x3facddd9a0000000	0.05638008192181587
243	0x3fc6e6db00000000	0.17892014980316162
244	0x3fa424a8e0000000	0.03934219107031822
245	0xbfb56136e0000000	-0.08351462334394455
246	0xbfafd295a0000000	-0.06215350702404976
247	0x3fbdb9a600000000	0.11611402034759521
248	0xbfb77da4e0000000	-0.09176092594861984
249	0x3fbefe3600000000	0.12106645107269287
250	0xbfc1a1c9a0000000	-0.13774986565113068
251	0xbf961749a0000000	-0.021573210135102272
252	0x3fc3465840000000	0.15058425068855286
253	0x3fc5fab760000000	0.17171375453472137
254	0x3fc50afd00000000	0.16439783573150635
255	0x3fb9d4e260000000	0.10090460628271103

rnn.weight_hh_l0 f8 [25, 25]
0	0xbfc6d4bd40000000	-0.17836728692054749
1	0xbf9350f660000000	-0.018863534554839134
2	0xbf92f999a0000000	-0.01853027381002903
3	0x3fac224c00000000	0.054949164390563965
4	0xbfaaae5400000000	-0.052111268043518066
5	0xbfbe74f000000000	-0.1189718246459961
6	0xbf9ec9e1a0000000	-0.030066991224884987
7	0xbfbb6b4200000000	-0.10710537433624268
8	0xbfc42c6900000000	-0.15760529041290283
9	0xbfaeddd4e0000000	-0.06028619036078453
10	0xbfa2c7b740000000	-0.036679960787296295
11	0xbfc2123f00000000	-0.1411818265914917
12	0x3fc4f3b7a0000000	0.16368766129016876
13	0x3fb850f9a0000000	0.09498558193445206
14	0xbfc6e54840000000	-0.17887213826179504
15	0x3fc6b10ee0000000	0.17727838456630707
16	0x3fa541c8e0000000	0.04151752218604088
17	0xbfb73b3860000000	-0.09074737876653671
18	0xbfbc3db4e0000000	-0.11031656712293625
19	0xbf82e08ce0000000	-0.009217358194291592
20	0x3fb7a78600000000	0.0923999547958374
21	0x3f928edce0000000	0.01812310330569744
22	0x3fb6462e00000000	0.08700835704803467
23	0x3fa4766da0000000	0.03996603563427925
24	0x3fc8fef240000000	0.19528034329414368
25	0x3fc137e260000000	0.13451795279979706
26	0xbfb9aa7c00000000	-0.10025763511657715
27	0xbfc964e740000000	-0.19839182496070862
28	0xbfa808d8e0000000	-0.04694249853491783
29	0xbfaca2fa60000000	-0.05593092367053032
30	0xbfa0f61da0000000	-0.033127713948488235
31	0x3fbe3b73a0000000	0.11809466034173965
32	0x3fbb217a60000000	0.10597958415746689
33	0xbfc2fc31a0000000	-0.14832134544849396
34	0xbf88a31340000000	-0.012029791250824928
35	0xbfc75194a0000000	-0.18217714130878448
36	0x3fc5742540000000	0.16760697960853577
37	0xbfbe542060000000	-0.1184711679816246
38	0xbfc1c5d160000000	-0.1388494223356247
39	0xbfb4870a00000000	-0.08018553256988525
40	0xbf84bfb9a0000000	-0.010131311602890491
41	0xbfb3fbb260000000	-0.07805933803319931
42	0xbfb5c49ce0000000	-0.08503132313489914
43	0x3facb098e0000000	0.05603482946753502
44	0xbfb9eee8e0000000	-0.10130172222852707
45	0xbfc6fc08a0000000	-0.17956645786762238
46	0x3fb5e0bf40000000	0.0854606181383133
47	0xbfbf6f5e60000000	-0.12279310077428818
48	0xbfa97ec4e0000000	-0.04979529604315758
49	0xbfaf6d9a60000000	-0.06138307973742485
50	0x3fc6d551e0000000	0.17838500440120697
51	0x3fa8a37260000000	0.04812199994921684
52	0xbfb8e30860000000	-0.0972142443060875
53	0xbf70e3a660000000	-0.004123353864997625
54	0xbfc350e500000000	-0.15090620517730713
55	0xbfc38ba0a0000000	-0.1526985913515091
56	0x3fc281d9e0000000	0.14458774030208588
57	0x3fa0d6a800000000	0.03288769721984863
58	0x3fbdf40860000000	0.11700489372015
59	0xbf84e619a0000000	-0.010204506106674671
60	0x3fbdcedc00000000	0.11643767356872559
61	0x3f9667f660000000	0.02188096009194851
62	0x3fb0748340000000	0.06427784264087677
63	0x3fc2d6be40000000	0.14717844128608704
64	0x3fa7cba340000000	0.04647550731897354
65	0xbfa71d9f40000000	-0.04514787346124649
66	0xbfb5a01200000000	-0.08447372913360596
67	0xbfb1213340000000	-0.06691284477710724
68	0x3fc52da660000000	0.165455624461174
69	0x3fb8740fa0000000	0.09552095085382462
70	0x3fc3d66000000000	0.15497970581054688
71	0x3fc13306e0000000	0.13436971604824066
72	0xbfc3283200000000	-0.14966416358947754
73	0xbfc348bf60000000	-0.15065757930278778
74	0xbfbf459ba0000000	-0.12215588241815567
75	0x3faf4a9f40000000	0.06111619621515274
76	0x3fbb172c00000000	0.10582232475280762
77	0x3fc2060140000000	0.14080825448036194
78	0xbfb64b9ce0000000	-0.08709125965833664
79	0xbfc4c80640000000	-0.1623542606830597
80	0xbfc132cbe0000000	-0.13436268270015717
81	0xbfc58372e0000000	-0.16807399690151215
82	0x3fbd45a400000000	0.11434388160705566
83	0x3fb15f31a0000000	0.06785879284143448
84	0xbfae6220e0000000	-0.059342410415410995
85	0xbf39bf3340000000	-0.00039286614628508687
86	0xbfc3dc2f40000000	-0.15515699982643127
87	0xbfa8d3ac00000000	-0.048489928245544434
88	0x3fa9637400000000	0.04958689212799072
89	0xbfaf7c8400000000	-0.061496853828430176
90	0xbfbef1fba0000000	-0.12087986618280411
91	0xbfb19a5e00000000	-0.06876170635223389
92	0xbfc52dc840000000	-0.16545966267585754
93	0x3fc87544e0000000	0.1910787671804428
94	0x3fbd1cb600000000	0.11371934413909912
95	0x3fad753a60000000	0.05753500387072563
96	0xbfc3052000000000	-0.14859390258789062
97	0xbfbcd79940000000	-0.11266477406024933
98	0xbfc67ea9a0000000	-0.17574043571949005
99	0xbfb0ce0b40000000	-0.06564398109912872
100	0xbfc14997a0000000	-0.13505835831165314
101	0xbfc52cf140000000	-0.16543403267860413
102	0x3fba1d2740000000	0.10200734436511993
103	0x3f62147340000000	0.0022070170380175114
104	0xbfada51a60000000	-0.057900261133909225
105	0x3f7df4c660000000	0.007313513662666082
106	0xbfa14fe400000000	-0.033812642097473145
107	0x3f8a1ba9a0000000	0.01274807471781969
108	0xbfc7d385a0000000	-0.18614263832569122
109	0x3fb8d1fba0000000	0.09695408493280411
110	0xbf975469a0000000	-0.0227829460054636
111	0x3fb6919060000000	0.08815862983465195
112	0xbfb23c6260000000	-0.07123389095067978
113	0xbf940ee660000000	-0.019588088616728783
114	0x3fc4300040000000	0.1577148735523224
115	0x3fc190d800000000	0.13723278045654297
116	0x3fc0b25d60000000	0.1304432600736618
117	0xbf96d4b800000000	-0.022295832633972168
118	0x3f8676b340000000	0.010968590155243874
119	0xbfacc4a660000000	-0.05618781968951225
120	0xbfc7361a60000000	-0.1813385933637619
121	0x3fb8f50660000000	0.09748878329992294
122	0x3fa1df34e0000000	0.034906055778265
123	0xbfbd66a8e0000000	-0.11484771221876144
124	0xbfa3c18260000000	-0.038585733622312546
125	0x3fb7d57c00000000	0.09310126304626465
126	0xbfb040cb40000000	-0.0634886771440506
127	0xbfb51d9e60000000	-0.0824831947684288
128	0x3fa3433740000000	0.03762219101190567
129	0xbfc3e8eca0000000	-0.15554578602313995
130	0x3f7f1d4000000000	0.007596254348754883
131	0xbfc7ce4460000000	-0.18598227202892303
132	0xbfc0ef8aa0000000	-0.13231022655963898
133	0xbfbdc1e940000000	-0.11624009907245636
134	0xbfbc3ad0e0000000	-0.11027245968580246
135	0x3facb999a0000000	0.05610351637005806
136	0x3fa7979660000000	0.0460783950984478
137	0x3fc6d57aa0000000	0.17838986217975616
138	0x3fb657ef40000000	0.08727927505970001
139	0xbfab85df40000000	-0.0537557378411293
140	0xbfb86802e0000000	-0.09533708542585373
141	0xbfc96935a0000000	-0.19852323830127716
142	0xbfac21cda0000000	-0.05494539812207222
143	0xbfa8c6db40000000	-0.048392154276371
144	0x3fa9ffa260000000	0.05077845975756645
145	0x3fc253ef00000000	0.14318645000457764
146	0xbfc8200d40000000	-0.18847814202308655
147	0xbfc62afae0000000	-0.17318664491176605
148	0x3fc06f4660000000	0.12839584052562714
149	0x3f900c1e60000000	0.015671228989958763
150	0x3fb74dee60000000	0.09103288501501083
151	0x3fbb6a40e0000000	0.1070900484919548
152	0x3fbc1adda0000000	0.10978493839502335
153	0xbfc1a91e40000000	-0.1379735767841339
154	0x3fc2481600000000	0.14282488822937012
155	0x3fbb216660000000	0.10597839206457138
156	0xbfc85851e0000000	-0.19019530713558197
157	0xbfc96688a0000000	-0.19844157993793488
158	0xbfa2493f40000000	-0.03571508079767227
159	0xbfb6c8c7a0000000	-0.08900115638971329
160	0xbfb09a3600000000	-0.06485307216644287
161	0x3fb4f0c540000000	0.08179886639118195
162	0xbfc3d009e0000000	-0.15478633344173431
163	0xbf920494e0000000	-0.017595602199435234
164	0x3fc770fd40000000	0.18313565850257874
165	0xbfbfd0ece0000000	-0.12428169697523117
166	0x3fa73dcb40000000	0.04539332538843155
167	0x3fa97f9f40000000	0.04980180412530899
168	0x3fc2279300000000	0.14183270931243896
169	0xbfc2c8a140000000	-0.14674773812294006
170	0x3fc439c8e0000000	0.1580134481191635
171	0x3fc818d800000000	0.18825817108154297
172	0x3fc3c849e0000000	0.15454982221126556
173	0xbfab4dc740000000	-0.053327776491642
174	0xbfc604d7e0000000	-0.17202280461788177
175	0x3fb657bda0000000	0.08727631717920303
176	0x3fc1ace0e0000000	0.13808833062648773
177	0xbfbc530600000000	-0.11064183712005615
178	0xbfb3c140e0000000	-0.0771675631403923
179	0xbfa37068e0000000	-0.03796699270606041
180	0x3fc2e0fd60000000	0.14749114215373993
181	0x3faafbcc00000000	0.05270230770111084
182	0xbfb146f860000000	-0.06748916953802109
183	0x3fb9c588e0000000	0.10067038983106613
184	0x3fc6486ee0000000	0.17408548295497894
185	0xbf9c75e9a0000000	-0.027793550863862038
186	0xbfc7459b40000000	-0.18181172013282776
187	0x3fc0c315e0000000	0.13095353543758392
188	0x3fb27c8600000000	0.0722125768661499
189	0x3fc9836440000000	0.19932225346565247
190	0x3fc4c7e800000000	0.16235065460205078
191	0x3fc0f95be0000000	0.13260982930660248
192	0x3fc98d8a60000000	0.1996319741010666
193	0x3fa96c14e0000000	0.04965272173285484
194	0x3fc4788fe0000000	0.15992926061153412
195	0x3fbeeedb40000000	0.120832160115242
196	0x3fb559c600000000	0.08340108394622803
197	0x3fb9d6d2e0000000	0.10093419998884201
198	0xbfb73bfda0000000	-0.09075913578271866
199	0x3fc89669e0000000	0.1920902580022812
200	0xbf789401c8fda0d4	-0.006000525448918565
201	0x3fa9b0f9e11fb2e4	0.05017834542363689
202	0xbfb3f99f508fd8f9	-0.07802768437236186
203	0xbfb3bbaf0f702707	-0.07708257796198491
204	0xbfc0422c4847ec3a	-0.12701943902342966
205	0x3fa109e3711fb2e1	0.033278567847309544
206	0x3fc0d71ca847ec38	0.13156469551890537
207	0x3fa5658afee04d1c	0.041790336239637876
208	0xbfbe28cb4f41ea5d	-0.11780996975896003
209	0x3fa390bc411fb2e3	0.03821361823051974
210	0xbf6578c391fb42ef	-0.0026210612994436093
211	0xbfc563eba847ec38	-0.16711183277934238
212	0x3fa06918411fb2e2	0.0320518092629294
213	0xbfc625950451b78d	-0.17302191458605556
214	0x3f61b81091fb42f1	0.002162964214086898
215	0xbfbd90d0f08fd8f9	-0.11549096940129634
216	0xbfaf2a3a1ee04d1b	-0.060869041699471015
217	0xbfb6b60bd47a662e	-0.08871530473188535
218	0x3fc70ec357b813c8	0.180138032752579
219	0x3fb097ee208fd8f7	0.0648182706353032
220	0x3f89b81f3b813076	0.012558216098249125
221	0x3fc687ad57b813c8	0.17601553710133389
222	0xbf9d069abdc098fd	-0.028345506507457142
223	0xbfa2ca43711fb2e3	-0.03669939762025878
224	0x3f7f992828fda0d3	0.007714421153515799
225	0xbfb655ac60000000	-0.08724477142095566
226	0x3fa9cd7660000000	0.05039567872881889
227	0x3fb9c29600000000	0.10062539577484131
228	0xbfc5bd93e0000000	-0.16984795033931732
229	0xbf721159a0000000	-0.004411077592521906
230	0x3fbaab6460000000	0.10417773574590683
231	0x3fc5198200000000	0.1648409366607666
232	0xbfb597e200000000	-0.08434879779815674
233	0xbfbcda41a0000000	-0.11270532757043839
234	0xbf925e7e60000000	-0.017938589677214622
235	0x3f84614660000000	0.009951162151992321
236	0xbf830ce340000000	-0.009301925078034401
237	0x3faf8a9e60000000	0.06160445138812065
238	0x3fc4e00840000000	0.1630869209766388
239	0xbfa1234b40000000	-0.033472396433353424
240	0xbf93a74ce0000000	-0.019192887470126152
241	0xbfc1b20040000000	-0.1382446587085724
242	0xbfc675ed00000000	-0.17547380924224854
243	0xbf70467340000000	-0.003973436541855335
244	0x3f8cbd0660000000	0.014032411389052868
245	0xbfc9420900000000	-0.19732773303985596
246	0xbfba173a00000000	-0.10191690921783447
247	0xbfb5fc48e0000000	-0.085880808532238
248	0xbfb86cf3a0000000	-0.0954124704003334
249	0x3fc6269840000000	0.1730528175830841
250	0xbfc7973e60000000	-0.18430308997631073
251	0xbfb598a600000000	-0.08436048030853271
252	0xbfa710b8e0000000	-0.045049455016851425
253	0x3fb65b9340000000	0.08733482658863068
254	0x3fb5aada60000000	0.08463826030492783
255	0x3fc7128040000000	0.1802521049976349

rnn.bias_ih_l0 f8 [25]
0	0x3fc73af900000000	0.18148720264434814
1	0xbfb9fdf540000000	-0.10153134167194366
2	0xbfc0f64900000000	-0.1325160264968872
3	0xbfb822e800000000	-0.09428262710571289
4	0x3fadc13660000000	0.05811471864581108
5	0x3f834709a0000000	0.009412837214767933
6	0xbfb9fbaa60000000	-0.10149636119604111
7	0xbfb0920d40000000	-0.06472857296466827
8	0x3fc6671cf7c2b5ed	0.175021763779497
9	0x3fa1c78f40000000	0.03472564369440079
10	0x3f877779a0000000	0.011458349414169788
11	0x3fc35601e0000000	0.1510622352361679
12	0x3fc5203340000000	0.16504517197608948
13	0xbfaac25fb23cc3ed	-0.05226420450924949
14	0xbfbad99060000000	-0.10488226264715195
15	0x3fc173c340000000	0.1363452970981598
16	0xbfb4d73da0000000	-0.08140931278467178
17	0x3f69a171cff698b6	0.003128740587004487
18	0x3fbc72a6e0000000	0.1111244484782219
19	0x3fa06075a0000000	0.03198592737317085
20	0x3fa7467800000000	0.04545950889587402
21	0x3fc4c475a0000000	0.1622454673051834
22	0xbfa015b400000000	-0.031415581703186035
23	0x3fc1b21840000000	0.1382475197315216
24	0xbfc91aa6a0000000	-0.1961258202791214

rnn.bias_hh_l0 f8 [25]
0	0xbfc42e8c40000000	-0.1576705276966095
1	0xbf56a299a0000000	-0.0013815403217449784
2	0x3fb3c55800000000	0.07722997665405273
3	0x3fb02ac940000000	0.06315286457538605
4	0x3fc5dea7e0000000	0.17085741460323334
5	0x3fb19350e0000000	0.06865411251783371
6	0x3fb24fd3a0000000	0.07153055816888809
7	0xbfbb931740000000	-0.10771317780017853
8	0x3fbfe9a56f856b6a	0.12465890858349629
9	0xbf92d12340000000	-0.018375921994447708
10	0x3fc0c032a0000000	0.1308654099702835
11	0x3f9782f4e0000000	0.022960497066378593
12	0x3fb3370fa0000000	0.07505891472101212
13	0xbfc15e9d548f3100	-0.13569990757822126
14	0x3f94716000000000	0.019963741302490234
15	0xbfb17fb5a0000000	-0.06835494190454483
16	0xbfbe94a0e0000000	-0.11945538967847824
17	0xbfb7607211804b38	-0.09131539275430789
18	0xbfb37b87a0000000	-0.07610366493463516
19	0x3fc698fe60000000	0.17654399573802948
20	0xbf8b3419a0000000	-0.013282966800034046
21	0x3fad6ddb40000000	0.05747876316308975
22	0x3fb920dae0000000	0.09815757721662521
23	0x3fc21974a0000000	0.14140184223651886
24	0xbfc4649f40000000	-0.15932074189186096

rnn.weight_ih_l1 f8 [25, 25]
0	0xbfcb264417b861c4	-0.21210528524603778
1	0x3fc6e4a577b861c7	0.17885273309435787
2	0xbfabd159dee18716	-0.054331596810483315
3	0xbfa8830f211e7920	-0.04787490157399277
4	0xbfc7d4f3dfb861c6	-0.18618629859771668
5	0xbfad8e3da11e790e	-0.05772583572182742
6	0x3fc290a177b861bd	0.1450387796946994
7	0xbfb965d41f70c375	-0.09921003120031265
8	0x3fd4ed5ac31885b0	0.3269869714004825
9	0xbf82939e8479e3a9	-0.00907062379632058
10	0xbfd37210bbdc30c3	-0.30383699746813536
11	0xbf8f330a7b861c1f	-0.015234071631097077
12	0x3fd55592ebdc30c4	0.3333480170556522
13	0xbf96683e9cfd9db8	-0.021882036525679743
14	0x3fc60a26afb861c9	0.17218478756036706
15	0xbfc32cf177b861be	-0.14980905862536348
16	0x3fcc11f447b861c4	0.2192979192921155
17	0xbf997e726d07c4cd	-0.024896419434246298
18	0xbfd01b6ebbdc30e4	-0.25167435022082274
19	0xbfa8ab87a11e791f	-0.04818366853509048
20	0xbf92393ebdc30e16	-0.017796497661732934
21	0xbf87d3297b861c2a	-0.011633228380345601
22	0x3fd46478ebdc30c1	0.3186323455163454
23	0xbfd417e36bdc30c3	-0.3139580300637698
24	0x3fd39b355bdc30c1	0.30634817095484485
25	0x3fb4458b4eb4f984	0.07918615981632199
26	0x3fb265c5414b068f	0.07186539501256049
27	0x3f8797a375a7cc0c	0.011519696262416466
28	0xbfb40ec14eb4f984	-0.07835014506870236
29	0xbfc896a2a8a5833e	-0.19209702715581928
30	0xbfb4fc9eceb4f984	-0.08197968050533261
31	0x3fcc46fcd8a5833e	0.22091637209362064
32	0xbfc0346f38a58330	-0.12660017267173762
33	0x3fcf3d12ea0f7623	0.2440513270257024
34	0x3fcf0ab738a5833d	0.24251451745933564
35	0xbfc74b9c68a5833d	-0.18199496373838456
36	0xbfc6eecf08a5833d	-0.17916286394304307
37	0x3fccdf55a8a5833d	0.22556563124364884
38	0x3fcfaa6d57f83bb4	0.24738852305787662
39	0x3fc2a77238a58322	0.14573505178398088
40	0x3fb301ca0eb4f992	0.07424605235153184
41	0x3fcea67678a5833d	0.23945504084533722
42	0x3fb21803fd8e7aee	0.07067894878717215
43	0xbfd2b4408c52c1c4	-0.2922517176002908
44	0x3fb03921a14b0689	0.06337175548380904
45	0xbfd023869c52c1ad	-0.2521683241457378
46	0x3fb351ca0eb4f98b	0.07546675547653174
47	0x3fbdfeeb3d4b066e	0.11717100378430143
48	0xbfcdb60098a5833d	-0.23211677030033143
49	0x3fcfd0f618a5833d	0.24856449321216614
50	0xbfc79c9f451528f1	-0.18446722863365708
51	0x3fd32d99068a948a	0.29965806616593993
52	0xbfafe928f454a3e7	-0.06232574446250521
53	0x3f8ae4c9d1528f51	0.013131691647067763
54	0xbfcaccc33d1528f3	-0.20937386019279067
55	0x3fb365634a2a51f2	0.0757658058231028
56	0x3fd0a8e5368a9484	0.2603085549001849
57	0xbfd32d5e868a948a	-0.2996441186790625
58	0xbfa65117d2c21de6	-0.04358744094593785
59	0x3fca0b397d1528f0	0.20346754653502996
60	0x3fb0be1da5d5adfb	0.06540093706797016
61	0xbfa678e43454a3f6	-0.04389107836534116
62	0x3f9ac73ee8a9479e	0.026150687170520485
63	0x3f9e0cfab5af48ee	0.029346387232927755
64	0xbfaca99bcbab5c02	-0.05598151074598691
65	0x3fb265bea5d5adff	0.07186500118921656
66	0x3fd021fc268a947a	0.2520742775325925
67	0xbfd3cbf3f67aac06	-0.30932330198510305
68	0xbfba07b2e22a51ff	-0.10167997380842307
69	0x3fd4b246868a948a	0.32338107241441405
70	0xbfb014c53a2a51f4	-0.06281693143893802
71	0x3fb15bcc65d5ae00	0.06780698286245723
72	0xbf7279865d5ae09c	-0.004510426389679047
73	0x3fb09b53a5d5adfe	0.06487009810160058
74	0x3fa6f754f454a3ef	0.044855742288127824
75	0xbf9d8a13e4b11a38	-0.02884703715633405
76	0x3fd45e196e4b117e	0.31824336787055774
77	0x3faf3c8f0da772d1	0.06100890199352239
78	0xbfa6c0660da772dc	-0.04443663517642957
79	0xbfb93028f92c46a5	-0.09839111407589003
80	0x3fc2fa17e4962341	0.14825724278878208
81	0x3fc2bdb17c96233c	0.14641398032497388
82	0xbfa6d49b72588d36	-0.04459081431221039
83	0x3fd4171e5af0f4ea	0.3139110458467501
84	0x3fd096026e4b1193	0.25915585299323957
85	0x3fa193ac8da772df	0.03432978848625167
86	0xbfd4267a5e4b1180	-0.3148485108215695
87	0xbf9661c91b4ee5ec	-0.02185739735771179
88	0xbfb36af41eee3fc0	-0.07585073237555573
89	0x3fc19502e296234b	0.13735996307175422
90	0xbfd1a9303e4b1187	-0.275951443513144
91	0x3fac975ab2588d39	0.055842241545429556
92	0xbfcb6da116a3c67c	-0.21428311925369659
93	0xbfcef4aa4c962343	-0.24184159030508043
94	0x3fc5b6d31496233b	0.1696418619651697
95	0xbfc95fd7ac962343	-0.1982373802859688
96	0xbfc2fbec18962341	-0.14831305695067878
97	0x3fd38689be4b1182	0.3050865515072233
98	0xbfd26c793e4b118b	-0.2878707035381686
99	0x3fb0eb7f592c469a	0.06609340598176985
100	0x3fcfc6a3a14fe365	0.24824948669972993
101	0xbfc8eb1aa14fe366	-0.1946748054176865
102	0x3fd36ddd80a7f19a	0.3035806423574968
103	0xbfc6fe2fa14fe366	-0.17963214279714207
104	0x3fd2895ca0a7f19e	0.28963390053811533
105	0xbfaf6203253f8d95	-0.061294649407297154
106	0xbfa9b772453f8d98	-0.05022770972552876
107	0x3fbbce7c029fc6d1	0.10861945213380443
108	0xbfc5da39354aaaa3	-0.17072215177662028
109	0xbfc16ecc694fe376	-0.1361938013285699
110	0x3fcb0285714fe365	0.21101444275680162
111	0x3fc59c24994fe35d	0.16882760511341646
112	0x3f8e8c39eb01ca45	0.014915897831291445
113	0xbf8d080b14ad1924	-0.014175497597204663
114	0x3f95abfef580e519	0.021163924917549346
115	0x3fc33c35d14fe366	0.15027497024837116
116	0xbfcc67c9014fe365	-0.2219172722250519
117	0x3fc7834381c698c2	0.18369335018832628
118	0x3fd1133b30a7f19f	0.2667987799793767
119	0x3fa738777ac07236	0.04535268186029777
120	0x3fc7971a314fe368	0.18429877670112238
121	0xbf6fb88bac072806	-0.003872177883953223
122	0xbfcac9d3d14fe365	-0.20928428383174516
123	0x3fc08dba354fe373	0.12932517626884596
124	0xbfd1eb0450a7f19a	-0.2799692905098482
125	0xbfb5f91b0231317a	-0.08583229831237374
126	0x3fc475f2811898a2	0.15984946540374262
127	0xbfc46b665118989f	-0.15952757797021364
128	0x3fcc883eb1189898	0.22290786406774
129	0x3f95eb6af73b3aa0	0.021405860271267785
130	0xbf6cbf7bb9d9d14c	-0.0035092751048130585
131	0x3fcc8e00f1189898	0.22308360836286023
132	0xbfbbc5776631317f	-0.10848184819150751
133	0x3fbdd103b9efcf0b	0.1164705590197707
134	0x3fb8b6a432313179	0.09653688645739135
135	0xbfc60e3b81189896	-0.1723093395568795
136	0xbfd3365f108c4c7a	-0.3001935636140797
137	0x3fd179f2608c4c6a	0.2730680411197627
138	0x3fc8ee4de688b83f	0.1947724700598332
139	0x3fd033fb408c4c61	0.2531726961471517
140	0x3fab70057b9d9d24	0.053589030589870995
141	0x3faca375446262e5	0.05593458614129591
142	0xbfa26fd0713bd40d	-0.03600932485816353
143	0xbfc7f2078118989c	-0.18707364848632302
144	0x3fc7b6332118989c	0.18524779430407967
145	0xbfcbf840f1189899	-0.2185136010386415
146	0xbfba022e9a313182	-0.10159579529244492
147	0x3fc829d28118989b	0.1887763147689768
148	0x3fa2b695fb9d9d36	0.03654926964264364
149	0xbfa446847b9d9d31	-0.03960050591450182
150	0xbfb92a0d654c8478	-0.09829791758649431
151	0x3fb3aaa5d54c847c	0.07682262856953231
152	0xbfa724844a9908f4	-0.04520047579400624
153	0x3fd1a304e1532124	0.2755748939930689
154	0x3faab9b5f566f6e0	0.05219811077721004
155	0x3fbc1dfe9d4c847c	0.10983268108658878
156	0x3fb87137054c846e	0.09547752265327045
157	0xbfc77dedeaa6422d	-0.1835305591344122
158	0x3fc7615c18d7b8c9	0.18265868390103027
159	0x3fd0480791532127	0.2543963355242504
160	0xbfd38a9431532144	-0.30533318344943816
161	0xbfa7656b8a9908f8	-0.04569564883105842
162	0x3fc4d508eaa6423a	0.16275130708210545
163	0x3fc4c2caf44f1af8	0.16219460419798515
164	0x3f5234a153211e26	0.0011111808239706671
165	0xbfa0b6e54a9908f9	-0.03264538322084038
166	0x3fd1b9ad11532126	0.27695776645534165
167	0x3f8898d0e50c1b7a	0.012010223379105279
168	0xbfd2fdad4153213a	-0.29673320178382634
169	0x3fce56b522a6422c	0.23702110473506488
170	0xbfbc923c354c847c	-0.11160637189142791
171	0xbfc91257baa64229	-0.1958722745298627
172	0xbfa9ab76f566f6e6	-0.050136296707462155
173	0xbfccacd122a6422c	-0.2240239543139223
174	0x3fc5b99ebaa64232	0.16972717393629605
175	0x3fd1843a40c11567	0.2736955292096667
176	0xbfb9f998dd045584	-0.1014647998420824
177	0x3fcae11041822ab4	0.20999339293151353
178	0xbfcf8f7ae1822ab3	-0.24656616221576186
179	0x3fd32da2f0c1155e	0.2996604300609159
180	0xbfbd4cb34304558b	-0.11445160280375981
181	0xbfa45525c608ab40	-0.039712124275260496
182	0xbfb3aa213cfbaa82	-0.07681472529263014
183	0xbfb415aa8b1a2640	-0.07845559974716654
184	0xbfbaec8edc845585	-0.10517208942140684
185	0x3f949c9b8c115674	0.020128660606437213
186	0x3fc99337a1822ab6	0.19980521570353965
187	0xbfb315c673045599	-0.07455101306944413
188	0x3fa0df100ca0c48a	0.032951833287719515
189	0xbf9e675d0c11567b	-0.029691175328784496
190	0x3fd05b3b20c11559	0.25556829641967266
191	0xbfce0f30e1822ab3	-0.2348385907283351
192	0x3fcbde83640847bc	0.2177280653418715
193	0x3fc9d3e9a1822ab6	0.2017795599570797
194	0x3fa572d579f754d2	0.04189173806995829
195	0x3fd1c48080c11561	0.2776185281148483
196	0x3f823a7a1822acc8	0.008900598393969963
197	0xbfb1611013045599	-0.06788731064110322
198	0x3fc48f2ad9822abb	0.16061912174730772
199	0xbfa59a200608ab48	-0.04219150613456307
200	0x3fb4431a87a9a55d	0.07914892017438065
201	0x3f799f9d8565aad3	0.0062557366530692935
202	0xbfa191ba70acb55b	-0.0343149435560501
203	0xbfcdb38223d4d28a	-0.23204066037728338
204	0x3fbb7bc5bba9a563	0.10735736686333079
205	0xbf76b0f47a9a5514	-0.00553985118462676
206	0xbfcb9c4543d4d288	-0.21570649921490692
207	0x3fd324ea51ea6954	0.29912813186242215
208	0xbfccc422c974e0d9	-0.22473559223886388
209	0xbfd0b19451ea6956	-0.26083858489586953
210	0x3fc5c355b3d4d291	0.17002364426447916
211	0x3fb2103a1fa9a553	0.07056010506643888
212	0xbfd0c0d0a1ea6957	-0.26176849186017165
213	0xbfadeea2e4603e4b	-0.05846127546112408
214	0xbfcbda4de3d4d287	-0.21759961723877927
215	0x3fc9feb713d4d289	0.20308578937842395
216	0xbfd1f69671ea696b	-0.2806755173166013
217	0x3fbf24c64cdb92a8	0.12165488602074481
218	0x3fd320bf41ea6954	0.2988737243373596
219	0x3fb01e6c38565a9c	0.06296421409056524
220	0x3fcb213973d4d288	0.2119514289457991
221	0xbfb34920b8565a9a	-0.07533459186957217
222	0xbf7bf85a7a9a5529	-0.006828645165702065
223	0xbfa62b4ff0acb562	-0.04329919636652836
224	0xbfce59aea3d4d28a	-0.2371118831594184
225	0xbf95c25958d05068	-0.021249195142516802
226	0xbfc0900634e5f5f6	-0.12939527113842048
227	0x3fd2cdf9ea72fb10	0.29382179160522615
228	0xbfd00c044a72faec	-0.2507334448854823
229	0x3fb67e0e69cbebf6	0.08786096651958517
230	0xbfbb766a01cbebea	-0.1072756056200174
231	0xbfd0de8f6a72fb0d	-0.26358399768280166
232	0x3fa726be5397d7c1	0.04521746416496298
233	0xbfa2ac49b03813e2	-0.036470701943507114
234	0xbfcde4df34e5f5dd	-0.2335471161167523
235	0x3faff3f33397d7b8	0.06240806584166542
236	0x3fb6db9a01cbebf6	0.08928835433827928
237	0x3f9c472058d05087	0.027615075512656986
238	0xbfcc349a368485e5	-0.22035529767985831
239	0xbfce8a31a4e5f5dc	-0.23859234382318462
240	0xbfb2035c1634140d	-0.07036376516414596
241	0xbfd1d49aba72fb07	-0.2786013432304774
242	0x3f953f0531db0c2c	0.020748215835521375
243	0x3fcb70f9d4e5f5de	0.21438525100158662
244	0x3fb429dad6341411	0.07876365403724629
245	0x3fd3487f3a72fb10	0.3012998648445526
246	0x3fc5efcb04e5f5da	0.1713804029385944
247	0x3f97c13d58d0505e	0.023198088212737715
248	0x3fc35ff86ce5f5e4	0.15136628453539835
249	0xbfd021bb3a72faf3	-0.2520587988655471
250	0x3fbea5d76853139b	0.11971803948388386
251	0xbfd39578b054c4f2	-0.3059980127319043
252	0x3fc1fc924ca989dc	0.140520369942421
253	0xbfb5d14231531394	-0.08522428230487683
254	0x3fcfe01920a989b9	0.24902643294178775
255	0xbfacfd06c2a6273c	-0.056617938290470765

rnn.weight_hh_l1 f8 [25, 25]
0	0x3fd3ef515572bb60	0.3114817938284684
1	0x3fd54ed55683e52f	0.33293660591842217
2	0x3fcf5127bc2edeb8	0.24466416061999552
3	0x3fcc92d0cc9c08eb	0.2232304572172049
4	0x3fa3338d9a0c9b27	0.03750269418224255
5	0x3fd7e27f53ab5b5f	0.37319930239521243
6	0x3fb5affe75068363	0.0847167049128195
7	0x3fa2b071a67bd4a8	0.03650241048118491
8	0x3fa0c5ec3560e669	0.03276003028481684
9	0x3f888ddd6952a75a	0.01198933580083732
10	0xbfc382e271ff978e	-0.1524317795403331
11	0x3fd5fe152ac7bfa3	0.34363297631989037
12	0x3fc705569b4ec9a0	0.1798504122103397
13	0xbfa953c2649c7269	-0.049467158109312966
14	0x3fb60f4732cd5348	0.08617062559399102
15	0x3fd38453db7f3898	0.3049516337895368
16	0xbfd49651b68c0ed4	-0.32167475535264356
17	0xbfd46ac6f0d4e3b4	-0.3190171577330674
18	0xbfd69b23d61a4d2e	-0.35321899326773376
19	0x3faed27143a07d6d	0.06019929838680125
20	0x3fc0bb1dc728fa79	0.13071033691990744
21	0x3fb42fb9662518a3	0.07885321372768543
22	0x3f9d994282ccea1f	0.02890495227186751
23	0xbfc35b64c117774b	-0.1512266104536429
24	0xbfca87aa8cbe7fbc	-0.20726520416519445
25	0x3fd6a46c4eb2eb36	0.35378558812560656
26	0x3fcd8c9e30e5cf7c	0.23085381877501365
27	0x3fc56d4f52dc9dca	0.1673983721350239
28	0x3fd05adcdd53618d	0.25554582227552985
29	0xbfbcf10a41bd8142	-0.1130529795168558
30	0x3fcaf6be5f0c586e	0.21065501824404315
31	0x3fd612bb5602afc4	0.34489329719030715
32	0xbfc540abcc87c48a	-0.16603610503037586
33	0xbf8d0aaa12a560c6	-0.014180496877699855
34	0xbfd6431036a7f9a2	-0.3478432210685246
35	0xbfc302cdfd0c4e3a	-0.1485230908952973
36	0x3fd0862851bcdafd	0.25818832380484463
37	0x3fd916d84d615fc2	0.3920193439166689
38	0xbfaa94e3232c9cec	-0.0519171696126309
39	0x3fc27301da64b576	0.14413474239101348
40	0x3fd4bed2b0fcecb1	0.3241469124220187
41	0xbfd01fa3559f3b4b	-0.25193103181384363
42	0xbfc579639e3648ea	-0.16776700234601744
43	0xbfceb1c3e8e838c5	-0.23979996559541497
44	0x3f95c8159009e840	0.021271073261665885
45	0x3fd1dbbda8eb5bd0	0.2790369176486225
46	0x3fa73971aed519ca	0.045360138503884054
47	0xbfd00863e6822cb1	-0.25051209936709556
48	0xbfd35cdf8ace8540	-0.3025435309919722
49	0xbfb1fa0f3ede0609	-0.0702218559727258
50	0x3fc1bb20653faa45	0.1385231489542368
51	0x3fcb9934be1f702b	0.2156129768690119
52	0x3fd73243a94f4218	0.3624428895391545
53	0x3fb25148a093f224	0.07155279083594529
54	0xbfd2ff9438a2e0e3	-0.2968493035400696
55	0x3fd0120574c76baa	0.25109993366430194
56	0x3fd3d51aed1230e6	0.30988190795393533
57	0xbfd2162e9f3e5c78	-0.2826038889992968
58	0xbfd2bab4e9c43eee	-0.2926456721188363
59	0xbfd7b1ee75b1e8a9	-0.37023507589004595
60	0xbfbf84e1d662f0a9	-0.12312137111706768
61	0x3fa1e87665443b4d	0.03497667299426741
62	0x3fcb93e976b1d80e	0.21545141502036852
63	0xbf8d388e6ba01283	-0.014268028888190237
64	0x3fbef622e8d10a05	0.12094324287412668
65	0xbf8c9a2b2b719618	-0.01396592832879677
66	0xbfd5bda7170ea4b9	-0.33970048190765173
67	0xbfd45e6bdc943b12	-0.3182630209056906
68	0xbfd5e817391e4770	-0.34229069307286064
69	0x3fd8db75b14ac7f5	0.3883947593086526
70	0x3f78054b872aaee5	0.00586442473528923
71	0x3fd0d2d635284dc7	0.2628684538951486
72	0xbfc85ce127754a83	-0.19033445765179033
73	0xbfa34e3fc48d18c7	-0.03770636820131439
74	0xbf9197f6cf1fd400	-0.01718125952898575
75	0x3fab77813ff550a9	0.05364612489452842
76	0xbfac36fde1fb2c24	-0.05510705359991899
77	0x3fd26a3b425b976b	0.28773385505916477
78	0x3fc3bc98408f4e9a	0.1541929545625081
79	0xbfa7a3ae67281c71	-0.04617066392170777
80	0x3fc6b0e3621da2b5	0.17727319994744098
81	0x3fd3ba83c32eb37b	0.30825895367416195
82	0x3fae1b4c871377d6	0.05880202435376673
83	0xbfb88113716a005c	-0.09571954268358368
84	0xbfd7e557c4bcec65	-0.37337297642415584
85	0x3f8fdb5738a4f3c9	0.01555507794966528
86	0x3fc6e99e68aaa53c	0.17900447951005016
87	0x3fd84177cc2c40cf	0.37899584711796036
88	0xbfcc0ee0d64b6216	-0.219204048763246
89	0x3fd48dfd6b1b6a7f	0.321166376683017
90	0x3fce2d7872d6960f	0.2357626496060878
91	0xbfadda0d166ea8ba	-0.05830422304946255
92	0xbfd59a355bcc8cc4	-0.33753713574169475
93	0xbfd406d29fac8c3d	-0.31291642754712595
94	0x3fc58b5d6ca95d4c	0.16831558042279438
95	0x3fc3b5d000b736f1	0.153985977506117
96	0x3fd16f83058ef62f	0.27243114035431665
97	0xbfd08f76490be237	-0.2587562287658644
98	0xbfd5c700f8f52708	-0.340271227953608
99	0xbfc02fa0d5cd0ed8	-0.12645349921705562
100	0xbfb40f9763d5db68	-0.07836290538203416
101	0xbfa038465f09ce49	-0.031679343320231874
102	0xbfa31bfe2c16a969	-0.03732294357480976
103	0xbfc31fb14431a8cf	-0.14940467672142296
104	0x3fc615e28007dabf	0.17254287005899546
105	0xbf9ba2e91748dad4	-0.02698864178293088
106	0xbfb28c17632e78b8	-0.07245012446807919
107	0x3fcf7f2c90d05db9	0.24606854506485634
108	0x3fcdd82f9231ab49	0.23315996778850437
109	0x3fd6ea40f6aba967	0.3580477150814176
110	0x3fc8279b4ccb9f21	0.18870869874739873
111	0xbfd7f7309c15bb21	-0.37446227305092533
112	0xbfcf90d3f01aa69d	-0.24660729621728175
113	0x3f9459a1ceb125b2	0.019873169174649603
114	0xbfd59d36227e2e98	-0.3377204262585365
115	0xbfcef845b52f430e	-0.24195166918664096
116	0x3fabc8792691daf1	0.054263864477368424
117	0x3fd5ca3393eae0ae	0.3404663986689326
118	0x3fbc5a872c11f4f2	0.11075634790354963
119	0xbfc56b4272cfafdf	-0.16733580213565255
120	0x3fa46d4054c30592	0.039896021220111724
121	0xbfcbc15b47099c16	-0.21683827370290548
122	0x3fc7a34cd0cec89b	0.18467102237406582
123	0x3fcbf97b58cf6b48	0.21855108105122611
124	0x3fd3a71025a507f8	0.30707172085033063
125	0x3fc685dc35364ffb	0.17596008871316812
126	0x3fd2f82d57b9d3df	0.2963975292871605
127	0x3f934d32d42fca9d	0.01884917659840345
128	0x3fd5104f16e387b1	0.32912041888459515
129	0xbfd13cdec91c539d	-0.26934022559844967
130	0x3fd5e643a5d7bd7d	0.34217921443538285
131	0x3f70fdd522ee54cd	0.004148323597197035
132	0xbfd528764a7736cb	-0.33059460899390264
133	0xbfcf96f711767b2e	-0.24679458954502692
134	0xbfc1b6ced5c62dcf	-0.13839135587873705
135	0xbf9d712b05b08049	-0.028752014372116972
136	0x3fd0656ac39bad83	0.2561900053248893
137	0x3fb93f9896b5da9b	0.09862664870693509
138	0xbf9037bcc548f12c	-0.015837621251408127
139	0x3fd1278dba65afa0	0.26803916170933384
140	0x3fc9bb75123971aa	0.20103324308264564
141	0xbfd4a20e17b14a28	-0.3223910552380027
142	0x3fa1cce9a856b2ff	0.03476648502269163
143	0x3f7affaadb734730	0.006591479693456567
144	0x3fd485f05f8fffe5	0.3206749852397464
145	0x3fd59d50d51f05bd	0.3377267915021454
146	0x3fd28d9d54b1df43	0.2898934676263602
147	0xbfd4c336278d91e7	-0.3244147669086303
148	0x3f9dbe32732a1284	0.029045856741975587
149	0xbfb6b639e1299768	-0.0887180494988492
150	0x3fce97f1cace3bef	0.23901197817437445
151	0x3fd4fb77e6dd70a4	0.3278484110394493
152	0x3fb454e38fb17f85	0.07942030199182966
153	0x3fc06e29ef3533ca	0.12836193256444367
154	0xbfbbdc31d25c3b4e	-0.10882865319966337
155	0x3fc8b1267222bda4	0.1929061944297078
156	0x3fa8ca73f5418a03	0.04841959351394467
157	0xbfb5c1c4d86b7cb6	-0.0849879291886165
158	0xbfd53417e85e3ffe	-0.33130452816203604
159	0xbfcde969f1194fbe	-0.2336857249489394
160	0xbfc66121241cd3f6	-0.1748391558009243
161	0x3fdd562fcde59d4d	0.4583854208671781
162	0x3fd9e2eb614be3ce	0.4044750642929643
163	0x3fa2cd1e37325547	0.03672117637430943
164	0x3fd719e2331e492e	0.36095480911275757
165	0x3fb3521a31442fd5	0.07547153189460627
166	0xbfb37ff673e8abf9	-0.07617130594069
167	0xbfb39c672d112ef4	-0.07660527086516905
168	0x3f9cafe614b2f5f4	0.028014750493403143
169	0x3fc920144fe88b89	0.1962914838960297
170	0x3fc90209994cbbf2	0.19537467942561154
171	0xbf8ac170e2ee2659	-0.013064271855699848
172	0x3f64e7f9fc6b8236	0.0025520212687839784
173	0xbfcdc45629e87a13	-0.23255421682638708
174	0xbfd25d9f052feb2b	-0.28696418291626696
175	0xbfc57c1c3a8411a6	-0.1678500447961941
176	0x3f8b14a91e7b6709	0.013223000757921282
177	0xbfd40b6ac5185e60	-0.3131968426473346
178	0xbfc0895eea8c8e0b	-0.1291922230967518
179	0x3fc12c360f9315ab	0.13416171799160045
180	0xbfd42cdd6044ac39	-0.3152383270377786
181	0xbfcb51529fcf303e	-0.21341927340688643
182	0x3fd32c64856ed900	0.299584513002074
183	0x3fd632f22dc2b341	0.3468594977264737
184	0x3fc88bfadefd074b	0.19177184951882462
185	0x3fd4700786fd84e5	0.3193377321495759
186	0xbfd73ea751d2d011	-0.36319907179427086
187	0xbfc61800b1136fb4	-0.17260750433240235
188	0xbee8b26f6008a38a	-1.1776452994176492e-05
189	0xbfd88fe7118374d8	-0.3837831183462419
190	0x3fa691f4a3fd9b05	0.044082303064717755
191	0x3fc3ba05955d8cc3	0.15411443513139575
192	0xbfaa20d0ba3726a8	-0.05103161118638627
193	0x3fb545bee1b14ebe	0.08309548387597496
194	0xbfccd0af1fa34330	-0.22511853260814396
195	0xbfc9cb8270a585b7	-0.20152311802216413
196	0xbfd2e8c2f9d81d19	-0.2954566421398837
197	0x3f7ac0da661ae23e	0.006531575317858583
198	0xbf9dd5b2a9359818	-0.029135505273551215
199	0x3fca5cb70375e1f9	0.20595443409889905
200	0xbfd33123e26cfde5	-0.2998742781819302
201	0x3fa93e593471828d	0.049303805972845095
202	0xbfbd5bd0ccef0dba	-0.11468224528567009
203	0xbfd1f901bafe2a9f	-0.2808231664754803
204	0xbfa22a5db78b7f7f	-0.03547947755373481
205	0xbf9894439d79239f	-0.024003082739259104
206	0xbfc6c59b1ce79f88	-0.1779054537903415
207	0x3f89ddc5ea1b5a30	0.01263002987563508
208	0x3fd0922323b88240	0.25891951073029773
209	0x3fd2cbe8fd9d09b8	0.2936956860250137
210	0x3fb15098f49a86a3	0.06763606998222342
211	0xbfb323006706315c	-0.07475283160437612
212	0xbfdfafa609773ce2	-0.4950957386435687
213	0x3fc09e83bed48bf0	0.1298374826229458
214	0xbfd64a2e06cbaf01	-0.3482775751460708
215	0xbfd1c225e55f1198	-0.27747485541865435
216	0x3fcb76a3cc8807e4	0.214558100575288
217	0xbf9f9e44c9fa5ce8	-0.03087718470359571
218	0x3fceca0cf0b47dec	0.24054109337974638
219	0xbfd7c2082a38c76a	-0.3712177669832416
220	0xbfbff79dce433be2	-0.12487207685192872
221	0xbfd6a96fdcb10827	-0.3540916114035348
222	0x3fd51d2cb58c7926	0.32990567902915513
223	0x3fd1254e61294d65	0.26790198791896663
224	0xbfa04fb072536124	-0.03185798068597226
225	0xbfc1cb7c0e4856ac	-0.1390223569621204
226	0xbfabd8c433e14093	-0.05438817151355226
227	0xbfb5de5e3e295f4e	-0.08542431848161167
228	0xbfd17eed40a13309	-0.2733719950818317
229	0x3fb5b9a1c551fc8a	0.08486376826657441
230	0xbfd47897771a99f0	-0.31986033087960575
231	0xbfb70cc3cc060800	-0.0900385258774179
232	0x3fcf1f48bb7dad49	0.24314221529798832
233	0x3fc1da96146acbf2	0.13948322293217036
234	0x3f97fffa48a3f507	0.02343741482126396
235	0x3fd3491a1b97fee7	0.30133679098797334
236	0xbfc3ab73be64f543	-0.15366980358695956
237	0xbfdb03932de7cebe	-0.4220931957527049
238	0x3faaf9f43c31a17a	0.05268824801243262
239	0xbfc38adb9422ca2c	-0.1526751015968143
240	0xbfd4282a8075b931	-0.31495153946788707
241	0x3fd1fe896f7049de	0.28116069681814604
242	0x3fb692a010d3de02	0.08817482386427147
243	0xbfa2a32ee04c6a80	-0.036401238327205654
244	0xbfd4d0e123055a61	-0.3252489892960622
245	0xbfc252fc17d21393	-0.14315749323955326
246	0xbfc24ccf80664882	-0.1429690720511339
247	0x3fcae6509fae35db	0.21015365406894557
248	0x3fd2e2a7a2100c20	0.295083912147847
249	0x3fcf984fe7963d40	0.2468356972499155
250	0xbf9e6d11413d6e17	-0.029712934119158953
251	0xbf5b1b89994dfb1e	-0.0016545146692973976
252	0xbfd922ba42602bac	-0.3927446029853694
253	0xbfd245d9c2b36561	-0.2855133439421334
254	0x3fcef5644007acc0	0.24186375738586285
255	0xbfce31198fe4c28a	-0.23587340856603972

rnn.bias_ih_l1 f8 [25]
0	0xbfc2749b11b861bb	-0.14418352475401072
1	0xbfb46b70714b067f	-0.07976439252800026
2	0xbfb4c411aa2a51ee	-0.08111677555491045
3	0xbfc205e07c96233f	-0.14080434878658285
4	0x3fd1dcccd0a7f199	0.279101566091208
5	0xbfb6da6e9a31317b	-0.08927050842721045
6	0xbfd25ba391532133	-0.2868431967913409
7	0x3f9e53a50c11567c	0.029615954267077957
8	0xbf9f148fe1596ac4	-0.03035187542841801
9	0x3f9d506b272faf77	0.028627084986438924
10	0x3f90fea4054c4e96	0.016596377204293043
11	0xbfd236107609f182	-0.28454982306700327
12	0xbfd459182e7519fe	-0.31793789421899976
13	0x3fb408f3bf42d4d9	0.0782615987726162
14	0xbfc0c550d61ebe68	-0.13102159934122715
15	0xbfa54d192ce01217	-0.04160383866113564
16	0x3fa874a26f786932	0.047764850718709076
17	0x3f945649b12882a3	0.01986041206157786
18	0x3fb8f6c4a7eea2a6	0.09751538371950605
19	0x3fb4fd443d3c4ac7	0.08198954100616183
20	0xbfcd676a583ec1e1	-0.2297184878239156
21	0x3faf8db94f7c611a	0.061628142311919556
22	0x3fd571dd45391dc4	0.3350747276312769
23	0x3fb8591dad2469ce	0.09510980107408004
24	0x3fceddabf9174837	0.2411398855461486

rnn.bias_hh_l1 f8 [25]
0	0xbf8d34ad7b861c30	-0.014260630924367218
1	0xbfd37cfe0c52c1c4	-0.30450392917103053
2	0xbfd388db268a9489	-0.30522803081323296
3	0x3fb0981bc6d3b96f	0.06482099155593855
4	0x3fb01ad0029fc6c6	0.06290912689271541
5	0xbfcf70fec1189896	-0.24563583782691428
6	0xbfb686b2954c8471	-0.08799282212250305
7	0x3fd1e43070c11562	0.279552564727359
8	0xbfb6518538565a99	-0.08718140244887208
9	0xbf9dad0958d0509e	-0.028980394407043357
10	0x3fd06de19054c4e4	0.2567066106303868
11	0xbfcbdb7d8c13e2e7	-0.2176358159993221
12	0xbfba9bc7d9d4678a	-0.1039395243464282
13	0x3fc24a6443a16a5b	0.14289525320312432
14	0xbfb16b3adc3d7ca1	-0.06804244877774802
15	0xbfd44ca0c59c023a	-0.3171770028857598
16	0xbfb11e56e843cb4b	-0.0668691937496934
17	0x3fd2571e03128809	0.28656721401250757
18	0x3fc92059bbf75152	0.19629975965529894
19	0x3f81d2dbe9e2563d	0.00870296294696537
20	0x3faee4389f04f8a9	0.06033493939547558
21	0xbfd30174661073ed	-0.29696378676618346
22	0x3fb8488494e476e5	0.0948565352923328
23	0x3fb5fc3e0d2469c9	0.08588016339164208
24	0x3fa67ae8a45d21b1	0.043906469406070577
