model_files/LSTNET/lstnet_model_hor_72_win_35_skip_1.pt (torch, 36780 bytes, 13 tensors)

weight f4 [30, 1, 6, 8]
0.098006174 -0.020108871 -0.039240777 -0.0032594204 0.091163814 -0.035516202 0.06962751 0.011221781
0.06644623 -0.08514272 0.042852104 -0.11111267 -0.055217728 -0.051611736 0.10212195 -0.022649184
-0.081696264 0.081407696 -0.09286071 0.076547265 -0.01082176 -0.10164353 0.060317516 -0.0070566833
0.09350875 -0.11867446 -0.054430403 -0.01669906 0.083393455 -0.0666026 -0.13376719 -0.05845026
-0.074210405 -0.10088323 -0.11411497 0.0457578 -0.10197897 0.09424357 -0.042035647 -0.108109206
0.017149195 -0.02040761 0.058274955 0.0042444915 0.11950946 0.07550417 -0.01533176 0.047932267
-0.019261736 0.024968838 0.12169328 0.019672548 -0.14615943 -0.108498484 -0.13350308 0.006190614
-0.088745974 0.08988247 -0.10966134 0.07024882 -0.11502042 0.15635318 0.098718114 0.050021764
0.06559754 0.0068847216 -0.07750846 -0.14558417 -0.15891998 0.12638552 0.04781367 -0.076876
-0.12705553 0.086154655 -0.14777668 -0.023213483 0.09933569 0.1355257 0.071098804 -0.058919843
0.090360194 -0.1700116 -0.09362117 -0.0038811746 0.08906375 -0.021305649 -0.10989937 0.051783353
-0.14707182 -0.00468503 -0.12675518 0.09121986 -0.11792368 -0.05255627 -0.14078669 -0.17324407
-0.020418303 0.06917494 0.107806705 -0.06291475 -0.0531241 0.09991008 0.057518724 0.08258071
0.09644673 0.03320463 -0.011893128 -0.10883509 0.0133433435 0.030940136 -0.102093376 -0.15418378
-0.063189454 0.02066138 0.031321038 0.10428864 -0.10653939 0.11941605 0.12473335 -0.010670691
0.081421755 0.05754056 0.075168476 0.07517989 0.1535652 -0.040738802 0.11267673 0.10314845
-0.077309065 -0.14872664 -0.0066205747 -0.023274895 -0.016716342 0.089759916 -0.11652794 -0.010520602
0.11184801 -0.13596462 0.011995952 -0.04502528 0.0040234835 -0.008151446 -0.113680996 0.07879941
-0.05564312 -0.12144778 -0.03603857 -0.05473896 0.14186633 0.01758334 -0.05560363 -0.02178207
-0.020000212 -0.0005778223 -0.11072511 0.037917957 -0.14429504 0.048171 -0.03195937 0.0955399
-0.081895255 0.12999177 -0.09593855 -0.014639124 -0.03767433 -0.041725434 -0.08045321 -0.009555608
-0.057440758 -0.016381964 0.033386856 -0.07419457 -0.0032079369 0.019462764 0.10503 -0.109952234
-0.041621245 -0.028792068 -0.097261086 -0.012902513 -0.0037891716 0.06725383 0.056879386 0.029450431
0.13584936 -0.11820385 0.09585413 0.13045815 -0.09926702 -0.1328514 0.058395907 -0.12868829
0.06547317 0.10213849 0.091027394 0.13085328 -0.04690235 0.11614146 0.03509363 0.111181304
0.13715675 0.043970164 0.13916495 0.15052444 -0.059241123 0.12967734 0.184749 -0.007635947
-0.08121051 -0.009142831 -0.041782755 0.089023925 -0.099456124 0.081318386 0.067349136 0.109637246
-0.10442546 0.021038095 -0.10186479 -0.07495698 -0.07990953 0.11884339 0.07269581 -0.041173056
0.18254386 0.092948824 -0.14192528 0.080361165 -0.10897589 0.04593208 0.05627868 -0.019418715
0.014550632 0.1539225 -0.010502761 -0.085265696 -0.16465068 0.2192141 -0.07198662 -0.002026491
-0.07195887 0.07820216 -0.080287725 -0.041993037 -0.010536856 -0.021472594 0.124573804 0.0133993095
0.13264705 0.09558511 -0.0054464256 -0.026563894 -0.10341595 -0.12938835 0.04636284 0.009712532
00000000: 76b7 c83d 5cbb a4bc f0ba 20bd 009c 55bb
00000010: 18b4 ba3d 7079 11bd de98 8e3d 90db 373c
00000020: f614 883d 4e5f aebd b085 2f3d 0a8f e3bd
00000030: fc2b 62bd d466 53bd 5025 d13d c88a b9bc
00000040: 5f50 a7bd 14b9 a63d c22d bebd d0c4 9c3d
00000050: c04d 31bc 7c2a d0bd 800f 773d c03b e7bb
00000060: 8481 bf3d 980b f3bd 6af2 5ebd 78cc 88bc
00000070: 30ca aa3d f266 88bd 44fa 08be 8a69 6fbd
00000080: a0fb 97bd de9b cebd 1cb5 e9bd 886c 3b3d
00000090: 5ada d0bd c602 c13d 922d 2cbd 5c68 ddbd
000000a0: 787c 8c3c dc2d a7bc b8b1 6e3d 6015 8b3b
000000b0: 60c1 f43d eea1 9a3d 1032 7bbc a054 443d
000000c0: caca 9dbc 738b cc3c 543a f93d 5328 a13c
000000d0: d1aa 15be 7434 debd 08b5 08be a2da ca3b
000000e0: 73c0 b5bd 4d14 b83d 2096 e0bd 9dde 8f3d
000000f0: d38f ebbd 0c1b 203e b92c ca3d 9fe3 4c3d
00000100: 0158 863d 3b99 e13b c1bc 9ebd 0414 15be
00000110: ebbb 22be 356b 013e 44d8 433d 2a71 9dbd
00000120: d81a 02be da71 b03d c552 17be 342a bebc
00000130: 8370 cb3d 40c7 0a3e 409c 913d ef55 71bd
00000140: c40e b93d 8517 2ebe 75bc bfbd 4e5b 7ebb
00000150: 0e67 b63d 2f89 aebc ec12 e1bd c81a 543d
00000160: ff99 16be e184 99bb 1ccc 01be 7ad1 ba3d
00000170: f881 f1bd 3e45 57bd 632a 10be e566 31be
00000180: 4944 a7bc 97ab 8d3d c3c9 dc3d 73d9 80bd
00000190: a898 59bd a89d cc3d c198 6b3d 1320 a93d
000001a0: dd85 c53d 9401 083d 65db 42bc efe4 debd
000001b0: 0a9e 5a3c 2b76 fd3c 5516 d1bd 5ae2 1dbe
000001c0: 7969 81bd 0e42 a93c 7d4a 003d 4895 d53d
000001d0: 5331 dabd 6790 f43d 3374 ff3d 1fd4 2ebc
000001e0: 73c0 a63d a6af 6b3d eef1 993d eaf7 993d
000001f0: 3240 1d3e bbdd 26bd 0fc3 e63d 7f3f d33d
00000200: 3754 9ebd cc4b 18be 68f1 d8bb feaa bebc
00000210: b6f0 88bc 0cd4 b73d 33a6 eebd 9a5e 2cbc
00000220: 9210 e53d 4f3a 0bbe ab8a 443c 6e6c 38bd
00000230: 6dd7 833b a48d 05bc 95d1 e8bd 9661 a13d
00000240: 0aea 63bd 9db9 f8bd 2e9d 13bd f635 60bd
00000250: 6845 113e f00a 903c a2c0 63bd 5070 b2bc
00000260: 7cd7 a3bc 0079 17ba d9c3 e2bd dc4f 1b3d
00000270: 14c2 13be f44e 453d d4e7 02bd 6caa c33d
00000280: b3b8 a7bd 901c 053e 6e7b c4bd f0d8 6fbc
00000290: 6650 1abd 4ae8 2abd a7c4 a4bd 208f 1cbc
000002a0: 0047 6bbd 7833 86bc a8c0 083d 53f3 97bd
000002b0: 403c 52bb 6070 9f3c f819 d73d a32e e1bd
000002c0: 0a7b 2abd 58dd ebbc d230 c7bd 1065 53bc
000002d0: c053 78bb 60bc 893d 5cfa 683d 0842 f13c
000002e0: 181c 0b3e dc14 f2bd 2c4f c43d d296 053e
000002f0: 824c cbbd 330a 08be 8c30 6f3d ddc6 03be
00000300: cc16 863d fc2d d13d 926c ba3d 67fe 053e
00000310: ae1c 40bd 93db ed3d 57be 0f3d 06b3 e33d
00000320: d272 0c3e 0f1a 343d 4281 0e3e 1423 1a3e
00000330: d2a6 72bd 23ca 043e d82e 3d3e f736 fabb
00000340: b251 a6bd d0cb 15bc 6524 2bbd 2d52 b63d
00000350: a7af cbbd 418a a63d 58ee 893d 7e89 e03d
00000360: 04dd d5bd 1558 ac3c 7d9e d0bd 0c83 99bd
00000370: 9ca7 a3bd 2a64 f33d 8ae1 943d 14a5 28bd
00000380: c7ec 3a3e f45b be3d dc54 11be 6594 a43d
00000390: c02e dfbd 4723 3c3d 7984 663d ff13 9fbc
000003a0: c665 6e3c dc9d 1d3e c613 2cbc c89f aebd
000003b0: 309a 28be a979 603e b96d 93bd e1ce 04bb
000003c0: 2c5f 93bd 7428 a03d e46d a4bd e400 2cbd
000003d0: c7a2 2cbc 4be7 afbc 8d20 ff3d c788 5b3c
000003e0: a1d4 073e 20c2 c33d ee77 b2bb 869c d9bc
000003f0: becb d3bd 617e 04be f6e6 3d3d 5021 1f3c

bias f4 [30]
-0.047190934 -0.12576427 -0.13904107 0.090393394 0.0122419065 -0.026110461 -0.1385228 -0.046056062
0.029057821 -0.019180909 0.1270783 0.1155461 0.114985585 -0.12672228 -0.022200838 0.07072947
0.12465114 -0.0041548014 -0.08215256 -0.0106021045 -0.027348284 0.13440898 0.0048566037 -0.037267927
-0.032701597 0.045643114 -0.0876113 -0.104919925 0.114385925 -0.10501206
00000000: 484b 41bd 59c8 00be c860 0ebe 2c20 b93d
00000010: 4792 483c 9be5 d5bc ecd8 0dbe 48a5 3cbd
00000020: ab0a ee3c 4821 9dbc d020 023e 6fa3 ec3d
00000030: 907d eb3d 7cc3 01be 88de b5bc 9dda 903d
00000040: 1949 ff3d 0025 88bb 9a3f a8bd 73b4 2dbc
00000050: 8209 e0bc 82a2 093e 2524 9f3b 41a6 18bd
00000060: 1cf2 05bd 46f4 3a3d 8e6d b3bd 42e0 d6bd
00000070: 2b43 ea3d 9010 d7bd

weight_ih_l0 f4 [90, 30]
0.084028184 -0.13314402 -0.14785147 -0.047098532 -0.073770314 0.055476427 -0.08717211 0.061944015
-0.06410958 -0.06105578 -0.1817016 0.08366338 0.020835504 -0.0045887977 0.13790074 0.10804672
-0.19089054 -0.066928826 0.12132947 0.005749683 0.16065957 0.09108278 0.065217026 -0.06579824
0.09246194 -0.096755095 -0.12991968 0.08278342 -0.049955733 -0.021615967 -0.033458948 -0.178552
-0.1087801 -0.15486377 -0.15119231 0.031967953 0.1789549 0.15559097 -0.008934408 -0.13489148
-0.06137444 -0.1516734 0.086180836 0.17988068 -0.05385211 0.10833504 0.18035236 -0.121523954
0.13793871 -0.13345101 -0.16975635 0.07834265 -0.03939639 -0.069731355 -0.05996324 -0.110559314
0.1419194 0.03158082 -0.14732012 -0.002980128 0.04395458 0.105986945 0.12964931 -0.12579694
0.032219786 0.017677644 -0.016862422 0.072816156 -0.07006586 -0.14228435 0.006377468 -0.16725895
-0.1628694 0.01179564 -0.007651329 -0.030937409 -0.1745196 0.08154118 0.13343194 -0.026712272
-0.061947823 0.06882626 0.15279262 0.0043535363 -0.007163599 0.0020261747 -0.011017714 0.05572223
-0.10329814 0.10672301 -0.17620559 -0.08203873 0.11763881 0.039558545 0.060591135 0.12180448
0.03769499 -0.089476846 -0.16510905 0.052951753 -0.14434612 0.12166412 -0.12911153 0.09279275
0.041142315 0.0072652157 0.128524 -0.1799728 0.1710496 0.06980579 0.16025144 -0.044265613
0.0036811458 -0.043613005 -0.086737715 -0.069236435 -0.0040663467 0.1439729 -0.022584153 -0.023422316
-0.05864037 0.16194294 0.123818286 0.14742786 -0.15849106 -0.10368419 -0.13474278 -0.08621257
-0.010365814 0.17270017 0.12616718 0.05501754 -0.0814401 -0.07661033 -0.15684535 -0.16176262
0.16858631 -0.1287216 -0.078417085 -0.13682215 0.14042044 0.11074811 0.032962244 -0.12692472
0.05483365 -0.10425909 -0.11224898 -0.18316062 -0.08070552 0.002690509 -0.06318041 0.0028408284
-0.0419738 0.025306523 0.10661043 0.059740648 -0.13665152 0.1545787 0.049298316 -0.09312115
0.06379969 -0.15234691 0.033727705 -0.1045835 0.09427652 -0.06330045 0.0127506135 -0.08585007
0.18663244 0.026139963 0.076257676 -0.014763176 0.036925416 -0.08662022 -0.06989993 -0.050005537
0.05940339 -0.028671477 0.16822627 -0.14707632 0.1567499 0.00018288195 -0.05779528 -0.10941038
0.096732765 0.0012229681 -0.11557777 0.17279404 0.06637083 0.043408826 -0.06774535 -0.05480422
0.14020047 -0.05062245 0.1577915 0.08585796 0.013217926 -0.10991534 -0.0054976195 0.098569036
0.14195424 -0.15085544 -0.17095573 0.037116066 -0.17267469 0.17257667 0.14176303 -0.15968622
-0.026824057 0.10433352 0.060753852 0.1548734 -0.13604975 0.14680499 0.16540557 -0.028415518
0.057965457 -0.03484816 0.053622857 0.0056168884 0.033179466 -0.17365268 -0.05736573 -0.024591401
-0.054129153 0.11936171 0.12129334 0.0031760782 0.14306776 -0.0021594665 0.004835877 -0.14375238
-0.060522858 0.039595492 0.08983126 0.04185849 -0.052628487 -0.054530133 -0.045789868 -0.055736214
0.13064247 0.16434573 0.09439295 -0.11324348 0.084623806 -0.09638401 -0.07550556 0.15991856
0.008232713 -0.1675191 -0.16374572 -0.17586114 -0.021663576 0.075944275 0.0771099 -0.050809782
00000000: f816 ac3d e856 08be 6066 17be 64ea 40bd
00000010: e414 97bd 403b 633d 4b87 b2bd 02b9 7d3d
00000020: e24b 83bd a015 7abd fc0f 3abe b557 ab3d
00000030: 38af aa3c a05d 96bb da35 0d3e 9947 dd3d
00000040: cf78 43be fb11 89bd 967b f83d d667 bc3b
00000050: f183 243e 9c89 ba3d 8190 853d 3ac1 86bd
00000060: b05c bd3d 8927 c6bd aa09 05be 5b8a a93d
00000070: 629e 4cbd f813 b1bc 400c 09bd 56d6 36be
00000080: 1ac8 debd 9c94 1ebe 28d2 1abe d4f0 023d
00000090: f43f 373e 3d53 1f3e a061 12bc fe20 0abe
000000a0: c463 7bbd 4650 1bbe 947f b03d a432 383e
000000b0: 0894 5cbd c3de dd3d 4aae 383e 8de1 f8bd
000000c0: ce3f 0d3e 62a7 08be 9cd4 2dbe 1c72 a03d
000000d0: 1c5e 21bd 50cf 8ebd 049c 75bd ec6c e2bd
000000e0: 5253 113e e45a 013d 16db 16be 404e 43bb
000000f0: b809 343d af0f d93d cac2 043e ead0 00be
00000100: e5f8 033d b5d0 903c 1023 8abc a320 953d
00000110: b17e 8fbd fdb2 11be 14fa d03b ee45 2bbe
00000120: 3cc7 26be 8042 413c 00b8 fabb 7370 fdbc
00000130: 44b5 32be 10ff a63d 62a2 083e b2d3 dabc
00000140: 00bd 7dbd c8f4 8c3d ab75 1c3e 1ca8 8e3b
00000150: a0bc eabb 92c9 043b a483 34bc fe3c 643d
00000160: fa8d d3bd 9891 da3d 3d6f 34be ec03 a8bd
00000170: 9eec f03d 2408 223d 692e 783d a174 f93d
00000180: 1066 1a3d a33f b7bd 5912 29be f0e3 583d
00000190: 78cf 13be 0a2b f93d d035 04be 200a be3d
000001a0: d884 283d 0c11 ee3b cc9b 033e ca4a 38be
000001b0: a027 2f3e 57f6 8e3d f418 243e dc4f 35bd
000001c0: 613f 713b 8da3 32bd 8ba3 b1bd d5cb 8dbd
000001d0: fd3e 85bb a26d 133e 6702 b9bc 28e0 bfbc
000001e0: e230 70bd 5fd4 253e 7194 fd3d 54f7 163e
000001f0: 7b4b 22be 6058 d4bd 03fa 09be 3790 b0bd
00000200: 60d5 29bc 50d8 303e f831 013e 125a 613d
00000210: 11ca a6bd e0e5 9cbd 119c 20be 1aa5 25be
00000220: e4a1 2c3e 98cf 03be 2399 a0bd 1b1b 0cbe
00000230: 60ca 0f3e e8cf e23d 6b03 073d 8ef8 01be
00000240: 4099 603d ca85 d5bd cbe2 e5bd 758e 3bbe
00000250: f048 a5bd 4053 303b bb64 81bd 312d 3a3b
00000260: b8ec 2bbd a04f cf3c 9256 da3d 9cb2 743d
00000270: 60ee 0bbe e149 1e3e 08ed 493d 4db6 bebd
00000280: 69a9 823d d400 1cbe 1026 0a3d e02f d6bd
00000290: 0c14 c13d aba3 81bd f3e7 503c 29d2 afbd
000002a0: 931c 3f3e 7a23 d63c fc2c 9c3d 40e1 71bc
000002b0: 1b3f 173d f165 b1bd b227 8fbd 9bd2 4cbd
000002c0: f850 733d 72e0 eabc 8243 2c3e 2d9b 16be
000002d0: 0c83 203e 00c4 3f39 beba 6cbd 8d12 e0bd
000002e0: d41b c63d 004c a03a 0ab4 ecbd ecf0 303e
000002f0: 6eed 873d 74cd 313d 13be 8abd 647a 60bd
00000300: b690 0f3e 7c59 4fbd 1894 213e 4cd6 af3d
00000310: 0090 583c 4b1b e1bd 6025 b4bb 90de c93d
00000320: 745c 113e d979 1abe 050f 2fbe 0407 183d
00000330: a2d1 30be f0b7 303e 542a 113e c984 23be
00000340: 20be dbbc d0ac d53d 08d9 783d 2297 1e3e
00000350: a050 0bbe 0c54 163e 1460 293e a9c7 e8bc
00000360: 306d 6d3d f2bc 0ebd a4a3 5b3d e00d b83b
00000370: 31e7 073d 02d2 31be 54f8 6abd e873 c9bc
00000380: 88b6 5dbd ea73 f43d a568 f83d c025 503b
00000390: 5b80 123e d685 0dbb 4776 9e3b d333 13be
000003a0: d1e6 77bd e22e 223d 74f9 b73d cf73 2b3d
000003b0: f890 57bd fd5a 5fbd 288e 3bbd a84b 64bd
000003c0: 24c7 053e 3f4a 283e 1751 c13d 33ec e7bd
000003d0: 3f4f ad3d fb64 c5bd a9a2 9abd b1c1 233e
000003e0: 80e2 063c 208a 2bbe f5ac 27be f114 34be
000003f0: d077 b1bc ac88 9b3d cceb 9d3d eb1d 50bd

weight_hh_l0 f4 [90, 30]
0.022039073 0.021296198 0.14677656 0.16433458 0.22672503 -0.14635737 -0.14062051 -0.08386057
-0.10941182 -0.15144105 0.06692455 0.044849202 -0.17275725 0.1934123 0.060469735 0.10466354
0.15181829 -0.15860334 -0.05132469 -0.04608743 -0.11228741 -0.13428558 0.11696938 -0.040936586
0.082143076 0.022303447 -0.06862382 0.110082015 0.043340027 0.08570065 0.11864621 0.15023193
0.037031937 -0.12667473 0.09351444 0.16202964 0.0944079 0.07073252 -0.15189594 0.16096783
0.18101415 -0.016217275 0.076189816 -0.06066517 -0.105869845 0.013319917 0.14606847 0.12807642
-0.09908069 -0.055778243 0.035594873 -0.12512511 -0.10030073 -0.078799166 0.06314538 0.025583968
0.15421242 0.008103678 0.13932541 -0.19552685 -0.21578039 -0.21819839 -0.18470035 -0.12956476
0.12646586 -0.19198655 0.14506494 0.13504274 0.033612628 -0.007900076 0.001047701 -0.0587532
0.063702784 0.12515615 -0.087804094 -0.102795854 0.123121805 -0.012359379 0.016401496 0.10184719
-0.03839724 0.044151586 -0.11187322 -0.07793333 0.074377246 -0.076046094 0.17986691 -0.09801514
0.064837605 0.009656178 0.07976905 0.09361673 -0.14968023 0.061698776 -0.09776902 0.0033877073
-0.13983516 -0.14777361 -0.061371394 0.060424324 0.15419248 -0.14376602 0.16077021 0.040448107
0.10396316 -0.14613813 -0.06943347 0.06226139 -0.19657372 -0.041231174 -0.1911394 0.16668323
-0.05654781 -0.14319548 -0.16875407 -0.04384243 0.1494945 -0.0880926 0.10126335 0.09490343
-0.02219821 -0.1641119 0.005680546 -0.036531866 -0.15048039 0.050949786 0.16341782 0.021885997
0.11360971 0.1440284 0.13720968 -0.10522414 0.008623321 -0.17773546 -0.0055887946 0.117146075
0.17541493 0.001259544 -0.086772375 -0.036606114 -0.1606581 0.047857996 -0.042073213 -0.019876366
0.17375678 -0.1069685 -0.17358601 -0.09413155 -0.082250886 0.109977566 0.04108505 -0.044644743
-0.16068137 0.07173367 0.047717005 -0.0010409658 0.18002494 0.038808826 0.028391616 0.13086109
0.09976023 0.14067979 0.0812365 0.12829839 0.09050195 -0.12765394 -0.10130321 -0.17575261
-0.061142825 0.115708426 0.07785374 0.17299151 -0.018663857 0.13757236 -0.032780483 -0.16270304
-0.08666641 0.07332184 0.122325845 -0.013529292 0.08309487 0.066729456 -0.001468167 -0.11978226
0.16278258 -0.13384728 -0.10590989 -0.16306593 -0.087818965 -0.08510066 0.052281056 0.063473776
0.09610815 0.07583082 0.023376234 -0.119112715 -0.05902338 0.10819656 -0.12828735 -0.0123879295
-0.15006964 0.00544278 -0.039995793 -0.04362458 0.010569034 0.07996695 0.008349823 -0.008063241
0.03440945 0.013340659 -0.11868037 0.10552888 0.18646032 0.18422343 0.03661419 0.0066360584
0.062276408 -0.029507028 0.10123738 0.09909213 0.14218071 -0.09036078 0.23979849 -0.12823872
-0.024563672 -0.06080004 -0.019649897 0.112924695 0.12675235 0.11224945 -0.03444018 0.050438765
-0.11177467 0.17460641 0.009562258 -0.12056962 -0.117094174 0.087198146 -0.07433713 -0.058552936
0.16141252 0.13274266 0.087665826 -0.1437638 -0.056657743 -0.16413371 -0.1006947 -0.084393695
-0.17521946 -0.105167285 0.00056673755 -0.10681505 -0.034590133 0.10868779 0.115292594 0.19140358
00000000: 498b b43c 5d75 ae3c 984c 163e 5347 283e
00000010: 9b2a 683e b5de 15be d3fe 0fbe 17bf abbd
00000020: 4e13 e0bd 5d13 1bbe bd0f 893d ccb3 373d
00000030: 47e7 30be e00d 463e 1daf 773d d759 d63d
00000040: 4176 1b3e ea68 22be d739 52bd 2cc6 3cbd
00000050: f1f6 e5bd 2982 09be a48d ef3d 1fad 27bd
00000060: a13a a83d b8b5 b63c a58a 8cbd ae72 e13d
00000070: 5085 313d d383 af3d c9fc f23d 66d6 193e
00000080: cdae 173d 05b7 01be 8084 bf3d 19eb 253e
00000090: ee58 c13d 36dc 903d 9c8a 1bbe c0d4 243e
000000a0: c65b 393e 17da 84bc 6809 9c3d 0b7c 78bd
000000b0: 4ad2 d8bd c83b 5a3c f992 153e 7726 033e
000000c0: d1ea cabd ba77 64bd eecb 113d cc20 00be
000000d0: 786a cdbd 7561 a1bd 5d52 813d 7895 d13c
000000e0: dce9 1d3e 4ac5 043c 52ab 0e3e 3138 48be
000000f0: 89f5 5cbe 666f 5fbe 1722 3dbe a0ac 04be
00000100: 4480 013e 1f98 44be e78b 143e a548 0a3e
00000110: 65ad 093d 526f 01bc 0353 893a 32a7 70bd
00000120: 9b76 823d ef28 003e a2d2 b3bd a286 d2bd
00000130: 4927 fc3d fe7e 4abc 6e5c 863c 4295 d03d
00000140: 6d46 1dbd 4bd8 343d c91d e5bd 829b 9fbd
00000150: 1953 983d 0ebe 9bbd 082f 383e 29bc c8bd
00000160: 94c9 843d f234 1e3c f55d a33d 21ba bf3d
00000170: c645 19be dbb7 7c3d 203b c8bd 4c04 5e3b
00000180: f330 0fbe f751 17be 9260 7bbd 7f7f 773d
00000190: a2e4 1d3e 6637 13be f2a0 243e eaac 253d
000001a0: a3ea d43d 3ca5 15be 2333 8ebd cd05 7f3d
000001b0: 9f4a 49be 05e2 28bd 0cba 43be 02af 2a3e
000001c0: ad9e 67bd d6a1 12be decd 2cbe 1f94 33bd
000001d0: 1615 193e e569 b4bd 2963 cf3d bb5c c23d
000001e0: 05d9 b5bc f30c 28be e023 ba3b 70a2 15bd
000001f0: 8817 1abe b9b0 503d 0057 273e 434a b33c
00000200: 35ac e83d 2e7c 133e b280 0c3e c17f d7bd
00000210: d448 0d3c 4900 36be 3522 b7bb 48ea ef3d
00000220: f99f 333e 4917 a53a b7b5 b1bd 4bf0 15bd
00000230: 8f83 24be bf06 443d f654 2cbd c3d3 a2bc
00000240: 4ced 313e 4d12 dbbd 88c0 31be 0bc8 c0bd
00000250: 2773 a8bd eb3b e13d cc48 283d 68dd 36bd
00000260: a889 24be 1ae9 923d e872 433d 0471 88ba
00000270: 7558 383e 01f6 1e3d 8995 e83c 7300 063e
00000280: 174f cc3d 5d0e 103e 525f a63d a760 033e
00000290: 1659 b93d b7b7 02be 0f78 cfbd 7ef8 33be
000002a0: e670 7abd 8af8 ec3d c871 9f3d b024 313e
000002b0: f2e4 98bc c5df 0c3e d444 06bd a09b 26be
000002c0: 297e b1bd c329 963d f985 fa3d f7a9 5dbc
000002d0: a52d aa3d 74a9 883d 836f c0ba 6750 f5bd
000002e0: 7ab0 263e 430f 09be 49e7 d8bd c1fa 26be
000002f0: 6eda b3bd 4149 aebd a924 563d 8afe 813d
00000300: 5ad4 c43d 304d 9b3d 847f bf3c 5ef1 f3bd
00000310: 80c2 71bd 2896 dd3d c25d 03be bef6 4abc
00000320: dbab 19be 5959 b23b a1d2 23bd b0af 32bd
00000330: be29 2d3c b6c5 a33d b2cd 083c af1b 04bc
00000340: ecf0 0c3d c892 5a3c b20e f3bd 871f d83d
00000350: 74ef 3e3e 11a5 3c3e c3f8 153d 4b73 d93b
00000360: 8c15 7f3d b9b8 f1bc 8b55 cf3d d1f0 ca3d
00000370: d297 113e 130f b9bd bc8d 753e 0351 03be
00000380: c139 c9bc 7609 79bd d2f8 a0bc 1045 e73d
00000390: 5ecb 013e 0ae3 e53d 2511 0dbd e198 4e3d
000003a0: 1eea e4bd 06cc 323e 04ab 1c3c 34ed f6bd
000003b0: 12cf efbd f194 b23d 113e 98bd 34d5 6fbd
000003c0: 5349 253e b1ed 073e 248a b33d d136 13be
000003d0: f311 68bd ab12 28be 0639 cebd 9ad6 acbd
000003e0: bb6c 33be f261 d7bd 1d91 143a d9c1 dabd
000003f0: 62ae 0dbd b497 de3d 861e ec3d 4dff 433e

bias_ih_l0 f4 [90]
-0.04079447 -0.13225637 0.10396065 0.17499955 -0.063788734 -0.0059754965 0.05608301 0.08270693
-0.14970441 0.12516333 0.136475 -0.013430627 0.1620678 0.16287018 0.12984988 0.12859479
-0.050034 -0.038831733 0.1328551 0.00864142 0.15845153 -0.06882493 -0.0075050252 0.07462296
-0.107199 0.08577652 -0.1430378 0.07974852 -0.027145734 0.023338623 -0.005090067 0.0821937
-0.069382265 -0.14542651 0.030989427 0.107589975 -0.060115367 -0.17678452 0.14411724 -0.03009775
-0.14172411 0.04994532 0.0028074677 -0.015849035 -0.07751914 -0.11373892 0.05286585 -0.10676526
0.10099696 0.06689964 0.14012116 -0.078004666 -0.15964794 -0.13848932 0.122082084 0.0949695
-0.16595972 0.17817196 -0.12817185 0.21848126 -0.035698857 -0.098479085 0.007118002 -0.08967135
-0.13055481 0.00022593998 -0.13587672 -0.12437778 -0.004313311 -0.1251011 0.13439034 0.02040453
0.081410155 0.16888112 -0.018681908 -0.04766604 -0.032978144 0.019142428 -0.10331197 0.10412678
0.18893728 0.0665449 0.0691759 0.24138828 -0.053916093 -0.13129131 -0.08834157 -0.13469008
-0.06061137 0.11064677
00000000: 1a18 27bd 376e 07be 52e9 d43d 1533 333e
00000010: aba3 82bd 19ce c3bb 4cb7 653d 4062 a93d
00000020: 1d4c 19be d12a 003e 1ac0 0b3e 220c 5cbc
00000030: 1af5 253e 71c7 263e 5ef7 043e 5aae 033e
00000040: 74f0 4cbd 060e 1fbd 2b0b 083e be94 0d3c
00000050: 1e41 223e 16f4 8cbd b7ec f5bb ecd3 983d
00000060: 268b dbbd 9aab af3d 8078 12be 3153 a33d
00000070: bb60 debc a430 bf3c 94ca a6bb 2c55 a83d
00000080: 4a18 8ebd b0ea 14be 8add fd3c 2258 dc3d
00000090: 883b 76bd 0007 35be 7893 133e 8e8f f6bc
000000a0: 2020 11be 7793 4c3d 7efd 373b d6d5 81bc
000000b0: 5bc2 9ebd f3ef e8bd dd89 583d bfa7 dabd
000000c0: 7fd7 ce3d ae02 893d ec7b 0f3e e9c0 9fbd
000000d0: c07a 23be 25d0 0dbe 2c06 fa3d 5f7f c23d
000000e0: 58f1 29be b672 363e 7b3f 03be 8db9 5f3e
000000f0: f738 12bd 67af c9bd 213e e93b 9da5 b7bd
00000100: 29b0 05be 4dea 6c39 4423 0bbe c7b9 febd
00000110: ad56 8dbb 811a 00be 9f9d 093e 6727 a73c
00000120: 5eba a63d 2cef 2c3e cd0a 99bc 773d 43bd
00000130: 1714 07bd 95d0 9c3c 3a95 d3bd 6c40 d53d
00000140: c678 413e b148 883d 18ac 8d3d 7d2e 773e
00000150: 1fd7 5cbd 3b71 06be 6dec b4bd 32ec 09be
00000160: a143 78bd c69a e23d

bias_hh_l0 f4 [90]
-0.023490757 0.18132491 0.012205954 0.08535256 -0.014054237 -0.060342982 0.11553268 0.16491835
0.023631606 0.03844222 -0.06968042 -0.117778294 -0.17503034 -0.05796862 -0.16706906 -0.07991343
-0.13156962 -0.13351975 -0.00441092 0.064515576 -0.1095554 -0.07527974 -0.08007478 -0.14989898
0.1308591 0.15646954 -0.09793236 0.16820137 -0.1003663 0.12911046 0.22381243 0.020995812
-0.124456085 -0.011980569 0.03743142 -0.034576323 -0.026689313 -0.21766552 -0.0014336786 0.1874638
-0.1480384 0.09852101 -0.15890269 0.22289145 -0.063829556 -0.13636577 0.16589956 0.16087227
0.25286493 -0.005050509 -0.0039247707 0.08884576 0.11760268 -0.18542664 -0.13636783 -0.084656246
0.19227572 0.101473354 -0.06916509 -0.06404629 0.14133608 -0.040355034 0.044711594 -0.115384005
0.19436876 -0.0045421897 0.037249804 0.082414 -0.059032448 0.13212547 -0.14494193 -0.046638634
0.118811816 0.07086019 -0.10847861 -0.1619522 0.09284565 -0.07781909 0.08369766 -0.008683803
0.15051858 0.14456646 -0.046495415 0.120036505 0.19120787 0.039118078 -0.09048818 -0.20686404
-0.098595805 0.0024269018
00000000: b06f c0bc 3dad 393e 7bfb 473c 53cd ae3d
00000010: be43 66bc 342a 77bd 669c ec3d 5be0 283e
00000020: 1297 c13c 9775 1d3d 9cb4 8ebd bf35 f1bd
00000030: 273b 33be 8170 6dbd 2714 2bbe a7a9 a3bd
00000040: 30ba 06be 67b9 08be 7b89 90bb be20 843d
00000050: 955e e0bd 442c 9abd 3ffe a3bd 1e7f 19be
00000060: eeff 053e 8d39 203e c390 c8bd fb3c 2c3e
00000070: d98c cdbd 8835 043e 162f 653e 69ff ab3c
00000080: d5e2 febd 264a 44bc b051 193d e79f 0dbd
00000090: 8ca3 dabc b6e3 5ebe 45ea bbba 83f6 3f3e
000000a0: 6197 17be 62c5 c93d 63b7 22be a83d 643e
000000b0: 12b9 82bd 78a3 0bbe 93e1 293e b3bb 243e
000000c0: 8377 813e bd7e a5bb 5d9b 80bb c4f4 b53d
000000d0: add9 f03d 7be0 3dbe 02a4 0bbe 4160 adbd
000000e0: ede3 443e 43d1 cf3d 6da6 8dbd b42a 83bd
000000f0: 68ba 103e 524b 25bd 8123 373d 734e ecbd
00000100: 9b08 473e a6d6 94bb 4093 183d acc8 a83d
00000110: 02cc 71bd e64b 073e a86b 14be 2708 3fbd
00000120: 9c53 f33d 261f 913d 092a debd ccd6 25be
00000130: dc25 be3d 9d5f 9fbd ae69 ab3d 8246 0ebc
00000140: 8b21 1a3e 3b09 143e fa71 3ebd b3d5 f53d
00000150: ffcb 433e 473a 203d de51 b9bd 2bd4 53be
00000160: 99ec c9bd a80c 1f3b

weight_ih_l0 f4 [3, 30]
-0.31412184 -0.5803798 0.8481684 -0.969519 0.80965185 0.68330085 0.8618405 -0.2844683
0.81954503 0.742216 -0.5141 0.47222853 -0.8142632 0.18941689 -0.27631354 0.35169888
0.6519669 -0.72928655 0.8961829 0.21176116 -0.25032872 0.8690288 0.5820804 -0.6210327
0.98215735 -0.6769651 0.9313568 -0.6624613 0.8787198 -0.9377682 -0.3797909 0.61591065
0.5741723 -0.9852332 0.21266472 0.98173827 -0.585268 -0.19604366 -0.37930226 -0.059098125
0.11840822 0.3626166 -0.6271701 0.43973637 0.050471425 0.6146225 0.66330117 0.15814817
0.42381713 -0.67936105 -0.25894064 -0.18095493 -0.40790263 0.44325742 -0.8571558 0.85229295
0.876444 -0.83342886 0.98256254 0.49057007 0.337806 0.33337486 -0.49274522 0.08781493
-0.31567642 -0.8378651 0.38862538 0.2628589 -0.7615957 -0.25072896 -0.36889935 -0.043413043
-0.74245226 0.2029208 -0.6198113 -0.22347908 -0.16876118 -0.8342371 -0.42912725 -0.36592603
0.69386524 0.86500764 -0.21675771 -0.8258662 0.8160404 0.23550808 0.12773907 -0.42254734
0.6867876 -0.96507204
00000000: 94d4 a0be c593 14bf 9021 593f 6632 78bf
00000010: 5845 4f3f ceec 2e3f 94a1 5c3f d4a5 91be
00000020: b4cd 513f de01 3e3f 0f9c 03bf f0c7 f13e
00000030: 8e73 50bf 80f6 413e f878 8dbe e011 b43e
00000040: 4ee7 263f 86b2 3abf 3e6c 653f ebd7 583e
00000050: 162b 80be ac78 5e3f 3903 153f 00fc 1ebf
00000060: aa6e 7b3f 964d 2dbf 666d 6e3f 1097 29bf
00000070: c8f3 603f 9411 70bf f473 c2be 52ac 1d3f
00000080: f5fc 123f 3e38 7cbf c8c4 593e 3353 7b3f
00000090: 20d4 15bf abbf 48be e833 c2be e010 72bd
000000a0: 0280 f23d e2a8 b93e 388e 20bf 2025 e13e
000000b0: 20bb 4e3d e657 1d3f 1bce 293f 98f1 213e
000000c0: 8ffe d83e 9bea 2dbf de93 84be 404c 39be
000000d0: 9dd8 d0be a3f2 e23e 906e 5bbf df2f 5a3f
000000e0: a25e 603f 985b 55bf 3889 7b3f 002c fb3e
000000f0: e8f4 ac3e 1cb0 aa3e 1a49 fcbe 50d8 b33d
00000100: 57a0 a1be 547e 56bf e8f9 c63e 7195 863e
00000110: f0f7 42bf 8c5f 80be 60e0 bcbe e0d1 31bd
00000120: 5a11 3ebf 78ca 4f3e f4ab 1ebf b3d7 64be
00000130: bbcf 2cbe 9090 55bf 91b6 dbbe a85a bbbe
00000140: 27a1 313f 2471 5d3f bcf5 5dbe f86b 53bf
00000150: 06e8 503f 0829 713e 08ce 023e 2058 d8be
00000160: 50d1 2f3f f60e 77bf

weight_hh_l0 f4 [3, 1]
0.9591776 0.20523763 -0.5512979
00000000: aa8c 753f d029 523e dc21 0dbf

bias_ih_l0 f4 [3]
-0.19654529 -0.7896724 -0.7594781
00000000: 2b43 49be f827 4abf 286d 42bf

bias_hh_l0 f4 [3]
-0.9542747 0.22838464 -0.6117961
00000000: 594b 74bf aadd 693e ab9e 1cbf

weight f4 [8, 31]
-0.036171317 0.08661942 0.091815844 -0.11626773 0.031854123 0.0038509867 0.05692197 0.052690655
0.009860186 -0.03256232 -0.020440808 0.014928647 -0.002170807 -0.05496959 0.011605936 0.04674109
-0.12773396 0.044743083 -0.060808226 -0.02518649 0.055811044 0.021925516 0.098021194 0.0073087253
0.08297958 -0.010941028 -0.096085034 0.015828181 0.075163655 0.07103371 -0.08372027 0.08490224
-0.020913424 -0.022267334 -0.06542233 0.028509945 0.062019866 -0.06490612 0.090259485 0.056416646
0.10682024 0.011311404 0.0979533 0.031666715 -0.029597163 0.03521508 0.02695876 0.11411792
-0.0057093604 -0.11842554 -0.06508167 -0.019561922 0.08530839 0.07595218 0.06965003 0.10800593
-0.12601645 -0.056484323 -0.11352466 0.020684678 -0.08540054 0.062218867 -0.0009832687 0.0018436309
0.003496491 0.00044267828 0.002029952 -0.00048631738 -0.000951787 -0.00028301365 0.0017532111 -5.8005302e-05
0.00029357724 -0.00018336691 0.00042621637 -0.015958495 -0.00097223837 -0.00010762061 -0.008110973 -0.025727166
-0.0012511667 0.0013609519 -0.0010417923 -0.002537894 2.677145e-05 -7.831206e-05 -0.0011590573 -0.00040858917
0.0014858027 0.001870717 -2.0805019e-05 -0.0009444717 -0.002177873 0.00018664906 -0.0030353596 5.2744665e-05
-0.0018366822 -0.0029302565 -0.0028618057 0.0031439727 -0.0015940573 -0.0028614202 -0.0008246207 0.0011915813
-0.0019525046 -0.0006015093 -0.0020531758 0.0019562233 -0.0015382732 -6.254367e-05 0.018929636 0.0013235201
0.0029373027 0.0032261903 0.0009036672 -0.0012642988 -0.0028137204 -0.0020830715 -0.0012312668 0.003262816
0.0028780142 -0.0012942345 0.0004861579 -9.959963e-05 0.04790594 -0.083466485 0.0033123211 0.051177442
0.041543856 -0.06274927 0.015585713 0.0032729558 0.026787236 0.00043409408 -0.025849858 0.02242495
0.021589093 -7.094784e-05 -0.010289644 -0.045299437 0.0069703185 -0.11743489 -0.002066319 -0.011370645
0.012868532 0.060507312 0.0025705206 0.06305045 0.05388755 -0.031190434 -0.010300918 0.07832704
-0.006188639 0.029501373 0.02216736 0.009307548 0.033270214 -0.0045069335 -0.040356494 -0.02038587
-0.031340845 0.02875596 -0.03575336 0.012636754 0.0040437076 -0.08747241 0.021272538 -0.036588524
0.07380015 0.0021592076 -0.012618257 -0.0004685051 0.040827796 0.060514677 -0.04491916 0.031177204
-0.011896403 0.019348139 0.0016737852 -0.029703485 0.0036429458 -0.006240665 0.043164633 -0.005925988
0.012579855 -0.091190025 0.0048461524 0.003440181 -0.005881565 -0.0012735515 -8.764062e-05 -0.0063885166
-0.003033807 0.0010170726 0.000617063 0.0061305487 -0.008515729 0.0032343785 -0.0033866046 0.0372205
0.006597419 -0.0020259519 5.7785044e-05 -0.027140329 0.002108558 -0.0064190193 -0.0011045339 0.0021321385
0.0017756368 0.002159024 0.002207402 0.005895526 -6.4771593e-06 -0.0017409653 0.0069288774 0.006707986
0.021076784 0.05105546 0.11465618 0.012304302 -0.04445719 -0.044716686 0.03571193 0.019598166
0.014650135 -0.05622187 -0.03030074 0.11462388 -0.012639289 0.0020353408 -0.10839996 -0.1196342
-0.050381728 0.027113574 -0.10708757 -0.12786163 -0.0714035 -0.1141548 0.021777516 -0.021879286
-0.05118301 0.019879034 0.016697627 -0.0011209082 0.053809024 -4.7797614e-05 -0.013942956 0.052173603
00000000: 6028 14bd 8665 b13d f209 bc3d c71d eebd
00000010: 7879 023d d660 7c3b 0327 693d 28d2 573d
00000020: 9e8c 213c 1160 05bd 7b73 a7bc 4997 743c
00000030: 1944 0ebb cb27 61bd d326 3e3c 9673 3f3d
00000040: b1cc 02be 8644 373d 0c12 79bd e653 cebc
00000050: 1f9a 643d 249d b33c 56bf c83d 087e ef3b
00000060: 33f1 a93d ff41 33bc 3bc8 c4bd 1aaa 813c
00000070: 67ef 993d 1f7a 913d 8875 abbd 3ae1 ad3d
00000080: a152 abbc fc69 b6bc 24fc 85bd b08d e93c
00000090: 8b08 7e3d 80ed 84bd f7d9 b83d 2415 673d
000000a0: 92c4 da3d 7853 393c bd9b c83d f5b4 013d
000000b0: c075 f2bc b03d 103d 9ed8 dc3c a8b6 e93d
000000c0: 9615 bbbb 1789 f2bd 8a49 85bd 5340 a0bc
000000d0: 2ab6 ae3d d18c 9b3d ada4 8e3d 3732 dd3d
000000e0: 750a 01be 1b5c 67bd 9e7f e8bd ea72 a93c
000000f0: 7ae6 aebd 36d9 7e3d 06e1 80ba fda5 f13a
00000100: 6225 653b 4617 e839 f108 053b 6af8 feb9
00000110: 5881 79ba 7361 94b9 01cc e53a b84a 73b8
00000120: 45eb 9939 2e46 40b9 cb75 df39 64bb 82bc
00000130: d0dd 7eba 60b2 e1b8 e3e3 04bc c7c1 d2bc
00000140: 30fe a3ba f861 b23a c08c 88ba cc52 26bb
00000150: 4093 e037 783b a4b8 82eb 97ba e937 d6b9
00000160: 44bf c23a d932 f53a 7086 aeb7 6c96 77ba
00000170: a5ba 0ebb 3ab7 4339 e2ec 46bb 273a 5d38
00000180: d4bc f0ba 8c09 40bb 228d 3bbb 1c0b 4e3b
00000190: b0ef d0ba aa86 3bbb 5c2b 58ba d52e 9c3a
000001a0: 2feb ffba 9bae 1dba 938e 06bb fb33 003b
000001b0: e29f c9ba e129 83b8 5312 9b3c f779 ad3a
000001c0: c37f 403b 7e6e 533b 14e4 6c3a d4b6 a5ba
000001d0: 6566 38bb 2484 08bb 7562 a1ba f8d4 553b
000001e0: 119d 3c3b 4ea3 a9ba 02e3 fe39 25e0 d0b8
000001f0: 0539 443d 7af0 aabd 8713 593b 709f 513d
00000200: e429 2a3d b082 80bd 385b 7f3c 167f 563b
00000210: e870 db3c 1f97 e339 15c3 d3bc 87b4 b73c
00000220: 9cdb b03c d5c9 94b8 e595 28bc e78b 39bd
00000230: 4567 e43b b481 f0bd 156b 07bb f14b 3abc
00000240: 89d6 523c 84d6 773d 2e76 283b 9820 813d
00000250: 31b9 5c3d 1583 ffbc 2ec5 28bc ed69 a03d
00000260: 11ca cabb ddac f13c 5398 b53c b07e 183c
00000270: 5946 083d e6ae 93bb da4c 25bd 4500 a7bc
00000280: 425f 00bd 9e91 eb3c 1d72 12bd 630a 4f3c
00000290: 1481 843b bc24 b3bd bf43 ae3c d9dd 15bd
000002a0: 8824 973d 7e81 0d3b cebc 4ebc b1a1 f5b9
000002b0: 0c3b 273d 3dde 773d 27fd 37bd 5667 ff3c
000002c0: 21e9 42bc fd7f 9e3c e962 db3a b954 f3bc
000002d0: 7dbe 6e3b 7e7e ccbb 66cd 303d ca2e c2bb
000002e0: bc1b 4e3c d6c1 babd 79cc 9e3b a974 613b
000002f0: 25ba c0bb 4ced a6ba b3cb b7b8 c356 d1bb
00000300: d6d2 46bb 4b4f 853a 66c2 213a c5e2 c83b
00000310: 8e85 0bbc def7 533b ccf1 5dbb 8674 183d
00000320: 292f d83b d5c5 04bb 385e 7238 6555 debc
00000330: bc2f 0a3b a356 d2bb 02c6 90ba 59bb 0b3b
00000340: 7cbc e83a 697e 0d3b 0faa 103b 422f c13b
00000350: 6056 d9b6 1a31 e4ba a30b e33b aace db3b
00000360: 38a9 ac3c 881f 513d dcd0 ea3d fc97 493c
00000370: be18 36bd d828 37bd ac46 123d 558c a03c
00000380: 1f07 703c e748 66bd 4239 f8bc edbf ea3d
00000390: 0515 4fbc 5a63 053b cc00 debd c702 f5bd
000003a0: 125d 4ebd 491d de3c ba50 dbbd 29ee 02be
000003b0: 003c 92bd fec9 e9bd c366 b23c 303c b3bc
000003c0: 47a5 51bd 5bd9 a23c 76c9 883c 70eb 92ba
000003d0: da66 5c3d 4c7a 48b8 ff70 64bc fdb3 553d

bias f4 [8]
-0.104691535 0.025025995 0.034167312 0.09154835 0.09888796 0.16269433 0.037914086 0.17211537
00000000: 8468 d6bd 5103 cd3c 06f3 0b3d b47d bb3d
00000010: c585 ca3d 5899 263e cd4b 1b3d 033f 303e

weight f4 [1, 24]
0.103902794 -0.02406829 0.115266025 -0.03677648 0.039065387 0.14846732 -0.01253434 -0.08226588
0.008486629 -0.047042616 0.10042268 0.405894 -0.0018506758 0.19106756 -0.07903201 -0.23420167
0.02071164 0.088029385 -0.133697 0.050521877 -0.07637243 0.16416126 0.090564996 0.20097257
00000000: fdca d43d dd2a c5bc 9810 ec3d efa2 16bd
00000010: 0703 203d d107 183e d55c 4dbc 047b a8bd
00000020: 810b 0b3c c2af 40bd 68aa cd3d 57d1 cf3e
00000030: 6092 f2ba 37a7 433e 89db a1bd 90d2 6fbe
00000040: 75ab a93c c048 b43d dee7 08be 07f0 4e3d
00000050: 2669 9cbd e419 283e 247a b93d c1cb 4d3e
