model_files/LSTNET/lstnet_model_hor_12_win_100_skip_24.pt (torch, 41275 bytes, 13 tensors)

weight f4 [30, 1, 6, 8]
000000 24 9f 3b 3d 39 28 77 3d e3 a1 8f 3d eb 66 7c bd
       0.045806065 0.060341094 0.07013299 -0.061621588
000010 0c eb 13 3e 59 d4 db 3d b8 81 72 3d 29 e7 ed bc
       0.14445132 0.107338615 0.05920574 -0.02904089
000020 c7 59 45 3d 8a 9b 1b bd d5 7e 21 be 30 80 32 bc
       0.04818132 -0.03799013 -0.15771039 -0.01089482
000030 73 68 87 3e 1a 07 a7 3d 93 72 5a 3d a8 15 18 be
       0.26446876 0.081556514 0.053331923 -0.14852011
000040 c9 bf 50 bd 2e 47 ca bd bf 1b 86 3c 40 3d f0 bd
       -0.05096415 -0.09876858 0.016370652 -0.117304325
000050 22 8c 39 3e 5b 23 84 3e 67 8d ad 3d 19 66 73 3d
       0.18119863 0.25808224 0.08474236 0.05942354
000060 fd f7 1e 3e 63 6e cc bc 29 e5 23 be b1 01 03 be
       0.15524288 -0.02495498 -0.16005386 -0.12793614
000070 f5 11 88 3d 4b 51 2a 3e ee de 25 3e f2 78 9f bb
       0.0664405 0.16632573 0.16198322 -0.0048667127
000080 a5 ac b0 3d 95 de 99 3d f9 a7 88 3d 35 df 99 bd
       0.08626679 0.07513157 0.06672663 -0.075132765
000090 0d 3a 5a be a8 88 51 3e a9 d9 23 3e 67 eb a0 3d
       -0.21311207 0.20462286 0.16001 0.078573994
0000a0 71 bd 03 bd 5f fe 85 bd 9f 9d 2a bd ab 3b f3 bc
       -0.032163087 -0.06542658 -0.041654225 -0.029691538
0000b0 51 b1 61 be 82 c8 7d 3d 26 6a 74 bd 2f 5a 9a bd
       -0.22040297 0.061958797 -0.059671544 -0.075367324
0000c0 bc 85 0f bd 73 31 e4 3d f9 e1 46 3d ff 41 09 be
       -0.03503965 0.11142244 0.048555348 -0.13404082
0000d0 de 7a 69 bd 2c 15 89 bc 75 62 95 3d 53 b2 ef bd
       -0.05700194 -0.016733728 0.0729417 -0.117039345
0000e0 2e b0 03 be 9b 24 8a bc a8 a4 1d 3d d4 f1 c5 3d
       -0.12860176 -0.016863158 0.038487107 0.09665266
0000f0 bb 4b 10 bd 22 61 93 3c 31 78 ea 3d 5c 35 8b 3d
       -0.035228472 0.017990652 0.11448706 0.06797287
000100 06 1c cb 3d c3 ca 8b bb a1 6f 53 bc 88 3a 18 be
       0.099174544 -0.0042661144 -0.012905032 -0.14866078
000110 0d a7 c4 3d 05 cf bc 3d 37 20 d8 bd 54 6e 92 bd
       0.09602175 0.09219173 -0.105530195 -0.0714995
000120 d9 1d c0 bd a3 0f ef 3d e7 8c 00 3d fe 68 ad 3d
       -0.09380693 0.11672904 0.031384375 0.08467291
000130 b4 27 c8 bb 05 9e ba 3c aa 1e a0 bd fc e0 ab bd
       -0.0061082486 0.022780428 -0.07818349 -0.08392522
000140 28 81 41 3d ac ea a1 3c e2 c4 89 bd 48 67 47 bc
       0.047242314 0.01976522 -0.067270055 -0.01217062
000150 f0 85 b8 bd 8f 11 c3 3c cb fc 06 3e 2e 5d fa bd
       -0.090099216 0.023812084 0.1318237 -0.12224804
000160 2b 15 06 be db b6 03 be 58 4b 69 3c 58 d4 04 39
       -0.13094012 -0.12862723 0.014239155 0.00012667605
000170 94 92 aa bc 68 6a 9b bd 13 f1 0f be 5c b4 f2 3d
       -0.020821847 -0.07588655 -0.14056806 0.11850807
000180 ee 90 64 bd c4 de bd bd 38 17 7c bd 10 72 08 3c
       -0.05580228 -0.09271005 -0.06154558 0.008327976
000190 f0 0a ad 3d 50 fd e5 bc fc c3 e2 bc 54 7b a2 3d
       0.08449352 -0.02807489 -0.027681343 0.07933679
0001a0 d8 5d a9 3c a8 4b f7 3c b0 9c 32 bc b6 38 f4 bd
       0.020674631 0.030187443 -0.010901615 -0.11924879
0001b0 48 15 a7 3c 00 5c 32 3b 60 30 ee 3c 4a f8 a4 3d
       0.02039589 0.002721548 0.029075801 0.0805517
0001c0 36 99 a1 bd 08 b6 9d 3c 70 e6 1b bd 88 9f 06 3e
       -0.07890551 0.019251838 -0.03806156 0.13146794
0001d0 58 ec c5 3c 20 2c 45 3d 8d fc 05 be c9 83 93 bd
       0.024160549 0.048137784 -0.13084622 -0.072028704
0001e0 23 4b 81 bd 38 e8 ef bd 40 e4 58 bc a2 57 8d 3d
       -0.06313159 -0.11714214 -0.013238013 0.0690148
0001f0 a7 40 a2 bd fb 1b c6 bd c4 e9 5b bd 14 5a 20 3d
       -0.07922488 -0.096733056 -0.053689733 0.039148405
000200 e4 45 62 bd 10 b5 9b 3c cc d1 4f 3d 80 15 02 3e
       -0.055242434 0.019007236 0.050737187 0.12703514
000210 24 3f 54 3d 2a c2 f2 bd e0 58 ec 3c 06 b1 a0 3d
       0.051818028 -0.1185344 0.028850973 0.078462645
000220 b8 43 77 3d a6 84 da bd cd d2 9d bd 9c b4 9e 3d
       0.060367316 -0.10669832 -0.07706223 0.07749292
000230 24 61 63 bd 82 3d bc 3d cc 8a e8 3d e8 c3 fa 3d
       -0.055512562 0.09191419 0.113545984 0.122443974
000240 7e 9b 36 be 93 e4 26 3d 45 e8 02 be fa 0c af bd
       -0.17832753 0.04074533 -0.12783916 -0.08547397
000250 cb 73 88 3d ae 52 4a 3e 0e ee 9d bd 6e 7f dd 3d
       0.06662711 0.19758102 -0.07711421 0.10815321
000260 16 fc 7f 3d 82 13 f1 ba f0 46 59 3d 52 ba b1 3d
       0.062496267 -0.0018392655 0.053046167 0.08678116
000270 b9 22 31 3e 97 76 ef 3d 9d 45 e6 bd 8f e1 a7 bd
       0.17298402 0.11692541 -0.112437464 -0.08197319
000280 fa 94 0f 3e 88 9d 1d 3e f2 69 49 bd 71 97 4c 3d
       0.14021674 0.15392125 -0.049173303 0.049949113
000290 0c e3 ac bd 2d 39 83 3e 27 5c 0d be 39 7f f9 3d
       -0.08441743 0.2562956 -0.13804685 0.12182469
0002a0 cc a8 f4 3c cc 1b 86 3d b2 12 d9 bd 6a 4d 8d bd
       0.029865645 0.065482706 -0.10599269 -0.06899531
0002b0 ea c0 94 be 7b 29 a4 3e 2a ef 97 3d a1 27 39 bd
       -0.29053432 0.32062897 0.07418664 -0.04520381
0002c0 95 6c 07 3e 46 96 cd bd 0d d8 22 bd e3 8c 7a 3c
       0.13225015 -0.10038428 -0.039756823 0.015292379
0002d0 43 d1 e6 bd 46 9a 62 3e 61 25 71 bc 05 3a 75 3d
       -0.11270382 0.22129163 -0.0147183845 0.059869785
0002e0 d5 20 d0 3c b5 b7 16 3c 6f 17 98 3d 29 2b d2 bd
       0.02540628 0.009199073 0.074263446 -0.102621384
0002f0 65 a4 a0 be 7e cd 09 3e db 12 32 3c b1 cc 42 bd
       -0.31375423 0.13457295 0.010868753 -0.04755849
000300 80 2b 27 3e 42 61 18 3e 98 1f 9e 3c d7 ca 4f 3d
       0.16325188 0.14880851 0.019302174 0.050730553
000310 be fb 22 be 64 93 2a be 7c ec d5 bc 40 fd 2e 3e
       -0.15916345 -0.16657788 -0.026113741 0.17088795
000320 96 ad 42 3e fe 40 48 3e 14 c5 7b 3d a3 51 6d 3c
       0.1901153 0.19556043 0.061467245 0.014484796
000330 c9 13 ae bd fc 27 7c be ad a5 5d 3d ca 36 0b bd
       -0.084998675 -0.24624628 0.05411308 -0.033987798
000340 00 80 0a 3e 69 37 0c 3e 95 b2 a1 3d 25 0d c5 3d
       0.1352539 0.13693012 0.0789539 0.09621648
000350 f3 8c cf bd 89 d5 e2 bd 03 d0 ff 3d 1e 25 19 3e
       -0.10134306 -0.11075885 0.12490847 0.14955565
000360 f2 4c 8d 3d 29 8d cf 3d 08 10 8c 3c 1f 0b b2 3d
       0.06899442 0.10134346 0.017097488 0.086935274
000370 5a a6 f3 3c 43 dd 40 3d e7 66 22 bd 43 44 45 3e
       0.029742409 0.04708601 -0.039648917 0.19264321
000380 de 81 b2 3d c3 64 76 3e fc f8 c3 3d 83 8d 14 3d
       0.087161765 0.24061875 0.095689744 0.03626777
000390 1e 98 81 3d e1 4f 16 be 0e 57 26 bd 56 8c c5 3d
       0.06327842 -0.14678909 -0.040610366 0.096459076
0003a0 ff 46 4f bb 6a 2c 17 3e 94 ab 9a bb 00 8d 19 bd
       -0.003162801 0.14763036 -0.0047201607 -0.037487984
0003b0 99 7e 4e 3e a2 b8 85 3d 2d 90 18 3e e2 f4 38 3d
       0.2016548 0.065293565 0.14898749 0.045155413
0003c0 d6 78 c7 bc f2 e0 08 bd 04 e8 98 3d c1 ef a7 bc
       -0.024349611 -0.03341765 0.074661285 -0.020500066
0003d0 1f 3a 00 be c7 4f 50 bd 30 6d de 3c 8b 8c a9 bd
       -0.12522171 -0.05085733 0.027151674 -0.082787596
0003e0 4c 64 d7 3d 16 2e d3 ba 70 07 81 3d 25 d0 88 bd
       0.10517177 -0.0016111757 0.06300247 -0.066803254
0003f0 e5 c2 0c 3e c4 5e 3f bd a2 cd a6 3d 1c 1c 90 bc
       0.13746221 -0.046721235 0.0814469 -0.017591529

bias f4 [30]
000000 44 70 e2 bb 3b a0 f8 bd e0 80 82 3c 92 de 04 3e
       -0.0069103558 -0.121399365 0.015930593 0.12975529
000010 5b 05 a3 3d a4 a7 ca 3d a7 8e 93 bd 15 13 21 bd
       0.07960006 0.09895256 -0.07204943 -0.03932484
000020 40 54 80 bd f6 8d a3 3c bc 49 e1 3d ca 64 e7 bb
       -0.062660694 0.019965153 0.11000392 -0.0070615755
000030 9d 47 ce 3d 25 92 34 bd 13 67 05 be f9 82 03 3e
       0.10072253 -0.044084687 -0.13027601 0.12842931
000040 8d f1 9c 3d 1c 0b f3 3d 75 df ee 3d 73 36 12 3e
       0.0766326 0.11867353 0.11663715 0.14278583
000050 38 97 5d 3d b8 c6 fb 3d 65 12 05 bc 28 ec 08 3e
       0.05409929 0.12293762 -0.008122061 0.13371336
000060 f6 90 07 be dc 5a 9f 3d 5a b8 30 3e 80 a9 94 3d
       -0.13238892 0.07781002 0.17257825 0.07258892
000070 e7 ea 63 bd 0c 8f 01 be
       -0.055643942 -0.12652224

weight_ih_l0 f4 [90, 30]
000000 26 5e 45 bd c3 45 3e 3e 78 cf 89 3d 11 fc 79 3d
       -0.04818549 0.185813 0.06729025 0.061031405
000010 02 e0 b2 3d a8 2d cd bd fb 9f 2a bd 12 0d 47 3e
       0.08734132 -0.10018474 -0.041656476 0.1943858
000020 d0 4b 33 be ac c1 fe bc f8 67 ba 3c 54 86 09 be
       -0.17509389 -0.03109821 0.022754654 -0.13430148
000030 b6 63 db 3a 3b 09 1a 3e aa 55 31 bd 70 90 2a 3e
       0.001673809 0.15042584 -0.043294586 0.16656661
000040 e4 c1 b2 bd e8 db 33 3e 2b 58 19 3e 96 8b 1a be
       -0.08728388 0.17564356 0.1497504 -0.1509231
000050 40 1f 1c 3d 8d 80 81 bd a9 23 40 be 55 3e 41 be
       0.03811574 -0.06323347 -0.18763603 -0.18871434
000060 5d 16 98 3d 4e 0c 7b bd 7b 02 f3 3d 74 49 9b bd
       0.074261405 -0.06129103 0.118657075 -0.075823694
000070 80 9f cb bd 7c 4d 32 be 41 2e c1 bd f6 b6 bc 3d
       -0.099425316 -0.1741237 -0.0943265 0.092145845
000080 7e 9c 25 3e e0 8a f2 bd 0b c4 d2 bc 72 10 1a 3e
       0.16172978 -0.118428946 -0.025728246 0.15045336
000090 ac ce 8f bd 4e 39 a1 3d 53 d0 c7 bd e8 1f 36 be
       -0.070218414 0.07872258 -0.097565316 -0.17785609
0000a0 5c 18 16 3d ff 8e d7 bd cf dd 95 3b 7e 8e 86 bc
       0.036644325 -0.10525321 0.004573561 -0.016425367
0000b0 dd fa 51 3d 26 85 c2 3d 42 23 c7 bd a0 1b 72 bd
       0.051264632 0.09498052 -0.09723522 -0.059108377
0000c0 3c 0b b1 bd e3 73 2c be 7e fc 2d 3e 7e 9e ee bd
       -0.08644721 -0.16841082 0.1699085 -0.11651324
0000d0 5f 9c 5d bd 8d 16 f1 bd bd 80 3b 3d 03 d1 93 bd
       -0.054104205 -0.11771879 0.04577707 -0.072176
0000e0 63 fa c6 bd 40 ae 29 3e d5 36 36 be c4 38 ff 3d
       -0.09715726 0.16570377 -0.17794354 0.12461999
0000f0 85 08 0b 3e 69 4e 3e bd 53 88 04 be 36 00 ce 3c
       0.13577469 -0.046461497 -0.12942629 0.025146585
000100 01 8a 1c bd a2 16 1a 3e c8 fd 84 3d ac f6 d9 ba
       -0.03821755 0.15047696 0.064937174 -0.00166293
000110 56 92 3a 3e 91 ee c6 bc 84 97 6e 3d 38 6e 48 3e
       0.18219885 -0.02428368 0.058249965 0.19573295
000120 41 10 19 be 48 9c 12 be c5 56 0d 3e 72 eb 0d be
       -0.14947607 -0.14317429 0.13802631 -0.13859347
000130 ac 1c 5e 3e 60 de fd 3b f4 0b f4 bd b7 28 8a 3d
       0.21690625 0.0077474564 -0.119163424 0.06746047
000140 46 e6 0b 3e c2 43 17 be 9e ec 2b 3e 48 42 21 3d
       0.13662061 -0.14771941 0.16789481 0.03936985
000150 54 56 10 be 52 27 01 3e c3 1d 1c 3e c0 42 18 3c
       -0.14095432 0.12612656 0.15245728 0.009293258
000160 39 0a 2f be f2 58 08 3e 6a 01 12 be d2 42 1d 3e
       -0.17093743 0.1331518 -0.14258352 0.15357521
000170 ee 5e 00 be 28 f6 93 bd 36 53 aa bd 50 af 1b 3e
       -0.12536213 -0.07224685 -0.083166525 0.15203595
000180 1b ba 98 3d e3 08 a9 3d 08 00 6f 3d 4c 41 b9 3d
       0.07457372 0.08253648 0.05834964 0.090456575
000190 00 3c 12 39 e9 3d 04 be 70 59 4f bd 3d 78 11 3e
       0.00013945997 -0.12914242 -0.050622404 0.14206024
0001a0 53 d4 b4 3d 17 13 9e 3d 62 f3 13 3e e4 68 86 bd
       0.0882956 0.07718485 0.14448312 -0.06562975
0001b0 78 d0 d8 3b 7c c7 b9 3d 8c f9 8c 3d 53 06 23 be
       0.0066166483 0.09071252 0.06883535 -0.15920381
0001c0 8a c2 2f be 28 5a 58 bd 8c fd 14 3d 7e 75 26 be
       -0.17164055 -0.052820355 0.036374614 -0.16255757
0001d0 20 4a 09 be bc 9f 4b 3d 7d d7 a0 bc 8e a1 1d 3e
       -0.13407183 0.04971288 -0.019634003 0.1539366
0001e0 da 8f f5 3d 61 31 ca bd 70 8d 8c bc 2f 98 03 bc
       0.11990328 -0.098726995 -0.017157286 -0.008031889
0001f0 4f 62 2e 3e 93 1b 8b bd 08 e8 a9 bd 28 80 0b 3e
       0.17029689 -0.06792369 -0.082962096 0.13623106
000200 54 3b 83 bd 1a fd e0 3c 60 6c 2d 3c 0c 19 06 be
       -0.064078 0.027464438 0.010584921 -0.13095492
000210 52 50 20 bd 9b 71 43 3e 77 08 48 bd 17 2b 19 3e
       -0.0391391 0.19086306 -0.048836198 0.14957844
000220 80 74 14 3e 20 4e e6 bb 79 8a 30 bc 12 c2 fe bd
       0.14497566 -0.007028356 -0.010775202 -0.1243936
000230 90 37 3a bc 50 e1 33 3c 16 ab 87 3d 6c c0 a4 bc
       -0.011365786 0.010979012 0.06624429 -0.020111285
000240 54 fa 4b 3e 08 7a 1f 3d 28 48 d7 bd 10 b6 12 bc
       0.19919711 0.038934737 -0.105118096 -0.00895454
000250 d1 a9 8a 3c dc f6 aa 3d 70 92 28 3e 96 24 f3 3c
       0.016926678 0.08347866 0.16462111 0.029680531
000260 d9 12 ef bd 0b be 1f 3e 57 9f e2 3c 32 00 2e 3e
       -0.11673517 0.1559984 0.02766387 0.16992262
000270 42 d8 2c 3e d3 51 0d 3d 19 1a 0a be 6c 8d 8c 3d
       0.16879371 0.03450186 -0.13486518 0.068629116
000280 38 32 b5 3d 24 06 3a 3e 4e 89 da bd 85 ae d8 bd
       0.08847469 0.18166405 -0.1067072 -0.10580162
000290 a6 92 2b be 5d 12 c5 bc 32 61 37 bb ec 97 c1 bd
       -0.1675516 -0.024056608 -0.0027981517 -0.09452805
0002a0 40 af d5 bc 94 cd 81 3d f4 75 55 bd c0 35 2d bd
       -0.026084542 0.06338039 -0.052114442 -0.042287588
0002b0 2e b4 28 be 78 e9 52 bd 7c b9 0c 3e 70 05 31 3e
       -0.16474983 -0.051492184 0.13742632 0.1728723
0002c0 f2 2b 0a 3e d2 36 f8 bd c0 c0 b0 bd b0 af 18 3e
       0.13493326 -0.12119831 -0.08630514 0.1491077
0002d0 af 31 05 bc 68 0d b6 3c 9d e6 ad bd ef b4 0b be
       -0.008129521 0.02222319 -0.084912516 -0.1364324
0002e0 42 66 84 3c aa 26 1c 3e 2e d2 31 be 19 91 7c bd
       0.016162042 0.15249124 -0.17365333 -0.061661813
0002f0 64 c7 22 bd 81 40 bf 3d f2 05 6f bd c9 a5 21 3e
       -0.039740935 0.09338475 -0.05835528 0.15785898
000300 9c c1 51 bc 0a 9c a0 3d 3b 67 be bc 34 f3 03 3e
       -0.012802508 0.07842262 -0.023242583 0.12885743
000310 74 47 2b bd 2c 66 76 3d 7b d2 19 3e b9 d4 35 be
       -0.04181619 0.060156032 0.15021698 -0.17756929
000320 80 f9 34 be 5c 08 5f bd 42 67 7a bd 8e fd 97 3d
       -0.17673302 -0.05445133 -0.06113363 0.074214086
000330 29 d7 d6 3c 35 2d e8 bd 6c 62 2c be 00 e9 58 bc
       0.026225643 -0.113367476 -0.1683442 -0.013239145
000340 5c 60 af 3c d4 21 6f bd a2 cf 87 3d 2f d2 db bd
       0.021408252 -0.05838187 0.066314 -0.10733449
000350 f0 e3 9f 3d a1 1f 25 3e e8 40 02 be f0 e6 09 3d
       0.078071475 0.16125347 -0.12720072 0.033667505
000360 27 31 14 be ff 52 ee 3d b2 e2 c4 bd 03 40 1c be
       -0.14471875 0.11636924 -0.09613551 -0.15258794
000370 34 1d a5 3d b5 f8 b5 3c f6 3a 10 3e b2 df a8 bc
       0.08062211 0.02221332 0.14084992 -0.020614479
000380 98 dc 28 3e f8 97 0b be fc 29 d4 bd a0 29 70 bd
       0.164904 -0.1363219 -0.103595704 -0.058633447
000390 b3 4b d9 3d c3 cb bb bd 97 d2 8a bd 20 2c a6 bb
       0.106101416 -0.09169724 -0.06778448 -0.005071178
0003a0 ed 59 9c bd b0 a8 df bd 06 fd 7f 3d ec 74 0b 3e
       -0.076343395 -0.109208465 0.06249716 0.13618821
0003b0 81 8c 38 3e e2 70 02 3e cf aa 3e 3d 18 e5 a1 3d
       0.18022348 0.12738374 0.046549615 0.07905024
0003c0 e1 d5 b7 bc eb 56 8b 3d 5e 5f fc bd c7 e4 34 3e
       -0.022440853 0.06803688 -0.12322877 0.17665397
0003d0 85 23 41 3e 34 27 b2 bd b5 9b 75 3d 1a ef 13 bd
       0.18861206 -0.08698884 0.059962947 -0.036116697
0003e0 90 35 9b 3c ba 3d a6 3d ae f5 10 be fe 70 2f 3e
       0.018946439 0.08117242 -0.1415622 0.17132947
0003f0 2b 4f 23 be 47 e1 d7 3d 9b 28 02 bd e2 ec 80 bd
       -0.15948169 0.10541015 -0.031777006 -0.06295182

weight_hh_l0 f4 [90, 30]
000000 b0 b6 34 3e 8f 52 c7 3c 3c 49 c6 3c 29 a6 1a 3e
       0.17647815 0.02433136 0.024204843 0.15102448
000010 40 c4 ba bc b0 b9 25 bd bd 1e 14 be ea 2d d6 3d
       -0.022798657 -0.04046029 -0.1446485 0.10457976
000020 ac a7 10 be b5 16 6f 3a 78 72 34 be 69 b4 3a 3d
       -0.14126462 0.000912051 -0.17621791 0.04558221
000030 81 34 a7 3c 26 bc 0a 3e 4e 96 3e be ef d8 c7 3d
       0.020410778 0.13548335 -0.18612024 0.09758174
000040 34 cd 3c 3e 04 49 c1 3d c2 08 03 3e 68 f2 08 3e
       0.18437654 0.09437755 0.1279631 0.1337372
000050 2c 93 ef 3c 6e 23 e5 bd 9e df 1b be 67 49 82 3b
       0.029244982 -0.11188398 -0.15222022 0.0039760354
000060 31 9f 28 3d b9 65 68 3d 1d 5f c5 3d 9c f7 40 3d
       0.04116744 0.056737635 0.09637282 0.04711114
000070 6a 82 11 be 82 85 2b be be b8 59 bd ca 5a 0e be
       -0.14209905 -0.16750148 -0.0531547 -0.13901821
000080 71 58 f9 bd 40 b2 be 3c 5b ec 01 bc ba 02 ba 3c
       -0.12175072 0.023278356 -0.007929887 0.022706378
000090 c1 6d 34 3e 0b 24 79 bd 60 cf c4 bd 9d 96 ad bc
       0.17619993 -0.06082539 -0.09609866 -0.021189982
0000a0 7c 6b d2 3d 1e 48 a3 3d 0b 08 ab 3d 42 99 eb 3d
       0.10274407 0.0797274 0.083511434 0.11503841
0000b0 fa e9 36 3d ef 80 3f bd 6e 99 2d be dd ae c4 bd
       0.04465673 -0.04675382 -0.1695306 -0.09603665
0000c0 aa 4b ee bc 42 0f 27 3e 1d 08 95 3c 18 96 07 be
       -0.029088814 0.16314414 0.018192345 -0.1324085
0000d0 e4 8d ac 3d ec b9 1c be ea e5 4b bd e7 04 31 3e
       0.08425501 -0.15305299 -0.04977981 0.17287026
0000e0 00 fb 8a bd 37 2c 25 be 8e e1 dd 3d de ed 9b bd
       -0.06786156 -0.16130148 0.10834037 -0.07613729
0000f0 27 00 c8 3d 55 05 02 3e b7 9d 33 bc 2f 38 0e 3e
       0.09765654 0.12697347 -0.010962895 0.1388862
000100 5a 24 ad bd 76 fe 08 3e 2a ea 71 3d 37 ed 80 bd
       -0.08454199 0.13378319 0.059061207 -0.06295245
000110 5c 1f a5 bd 3e 10 2d be ee e3 30 3e c8 be 81 3d
       -0.08062622 -0.16900727 0.17274448 0.06335217
000120 d9 25 2d be 35 63 12 bd 2e 43 10 3e 81 a8 41 3e
       -0.16908969 -0.035739142 0.14088127 0.18911935
000130 99 4d 10 bc d9 ff a8 3d 20 ba fb bd 37 2d 3d 3e
       -0.008807563 0.08251924 -0.1229136 0.1847428
000140 29 be 94 3d a2 86 a3 bd fc 80 85 bd d6 09 28 bd
       0.07262833 -0.079846635 -0.065187424 -0.041025005
000150 fe 0d 0e be 9a f5 04 be 3c a8 fc 3d 84 4b fb 3d
       -0.13872525 -0.12984315 0.12336776 0.12270263
000160 84 5b ad 3d 82 8a b4 bd 20 3a 2d 3d 58 13 27 be
       0.08464721 -0.08815481 0.04229176 -0.16315973
000170 c9 67 12 3e f2 40 e6 bc 99 d3 20 bc 12 98 33 be
       0.14297403 -0.02810714 -0.009816074 -0.17538479
000180 c2 82 1c 3e 6b a9 25 3e f4 e4 a2 3d b1 3c b7 3d
       0.15284255 0.16177909 0.079538256 0.08947123
000190 f0 28 a8 3d db 21 16 3e 9b 34 04 bc 13 34 ed 3d
       0.08210933 0.14661352 -0.008069183 0.11582198
0001a0 6e 37 1c bd 63 1e 92 bd f0 6e 12 be 15 d2 3b be
       -0.0381388 -0.07134702 -0.14300132 -0.18341859
0001b0 5e bc c0 bc 67 f1 37 3d 35 2c 00 3e ab 3c 8e 3b
       -0.02352732 0.044907954 0.12516864 0.0043407283
0001c0 f0 56 da 3b 52 60 03 3e 36 b5 b8 bd 6f 01 bc 3d
       0.006663196 0.12829712 -0.09018938 0.09179961
0001d0 e5 77 ce 3d 37 22 97 bd 2c dc 17 bd be 56 a0 ba
       0.10081462 -0.07379573 -0.037075207 -0.0012232882
0001e0 ad 21 38 bd 0d ea 1c 3e 82 dd 08 be f8 e8 3a be
       -0.04495399 0.15323658 -0.13365749 -0.18252933
0001f0 e0 d0 06 3d 6d e2 d6 bd 7b a6 d4 3d 04 73 d2 3d
       0.032914042 -0.10492406 0.10383316 0.10275844
000200 59 9f 10 be 30 d4 20 3e 52 3b 01 3e fe a0 06 be
       -0.14123286 0.15705943 0.12620285 -0.13147351
000210 2f 85 a4 3d ee ad 50 3d 6c 6f 8e bd d0 62 f9 3d
       0.08033215 0.050947122 -0.06954846 0.1217705
000220 65 00 45 be 65 ca 6f bd eb 28 49 be 63 fb 39 3d
       -0.19238432 -0.058542628 -0.19644515 0.045405757
000230 33 45 d1 bd 9b 2f 3f 3c e7 46 dd bc 96 92 17 3e
       -0.10218277 0.011669065 -0.027011348 0.14802012
000240 92 ea a8 bd 1c 4a ef bd 06 4b 9c bd db 2e 0d 3e
       -0.08247866 -0.11684057 -0.07631497 0.13787405
000250 e7 f8 7d bd 15 f1 82 bd 38 38 16 bd 6d d6 f4 3d
       -0.06200495 -0.06393639 -0.036674708 0.11954961
000260 7f 0a c3 bd 95 4c 81 3d 80 2f 2e bd e4 77 00 3d
       -0.09523486 0.06313435 -0.04252577 0.031364337
000270 ec 14 4f 3d 41 9b 87 3d a2 8a 3a be 84 f7 2d 3d
       0.050557062 0.06621409 -0.18216947 0.042472377
000280 e8 ce 16 be 40 63 7b bc 64 99 32 3e 7b 6d 47 3d
       -0.14727366 -0.015343487 0.17441326 0.048688393
000290 72 96 1d be 08 25 73 3d 01 25 97 bb fa 20 49 bd
       -0.15389422 0.059361488 -0.0046125655 -0.049103715
0002a0 54 13 f1 bd 7e b0 36 be aa 8c a5 bd a8 65 05 3d
       -0.11771265 -0.17840764 -0.0808347 0.03256765
0002b0 d9 56 18 3e e4 54 2b 3e ce 76 b7 bd 01 a1 94 bd
       0.1487688 0.16731602 -0.08958207 -0.072572716
0002c0 00 7b 5d bd cf 7e a9 3d 6c d0 9d bd bd 54 f0 3c
       -0.05407238 0.0827614 -0.07705769 0.029337281
0002d0 14 ab ee bd a2 f9 ac 3d 46 7c 5d 3d d3 b2 1f be
       -0.11653724 0.08446051 0.054073595 -0.1559556
0002e0 4d f2 0a be 8e 9c ea bc 9b 43 0a 3e d3 61 60 bd
       -0.13568993 -0.028639104 0.13502352 -0.054780792
0002f0 73 ad 70 bd 07 02 33 3d 93 50 aa 3d 3f 64 0d 3e
       -0.058759164 0.043703105 0.083161496 0.13807772
000300 34 fc 0f 3e 4d 2e 55 bd 59 c8 30 be a2 e5 79 3b
       0.14061052 -0.05204611 -0.17263927 0.0038131257
000310 01 62 8a 3d 12 0f 8d bd 4b 1e fe bd bd 78 b9 3d
       0.06756974 -0.0688764 -0.12408122 0.09056232
000320 49 97 9b bd 73 9d 06 be 45 38 29 3e 90 96 27 3e
       -0.07597215 -0.13146 0.16525371 0.16366029
000330 25 94 a7 bd f2 68 88 3d 46 b6 36 3e 3b 6c c0 3d
       -0.08182553 0.06660642 0.1784297 0.09395643
000340 ab e4 8c bc 62 b6 8d bd f6 a9 2d be b8 56 f9 bb
       -0.017198881 -0.069195524 -0.16959366 -0.0076092146
000350 73 5d 16 3e 17 0e 0e be e4 7b 1c bc 5d 47 0a 3e
       0.14684086 -0.13872562 -0.009551022 0.13503785
000360 cb ea 8b bd 7c a4 a3 bd 35 17 2d 3e b5 b2 57 3d
       -0.068318926 -0.07990357 0.16903384 0.052660663
000370 b0 ac 81 bc 32 0b 46 bd 89 6f 0b 3b 3e 6f c4 3d
       -0.015829414 -0.04835052 0.0021276197 0.0959153
000380 cd b3 9b 3d 59 3c 60 3d 96 f4 1c be f4 77 72 bd
       0.07602654 0.054745052 -0.15327677 -0.059196427
000390 3b 67 d8 bc 97 0e 05 3e 93 a5 2d 3d 2f 31 83 3d
       -0.026416412 0.12993847 0.042394232 0.064058654
0003a0 d9 3d 37 be 18 8e b9 3d b1 55 7a bd 46 07 24 3e
       -0.17894687 0.09060305 -0.061116878 0.160184
0003b0 11 55 71 3d 1e 59 79 bc 76 86 37 3d 7a 02 80 3d
       0.058919016 -0.015219001 0.044805966 0.06250472
0003c0 07 2d 39 3e f7 53 58 bd 77 01 de 3d 78 67 85 3b
       0.18083583 -0.05281445 0.10840123 0.0040711723
0003d0 3c 65 d5 bd 78 c1 8a ba 4c c1 73 3d 06 70 26 3e
       -0.104196995 -0.0010586223 0.059510514 0.16253671
0003e0 27 94 d4 bd 22 2f 2b 3e ad d7 d2 3d 90 1c 1b be
       -0.1037982 0.16717198 0.10295043 -0.15147614
0003f0 f2 7e 52 3e d6 d7 f3 bd b9 ed 17 3d e0 97 be bd
       0.20556238 -0.11906402 0.037091944 -0.093063116

bias_ih_l0 f4 [90]
000000 fe 54 ae 3d 52 c2 d9 bd e5 2f 9d bc 48 a7 2d be
       0.08512305 -0.10632767 -0.019187877 -0.16958344
000010 39 a6 8a 3d b0 b4 5e 3c 7e c4 b4 bd 98 7e a4 3c
       0.06769986 0.013592884 -0.088265404 0.020079896
000020 d8 a3 2d 3e f2 55 6b bd e9 d7 1f be 2b 4c 1a be
       0.16957033 -0.05745501 -0.15609707 -0.15068118
000030 d9 9e 27 be 6b c4 b4 bd 52 d2 65 3c 10 8a 05 3e
       -0.1636919 -0.08826526 0.014027195 0.13040948
000040 56 92 09 be 08 33 72 bd 6e ad b6 bd 6f b5 a8 bd
       -0.13434729 -0.0591307 -0.08919798 -0.08237731
000050 b1 c9 87 bd 78 0b 0a 3e 11 69 36 be a2 5f b1 bd
       -0.066302665 0.13480937 -0.17813517 -0.08660819
000060 4d 6a 03 3e 5b 07 9e bd 04 e4 3e bc ca 77 79 3d
       0.1283352 -0.07716247 -0.011651043 0.060905255
000070 fe b2 00 be 94 76 40 bd 7f 62 87 3e 99 e3 0b be
       -0.1256828 -0.046988085 0.26442334 -0.1366104
000080 1e 34 02 be 7e 1a 36 3e 61 df 12 3e ad b8 e4 3d
       -0.12715194 0.17783543 0.14343025 0.111680366
000090 76 37 00 be 18 0f e5 3d 5e 0b a8 bd ad e3 59 be
       -0.12521157 0.111845195 -0.08205293 -0.21278258
0000a0 f1 da 8a bd 6d 03 b7 bd 2d 76 1a 3e c2 51 7f 3c
       -0.06780041 -0.089362 0.15084143 0.015583457
0000b0 e0 2c 98 3d 14 6b 05 be d4 27 bb bb 08 4d 7f bc
       0.07430434 -0.13029128 -0.005711535 -0.0155823305
0000c0 b2 4f e1 3d 52 77 0f 3e bd 22 46 3d 73 7f c9 bc
       0.11001529 0.14010361 0.048372973 -0.024596905
0000d0 ee 1e 87 bd 33 e2 f6 3d b1 da 79 bd 09 ed fa 3d
       -0.06597696 0.12054863 -0.060999576 0.12252242
0000e0 9d 36 4c 3a 99 60 28 bd ae 56 95 3e 89 3d bf 3d
       0.00077901204 -0.041107748 0.29167694 0.09337909
0000f0 26 4f 14 be cf df d3 bd 20 44 42 3e 08 db 3e be
       -0.14483318 -0.103454225 0.189713 -0.18638241
000100 8f 5b 6d bd 34 02 49 be 6e 6b a6 3d c9 84 20 3e
       -0.057948645 -0.19629747 0.08125959 0.15675654
000110 cc 4b e2 bd 35 cd c6 bc c7 b7 29 be fa 79 e0 bd
       -0.11049613 -0.024267772 -0.16574012 -0.10960765
000120 b8 0d 2b 3e 80 d4 80 3d 48 54 e6 bd ef 8e c5 bd
       0.16704452 0.06290531 -0.11246544 -0.09646403
000130 3b fb 4d be 9c 24 04 be 8a e7 b1 bd 8e ca 1b be
       -0.20115368 -0.1290459 -0.08686741 -0.15213987
000140 93 cf 53 bd 54 e7 d4 3c e1 75 ba bd b5 4f 31 be
       -0.05171163 0.025989212 -0.09104515 -0.17315562
000150 af 28 00 bd f0 8d 18 3d a8 78 9a 3d 73 10 99 3d
       -0.0312888 0.037244737 0.075425446 0.074738406
000160 fd 3a 29 be 60 99 5d 3d
       -0.16526408 0.054101348

bias_hh_l0 f4 [90]
000000 d5 35 aa bd e4 62 0d 3e 33 e6 da 3d 94 44 1c be
       -0.08311049 0.13807255 0.10688438 -0.15260535
000010 1d d9 c8 3d d8 5b 1b be 19 1c b2 bd c5 6e b3 3d
       0.09807036 -0.15171754 -0.086967655 0.08761362
000020 b2 5f 0b be 51 35 f5 3d 1c f2 fc 3c a0 08 bb bd
       -0.13610724 0.1197306 0.030877165 -0.091325045
000030 91 0e 36 bc 5b ff 03 3e a3 54 86 bd 26 cc 08 3e
       -0.011111871 0.12890379 -0.06559112 0.13359126
000040 58 a9 2d 3e 90 e1 56 3a d1 97 e2 bc 81 22 09 3b
       0.16959131 0.00081970636 -0.027660282 0.0020925107
000050 6a df 17 3e 30 76 a0 bd f2 c4 2b 3e bd ba 09 3e
       0.1483132 -0.078350425 0.16774347 0.13450141
000060 47 d8 db bd 17 5c 9e 3d 8c 42 34 bd d7 01 92 bd
       -0.10734611 0.077324085 -0.044008777 -0.07129257
000070 d1 18 a2 bd 2b 60 e3 3d f8 9f 62 3e 03 0a 3d be
       -0.079148896 0.11102327 0.22131336 -0.1846085
000080 5e 52 d5 bc e9 08 06 3e 48 2b 0e be 1a cb 94 bd
       -0.026040252 0.13089336 -0.13883698 -0.07265301
000090 84 08 c1 bc 70 cb a9 bd c5 63 4d 3d 7c c1 80 bd
       -0.02356363 -0.08290756 0.050143976 -0.06286904
0000a0 8b fa 49 3d 0d 84 69 3d 70 85 20 be 6c 3c 08 be
       0.049311202 0.0570107 -0.15675902 -0.13304299
0000b0 c8 f9 0c be 14 9c 47 be bf 2e 82 3e 5a 35 05 be
       -0.13767159 -0.19493133 0.2542629 -0.13008633
0000c0 43 69 8c bd 8e 65 81 3e 98 69 91 bd 82 66 d9 3c
       -0.068560146 0.25272793 -0.071002185 0.026538137
0000d0 e4 e9 f8 ba a5 d9 e3 bc a1 e8 68 bd 29 9f 4c 3e
       -0.0018990603 -0.027813742 -0.056862477 0.1998259
0000e0 10 ee 30 be b6 2f a7 bc f7 79 16 3e 61 c2 b5 3d
       -0.17278314 -0.020408493 0.14694963 0.088749655
0000f0 2b 6b e4 3d 0c 86 b2 3d 7d b7 59 3e 1b ab 58 3c
       0.11153253 0.08716974 0.21261401 0.0132243885
000100 7c fa 26 3d f6 d6 8f bd d9 64 fa 3c 1c 82 81 3e
       0.040766224 -0.070234224 0.030565666 0.25294578
000110 5c 36 55 3d 11 df 23 bd 5e 26 6c bd a5 63 3b bd
       0.052053794 -0.040007655 -0.057653777 -0.045749325
000120 65 98 05 3e e7 ad 63 3d 92 a8 c1 3c 57 e8 5a be
       0.13046415 0.055585768 0.02363995 -0.21377693
000130 e2 c0 d7 bd a8 50 58 be ec 0b 43 bd ea 4c 84 3d
       -0.10534836 -0.21124518 -0.04761879 0.06459983
000140 96 e8 61 3d 5e 47 bb bd d7 ae 5d 3b 4c 3b fe bd
       0.05515345 -0.091444716 0.0033826136 -0.12413654
000150 2b 34 a8 3d 08 9c 8b bd ab a6 2b be b9 c8 de bd
       0.08213075 -0.0681687 -0.16762798 -0.108781286
000160 0f 37 32 3d 05 ee 10 be
       0.04350954 -0.14153297

weight_ih_l0 f4 [15, 30]
000000 e9 c2 b1 be a5 cf 9d 3e 14 ba d8 bd d2 10 3e be
       -0.34719017 0.30822483 -0.105823666 -0.18561104
000010 ea 8b 9e 3d 46 51 8e be e2 2b 36 be ee 68 93 be
       0.0774153 -0.27796382 -0.17790177 -0.28790992
000020 72 9e 87 3e 26 0d aa be 04 a1 32 3e 26 6b a5 be
       0.26488072 -0.33213156 0.17444235 -0.3230831
000030 b6 7e 95 3e 9a 2a cc be 52 4a 82 bc 76 26 97 be
       0.29198235 -0.39876252 -0.01590458 -0.2952153
000040 a6 d0 d3 3e 40 68 d1 3c 2d 38 2a 3e 07 81 86 3e
       0.41370124 0.025562406 0.16622992 0.26270315
000050 78 93 3e 3d 26 ac 26 be 74 7c e9 bd 4f 0c 5b bd
       0.046527356 -0.16276607 -0.11400691 -0.053478535
000060 14 94 20 bd 70 cb c2 3d 00 a8 00 3f 80 e1 14 be
       -0.03920372 0.09511459 0.5025635 -0.14539146
000070 60 ce 2b 3e 40 9d 87 3b f6 3d c3 be 15 44 d5 3e
       0.16777945 0.0041386187 -0.3813321 0.41653505
000080 f4 5c 0e 3e 4c 3c b3 3e fb 4e ec be b8 e3 f7 bd
       0.13902646 0.3500694 -0.46154007 -0.12103981
000090 f4 5b 2a 3d 77 aa c5 bd 08 c7 0b 3e a8 a3 02 be
       0.0415916 -0.09651654 0.13650143 -0.12757742
0000a0 6c 9e 55 3e 3a 39 7e 3e ab 8c 43 3e 70 56 9f 3d
       0.20861214 0.24826518 0.1909663 0.077801585
0000b0 d8 2a 81 be ac fb 44 3e fd f3 78 be b6 7c d3 3e
       -0.25228 0.1923663 -0.24311824 0.41306084
0000c0 12 a6 95 3e be 04 a0 be 4e 69 81 be 00 b9 8e be
       0.29228264 -0.31253618 -0.25275654 -0.2787552
0000d0 1e 24 25 be bc 8a a2 3d ed fc 89 3e ff b9 aa be
       -0.16127059 0.07936618 0.2695078 -0.3334503
0000e0 6a 41 5e 3e c0 77 9e 3b 97 8c fe 3b d8 5e 18 3e
       0.21704641 0.0048360527 0.0077682245 0.1487993
0000f0 0f 93 d7 3e 68 ad 91 3e 8e 46 a9 be 41 3a 61 be
       0.42104384 0.2845261 -0.3306164 -0.21994878
000100 e7 e9 d9 be 71 7f e2 be df 6c 70 be 15 93 09 be
       -0.42561266 -0.44237855 -0.23479031 -0.13435014
000110 73 69 ba be 8a 27 cd 3e 20 2b 8f 3d 18 cc a1 be
       -0.36408576 0.40069228 0.06990647 -0.31601024
000120 9e 8c d2 bd 67 50 03 bd 54 ee 89 be ee 71 a3 be
       -0.10280727 -0.0320591 -0.26939642 -0.3192286
000130 02 46 bb be 70 40 64 3d e0 72 fa bd ec a6 16 3e
       -0.3657685 0.055725515 -0.12228942 0.14712113
000140 80 36 1f be 5a 91 d5 3e 4a 57 bf be 16 ab e9 be
       -0.15548134 0.41712457 -0.37371284 -0.4563834
000150 c2 83 4b 3e a8 14 8c 3d 10 77 06 be b4 13 90 be
       0.1987448 0.06839877 -0.13131356 -0.28140032
000160 af 85 f9 3c a8 22 3d 3e 0f 78 d9 be 03 ec d6 3e
       0.030459253 0.18470252 -0.4247441 0.41976938
000170 f4 35 24 3e ef 8b 3c 3e 43 d3 b1 be bf d3 25 be
       0.16036206 0.18412755 -0.34731492 -0.16194056
000180 58 cd 73 3e cd 3c a7 3d 3c 86 8b be 8a b9 49 3e
       0.23808801 0.08165894 -0.2725085 0.19699684
000190 e0 76 e4 3e 75 78 4d 3e 0c a8 05 3e 0e f3 bb be
       0.44621944 0.20065482 0.13052386 -0.36708874
0001a0 a6 6d c8 3d ec 65 b8 ba 5a 1e e5 3e 0c e5 5c 3e
       0.09786539 -0.0014068461 0.4474972 0.2157175
0001b0 09 8b 48 bd 64 7e 46 3e 10 67 3d 3e 34 3a ae bd
       -0.04896072 0.19384152 0.18496346 -0.08507195
0001c0 9d f6 cc bd 28 b7 51 3d 82 75 ce be 2f 36 86 be
       -0.10007975 0.051200062 -0.40324026 -0.26213214
0001d0 81 d2 c8 be 5b 96 4a be 45 3b c9 3e d0 9c d9 3c
       -0.39223102 -0.19783919 0.39303032 0.026564032
0001e0 bd 87 55 be ac 3e 16 be 6e c9 e3 3e 72 2e df be
       -0.20852561 -0.14672345 0.44489616 -0.43590122
0001f0 8f 51 cb bd 4c dd e0 be 71 cf 25 be c8 ee 21 3c
       -0.099276654 -0.43918836 -0.16192414 0.00988359
000200 78 19 41 3e 2b 28 db be 26 19 41 be 0a e4 8e bd
       0.18857372 -0.42804083 -0.1885725 -0.06977089
000210 c1 dd bc 3e de cc 94 be c1 1c 1f 3e e4 cc b9 be
       0.36887935 -0.2906255 0.15538312 -0.36289132
000220 4f f0 c7 be 28 10 b7 3e 88 aa 96 bd 8b 5c 5a 3e
       -0.39050528 0.35754514 -0.07356745 0.21324365
000230 c2 18 91 be d3 1a b2 be 6a 89 d3 3d 72 19 d5 3e
       -0.283392 -0.3478609 0.10328944 0.41620976
000240 c8 81 21 3d 96 d8 82 3e f7 ba 6c be 70 c5 da bc
       0.03943041 0.25555867 -0.23118196 -0.026705474
000250 f3 c8 50 3e 54 e0 07 3e 5f 5f 15 be c7 75 04 3e
       0.20389156 0.13269168 -0.14587162 0.12935553
000260 a8 f6 ce 3e 3e a3 cf 3e f6 d3 40 be db ed 92 be
       0.4042256 0.4055423 -0.18830857 -0.28697094
000270 4c 8a 0f be 73 e5 2c be 00 e4 67 3c 13 e1 fb be
       -0.140176 -0.16884403 0.0141534805 -0.49195156
000280 ac 81 fb bd 36 1d 76 3e 6e 8f 8e 3e e7 8e dd bd
       -0.12280592 0.2403458 0.27843803 -0.10818272
000290 16 2f da be 14 b0 ab be 29 5c 7b be c0 59 b8 3d
       -0.4261405 -0.33532774 -0.24546875 0.090014935
0002a0 69 50 99 3e db 34 06 3e 49 34 d0 be 10 8b 80 3d
       0.2994416 0.131061 -0.4066489 0.06276524
0002b0 ec 89 d6 bd 15 9a ad be 27 f6 5a be 08 f7 29 3e
       -0.10475525 -0.33906618 -0.21382962 0.16598141
0002c0 41 ca a1 3e 40 8a 4f bd 10 eb ae be 20 21 ba bd
       0.3159962 -0.050668955 -0.34163713 -0.09088349
0002d0 a3 54 d1 bd 8e e5 0c 3e 28 ae a7 3e 1c 78 21 3e
       -0.10221221 0.13759443 0.32750058 0.15768474
0002e0 61 ac 8c be 59 4b ac 3e 82 a6 e2 3d 77 87 47 be
       -0.27475265 0.33651236 0.11066915 -0.1948527
0002f0 a0 89 57 bc 79 bb 6d be 04 27 4e 3e a5 d2 47 3d
       -0.013155371 -0.23216046 0.20132071 0.04878487
000300 29 21 e4 be 8d 7d 37 3e 3f 7f cf 3e a7 a1 f7 3d
       -0.4455655 0.17918988 0.4052677 0.120913796
000310 84 cd 4d be 00 96 48 bc 21 17 a5 3e 06 26 d1 3e
       -0.20097929 -0.012242794 0.32244208 0.40849322
000320 48 1b 45 3e c8 09 0a 3e 8c 11 9d 3e ef 7f a7 be
       0.19248688 0.13480294 0.3067745 -0.32714793
000330 90 58 cc be 24 73 c5 3e 75 3a de bb 5c c3 9d 3e
       -0.39911318 0.38564408 -0.006781871 0.3081311
000340 9e 6a a2 3e 30 0f 0d 3e 27 28 87 3e de 67 59 bd
       0.31721967 0.13775325 0.2639782 -0.05307757
000350 e8 e8 e8 3d 79 4d 19 3e f0 6d bf 3e dd 4b 7e be
       0.11372548 0.1497096 0.37388563 -0.24833627
000360 9d 0e a8 be 14 49 a5 be 22 e9 a7 3e 72 62 bd be
       -0.3282365 -0.32282317 0.32795054 -0.3698917
000370 50 23 e0 be 1b 89 de 3e 03 7a 4f 3e a8 6d 0b 3c
       -0.4377694 0.43463978 0.20261388 0.008510031
000380 72 dd a4 be e0 76 ed 3e bd 22 cb be c4 fd d4 3e
       -0.322002 0.46379757 -0.3967494 0.41599858
000390 06 f6 94 3e f3 de 8f 3e 3a d9 d2 3e 80 81 d7 bc
       0.2909395 0.28099784 0.41181356 -0.026306868
0003a0 ef e2 85 3e 33 ce 80 3e 51 94 2d 3e 20 97 85 3c
       0.261497 0.25157318 0.1695111 0.016307414
0003b0 85 a6 bd bd 98 34 14 3d 55 2e f8 be 60 b6 91 3e
       -0.09260277 0.03618297 -0.4847285 0.28459454
0003c0 3e 1a 8c bd db 6c 6a be 34 61 7b 3e 1c 52 19 bd
       -0.06840943 -0.22893088 0.24548799 -0.03743182
0003d0 b4 8c b7 be a7 ae 16 be ca 8a 1f bc 8a 2c 6b 3e
       -0.35849535 -0.14715062 -0.00973768 0.22966209
0003e0 f2 96 e0 3e 72 d6 7c 3e aa d1 c1 be f7 6c 88 3e
       0.43865162 0.2469118 -0.37855273 0.26645634
0003f0 4d ba 5f be 08 a5 85 be 0f 92 19 be c9 d8 f6 bd
       -0.21848412 -0.2610247 -0.14997123 -0.12053067

weight_hh_l0 f4 [15, 5]
000000 19 8b e8 bd af 2b 7b 3e ea 64 10 be 0f 5c 89 3e
       -0.11354656 0.24528383 -0.14100996 0.26828048
000010 4a ce de be 39 be 90 3e 06 95 8b 3e 65 99 94 bd
       -0.4351676 0.28270128 0.27262133 -0.0725582
000020 c9 65 75 be 93 82 b3 3d 2d 10 40 3e 28 dc 15 be
       -0.23964609 0.087651394 0.1875617 -0.14634764
000030 70 4b 84 3e b1 6b a7 be 6f 6d cd 3e e6 2e 94 3e
       0.25838804 -0.3269935 0.40122554 0.2894203
000040 7b 44 9d be 75 38 cf 3d 9c 7d 4a 3e 11 69 ca bd
       -0.3071631 0.1011819 0.19774479 -0.09883321
000050 56 e9 db bc 41 e9 b1 bd 83 49 16 3e b1 1a 4c b9
       -0.026844662 -0.08687068 0.1467648 -0.000194649
000060 02 dd 75 be 4a ce 9a be 79 f4 c5 be e5 42 eb bd
       -0.24010089 -0.3023551 -0.3866308 -0.114873685
000070 d4 30 c6 bd 47 08 4b 3e 9a 39 0e 3e 99 6f 29 bd
       -0.09677282 0.19827376 0.13889161 -0.041366193
000080 f6 e7 5a 3e 11 f3 87 3e 8b 31 f7 3e 61 84 01 3e
       0.21377549 0.26552632 0.48279986 0.12648155
000090 51 1f ed be af e8 59 be 5c 37 06 3d a0 e6 10 3e
       -0.46312955 -0.21280168 0.03276764 0.14150476
0000a0 88 40 ce be f7 f5 4a be 47 eb 5c 3e da 06 80 3b
       -0.40283608 -0.1982039 0.21574126 0.003907067
0000b0 97 96 c8 3e b0 da 15 be 95 66 97 be 18 23 82 3e
       0.3917739 -0.14634204 -0.2957045 0.254174
0000c0 b6 fe 1e be 25 54 6b be 6a 1b 69 be c6 d8 71 be
       -0.15526852 -0.22981317 -0.22764364 -0.23617849
0000d0 20 72 fd 3b bd 3a 4a be 10 85 c9 3e 62 db 8e bc
       0.007734552 -0.1974897 0.3935933 -0.017438594
0000e0 5b 2c 56 be 9d 00 bb be 3e 10 9c 3e c9 bf 93 be
       -0.20915358 -0.36523905 0.30481142 -0.28857258
0000f0 77 47 91 3c 49 65 95 bd 71 29 04 bc 83 8c 68 be
       0.017734272 -0.07294709 -0.008066521 -0.22709851
000100 ac ca 76 be 86 f8 f1 3c 4c 73 ac 3e 58 f7 29 3e
       -0.2410075 0.02953745 0.33681715 0.1659826
000110 c2 38 fa bd 7d f8 fd be 5e a2 7a be a6 29 3d 3d
       -0.12217857 -0.49603644 -0.24476 0.046182297
000120 28 bd 44 be c7 c8 92 be 5c 03 aa 3e
       -0.19212782 -0.28668806 0.33205688

bias_ih_l0 f4 [15]
000000 c8 73 94 3e 25 6a d4 3e a8 30 73 3e 85 de a2 be
       0.28994584 0.41487232 0.2374903 -0.31810394
000010 6d 0f 37 bd b2 ba 62 be 18 10 bb 3e 12 10 bc be
       -0.044692446 -0.22141531 0.36535716 -0.3673101
000020 ab 88 03 bc a4 76 8b 3e 80 a2 ca bd 09 54 d5 bd
       -0.00802819 0.27238953 -0.09894276 -0.10416419
000030 0b a9 0b be 2a b1 ed be 36 9d a6 be
       -0.13638704 -0.46424228 -0.32541817

bias_hh_l0 f4 [15]
000000 90 fd 64 3e 91 96 cf bc fc 2a da be c6 b0 da 3e
       0.22362351 -0.02534035 -0.4261092 0.42712992
000010 79 c8 e8 3d 10 18 86 3e e1 b5 15 be d3 bb 31 be
       0.11366362 0.26190233 -0.14620163 -0.17356806
000020 6f 67 94 be f9 c2 52 3d 96 3a 2b be 68 ce 9f be
       -0.28985164 0.05145547 -0.16721568 -0.31212163
000030 c6 50 a2 be 50 c5 be bd 64 4d 84 be
       -0.3170225 -0.09314978 -0.25840294

weight f4 [8, 150]
000000 ee 7f e4 3c 39 9b f2 3c fa 09 7b bc cd b0 84 bc
       0.027893033 0.029615032 -0.015322203 -0.016197586
000010 a4 63 9b 3c 59 52 05 3c 79 66 86 bc 73 a6 a1 bc
       0.01896841 0.008137309 -0.016406285 -0.01973269
000020 aa c5 23 3c 61 79 0e 3d 93 58 d7 3c 30 f9 30 b8
       0.009995857 0.034783725 0.026287353 -4.2193744e-05
000030 f8 34 f1 bb 5a 98 50 bd 9d 32 13 bc dd c2 f8 bb
       -0.0073610507 -0.050926544 -0.008984235 -0.007591589
000040 1f eb b1 bc f5 08 23 3c f8 e5 8c 3c 6b 1c 1d 3d
       -0.02171856 0.009950866 0.017199501 0.03835718
000050 08 24 3c bc e7 e2 a7 bc cc fb 47 3c 20 e1 5e bc
       -0.0114832 -0.020493938 0.012206029 -0.013603479
000060 2a 3b 64 3a 45 64 21 3c 88 ce f4 bb e8 c1 33 bc
       0.0008706326 0.009850566 -0.0074709095 -0.010971524
000070 48 da a2 bc 0c 70 6a 3c a0 0c 7f 3c e4 25 97 ba
       -0.019879475 0.014308941 0.015566975 -0.0011531678
000080 6b fc 0a bd 02 17 ce bb 06 4b 1d 3d 5d 2c bc ba
       -0.03393213 -0.006289364 0.038401626 -0.0014356483
000090 5f 29 10 bc 6e 53 d9 3b 86 68 20 bc 4e 30 72 3c
       -0.008798926 0.00663226 -0.009790545 0.014782025
0000a0 19 f3 71 3b f7 b3 82 3c bc 7c c1 3a d1 bd cf bb
       0.003691858 0.015954955 0.0014761905 -0.0063397666
0000b0 e1 1a 75 3b 1c 2e 50 bc 68 f9 b2 3c 87 1f fc bb
       0.0037400054 -0.012706306 0.021847442 -0.007694188
0000c0 5b 9e 8a bb de b1 10 bb 89 c5 04 ba d7 50 74 3b
       -0.004230303 -0.0022078673 -0.00050648354 0.003727963
0000d0 2c e9 a3 3c bd 73 aa bc 96 39 ef ba be e1 2c bc
       0.020008646 -0.020807141 -0.0018251415 -0.010551868
0000e0 ad c8 ee bc 37 bc c9 bb 8d 23 cf ba a2 2b e9 bc
       -0.029148424 -0.00615647 -0.0015803442 -0.028463189
0000f0 79 0c a8 3c 01 ba 34 3b c0 aa 6f 3c 00 ba ef 35
       0.02051376 0.0027576687 0.014628112 1.7861021e-06
000100 ee ad 17 bc a1 0e 9a bc 15 40 20 3c fb 5d 94 3b
       -0.009257777 -0.018805804 0.009780903 0.004527805
000110 5b 2a 07 ba ed 3d d6 bc f9 3d 32 bc f5 c3 c3 bb
       -0.0005156153 -0.026152575 -0.010879033 -0.0059742876
000120 86 47 bd 3b c4 01 a9 3b 91 5f 7b 3b 95 1b 60 ba
       0.0057763485 0.005157681 0.0038356523 -0.0008549032
000130 3c c6 9a bb 1d ca 65 bc b1 1b 28 bc 2e 7c 11 3c
       -0.0047233384 -0.014025238 -0.010260508 0.008879704
000140 69 4d 01 bd 04 21 14 bc 81 b8 55 bc b8 3b 85 bc
       -0.031567965 -0.009041075 -0.013044477 -0.016263828
000150 e8 77 22 3c 63 09 39 3c f0 af 02 ba e2 ce 33 bd
       0.009916283 0.011293742 -0.0004985323 -0.04389847
000160 da 30 46 bc 3b 5a 75 3c 2b 0d 9d 3b fe ad 21 bc
       -0.012096608 0.014975126 0.0047928295 -0.009868143
000170 b1 8d 0f bd f2 c5 e5 3c 8b d3 e7 3c 86 71 d3 3b
       -0.035047237 0.02804849 0.028299114 0.006452742
000180 18 56 6c 3a ee 95 c5 bb 02 78 82 3a 3c da e6 3b
       0.00090155145 -0.006029836 0.0009953978 0.0070450585
000190 f2 21 b4 bc a9 88 0c bc 0e 0e d0 bb ad 92 df ba
       -0.021988843 -0.008577504 -0.0063493317 -0.0017057263
0001a0 c0 d4 d8 3b 62 8f 88 bb 4b 0f a0 3c 0f 55 c5 3b
       0.0066171587 -0.004167483 0.019538542 0.0060221027
0001b0 eb 21 be 3b 8a 5d 6b bc 36 a6 0f bd 69 7d a9 bc
       0.005802383 -0.014365563 -0.03507062 -0.020689683
0001c0 9a bb 86 3c 47 00 17 bc 25 a7 22 bc d0 bb 80 3b
       0.016446877 -0.009216375 -0.009927546 0.003928639
0001d0 1a c5 bb 3c 67 84 26 3c f5 3e 82 bc 79 5c a3 bc
       0.022921134 0.010163403 -0.01589916 -0.019941555
0001e0 fb 38 d5 bc ce d8 e9 38 e2 08 26 b9 62 01 3b bc
       -0.026028147 0.00011150689 -0.00015834303 -0.011413904
0001f0 a5 f4 be bc 15 96 98 3b e1 19 80 3a f5 1d 65 3c
       -0.023310015 0.004656563 0.0009773338 0.013984193
000200 de a0 c3 3c bf 24 e9 bc 00 39 03 bd be 5e a9 3c
       0.023880418 -0.028459905 -0.03203678 0.02067506
000210 55 d4 37 bc 61 7f b8 bb 86 46 95 bc 38 e3 7d 3c
       -0.0112200575 -0.005630419 -0.018222105 0.015496068
000220 8e 4c 40 3c a8 ba 74 bc b4 49 25 3b 2e 30 f8 3b
       0.011737002 -0.01493708 0.0025220932 0.007574103
000230 79 a3 dd 3c cf 3a c1 3b fb 56 77 bc fe 26 5a bb
       0.027055489 0.005896903 -0.015096421 -0.0033287401
000240 12 76 c4 3c b7 40 7f bc 6a a7 de bb 14 57 2b bd
       0.023982082 -0.015579394 -0.0067948597 -0.04183109
000250 9a 8a 86 3b 59 dd dd 3c fa 51 ff 3b 50 ab 38 3c
       0.004105878 0.027083086 0.007791755 0.011271313
000260 84 04 4b 3c e8 6a d8 bc f2 88 46 3c 58 a1 8e bd
       0.012391213 -0.026418164 0.012117611 -0.06964368
000270 59 33 29 bd a3 ec 09 3d 29 15 54 3d fd c1 18 3c
       -0.041308735 0.03367294 0.051777992 0.009323594
000280 42 e3 b4 3d 2e 8e 69 bc 40 7f 32 3c a6 6f 89 3d
       0.088324085 -0.01425509 0.010894597 0.067107484
000290 d5 88 81 3d 5b 98 83 3d 1b d2 ad bd ab 82 34 bc
       0.06324927 0.06425544 -0.0848734 -0.011017482
0002a0 9d 09 26 bd 4c f9 0c 3d be 34 89 bd 88 39 e5 38
       -0.04053651 0.034417436 -0.06699513 0.00010930287
0002b0 e7 c4 3f bd 91 cc 60 3c 2e e4 b0 bc 84 fc 37 3d
       -0.04681864 0.013720647 -0.02159318 0.044918552
0002c0 d8 12 5a bc cc bd b4 3c b5 c1 f5 3b 69 f1 14 3d
       -0.013310157 0.022063158 0.0074998983 0.03636304
0002d0 57 9d c4 3a 06 15 90 bd d9 76 5e 3d 0e ff ba bc
       0.0015000504 -0.0703526 0.05431256 -0.022826698
0002e0 f7 c3 28 bd af d2 03 bd a1 0b 4a 3c 08 d5 a7 bc
       -0.04120251 -0.032183345 0.012331874 -0.020487323
0002f0 cd 73 90 3c 2f ff 03 bd 0e 1d 21 3c c5 73 a5 bc
       0.017633343 -0.032225784 0.009833587 -0.020196805
000300 3d 9f 1a bd 21 7a 12 3d 19 c8 0e 3d e1 3a b2 3c
       -0.037749518 0.035761002 0.034858797 0.021756591
000310 eb e8 f1 bc ad 03 0c 3c ba f6 35 bd 89 55 05 3d
       -0.02953001 0.008545798 -0.04442475 0.032552276
000320 c2 e5 bc bc 25 bc 75 bb a1 e5 c1 ba 75 9c 56 bc
       -0.023058776 -0.0037496176 -0.0014793166 -0.013098826
000330 18 e4 05 3d 3b f2 a6 bc 87 b4 32 3d 3d d1 98 bc
       0.03268823 -0.020379176 0.043629196 -0.01865446
000340 cb df 07 3d f5 59 7e 3c a4 08 73 bc 54 98 4f 3d
       0.03317241 0.015524377 -0.014833603 0.05068238
000350 dd ac bb bc 44 a3 3f bc b2 16 24 3c c3 a8 92 3c
       -0.022909576 -0.01169664 0.010015177 0.017902737
000360 a7 df 8a bd b8 5e 1a 3d ff 3e cf ba 9d 19 b2 bc
       -0.067809395 0.037687987 -0.0015811621 -0.021740729
000370 cd cb e5 3c 83 51 a4 bc f1 0f 65 3b 71 3e a4 bc
       0.028051281 -0.020058399 0.0034952129 -0.020049306
000380 a2 bd 4d bb e5 21 3c bd a6 68 bb ba 99 ab 43 3d
       -0.0031393548 -0.04593076 -0.0014298155 0.04777107
000390 08 79 67 bd 83 d1 98 bc b7 37 31 bc 3a 5a 54 bc
       -0.05651191 -0.01865459 -0.010816506 -0.012960965
0003a0 a6 af db 3c 97 e6 59 bc e5 03 4d bd c5 d6 0e 3b
       0.026817154 -0.013299606 -0.050052542 0.0021795493
0003b0 c9 d1 6f bd 73 31 3b 3d 4b 30 82 bc 08 21 3e bc
       -0.058549676 0.045701455 -0.015892169 -0.011604555
0003c0 5f fa e3 3c b9 4b 34 bd db 1e c6 ba f7 1d 32 3c
       0.027829347 -0.044017527 -0.0015115397 0.010871402
0003d0 2a 6f 5b bd 20 05 13 3d 46 31 85 3a 83 7c 33 bd
       -0.05357281 0.03589356 0.0010161779 -0.043819916
0003e0 a6 3a e5 bc db fe d4 3c 31 ef bb 3c 36 25 07 3d
       -0.027982067 0.02600043 0.022941204 0.03299447
0003f0 34 1f f1 3b 6c a3 1b bd 16 42 bd 3c 92 e3 54 3c
       0.007358456 -0.037997648 0.023102801 0.01299371

bias f4 [8]
000000 f7 20 43 bd a1 8b 46 3d 94 7c 68 bc 46 64 61 bd
       -0.04763886 0.048473004 -0.014189858 -0.05502727
000010 33 b9 41 bd db 06 3b 3d 38 c3 14 bc 63 28 5e 3d
       -0.04729576 0.045660835 -0.009079747 0.054237735

weight f4 [1, 24]
000000 39 72 21 3d 3b 46 b3 bd bd 88 c3 bd 23 56 0a be
       0.03941557 -0.0875363 -0.09547565 -0.13509421
000010 c7 12 b0 3d cf 9b e8 bc b7 87 f3 3d 9d 3b c2 bc
       0.085973315 -0.028394608 0.1189112 -0.023710066
000020 7a 09 aa bd 97 80 c8 bd d6 c3 9d 3d e0 af 9f 3e
       -0.08302589 -0.097901516 0.07703368 0.3118887
000030 99 29 5d 3e b4 d0 bb bc 78 c4 01 3e fa f6 f6 3d
       0.215979 -0.022926666 0.12672603 0.12058826
000040 f2 45 c5 bd 96 91 2a 3d 75 e5 ae bd 1c a7 1e bd
       -0.09632482 0.041642748 -0.08539859 -0.038733587
000050 af 51 0a 3e a3 e8 53 3c 41 13 0b 3e c5 39 be 3e
       0.13507722 0.012933883 0.13581564 0.3715345
