model_files/LSTNET/lstnet_model_hor_120_win_35_skip_1.pt (torch, 36780 bytes, 13 tensors)

weight f4 [30, 1, 6, 8]
00000000: bf38 72bd a816 6b3d fd98 b0bd 46e0 86bd
00000010: 4c67 d1bb 2411 82bd a4b2 813d 920b 82bd
00000020: f6f1 b43d 714a acbd 7b19 f93d 4c6c 043e
00000030: 6f30 cf3a e34e ccbd 2d05 0cbe fd7b cf3d
00000040: 6d75 b03c e1ef c03d 5578 033e b5eb 95bd
00000050: 29ce 73bd 50e3 bf3d 89dd debd cb2d 3abd
00000060: 5296 06be f8f9 27bc 8d6f 813d cd31 1cbe
00000070: 8579 943d acf3 fd3d e9ad 5c3d 5237 04be
00000080: 9616 d83d 313a 6d3d 84e1 333b 75f4 203d
00000090: e36b 0a3d aa23 23bd 183b 433c af25 a53d
000000a0: 2c90 833d 85fc 18be 315e 883d f691 1c3d
000000b0: 4129 2c3d 846e 4ebc 5c25 95bd 0691 f0bd
000000c0: ff96 343e 986a 0d3e 9abb 643d 9739 0e3e
000000d0: b3e4 0f3e fbf9 7d3a 4434 503c dd1c cf3d
000000e0: 190c 1a3e 74e1 1f3d 3ab3 e63d 7bb1 443d
000000f0: 98f0 ac3d 0db0 873d f53f 153e 0cef 813d
00000100: b4e4 8cbd 734c cebd f893 4cbd ba5f c43d
00000110: 0564 c33b 7191 38bd e9a9 083e 67fd 2b3e
00000120: cd08 5f3d a5c4 8dbc e992 2cbd 6c46 1fbd
00000130: 3b35 88bd 223b f0bd 7931 283e a64b 643c
00000140: f828 94bd 49e4 2f3d f05a 173e c8fb d13d
00000150: 14eb 03bd d7a4 f6bd 050f ba3d 2e81 273e
00000160: ea73 e93d 7933 d93d 6390 653d 9160 163e
00000170: 6665 203e 2d79 35be 53c5 25bd b9e2 df3d
00000180: 5ab9 9fbd 084c 223d 240f 883d 2ad3 b13d
00000190: 16a9 2abd 402f 293c 6041 823c 2b89 00be
000001a0: 407e 49bb c803 143d 3637 073e 44de e53d
000001b0: b672 a5bd fc48 ff3d 20c3 b4bc c4bf cd3d
000001c0: 3cac b13d 729a 36bd 989a a4bd 88e0 86bc
000001d0: 9084 223d 38b8 99bc f1ee 00be e546 0fbe
000001e0: aa2c 56bd d041 353c 185e e7bd 8663 00bd
000001f0: d4bc 8e3d 5a9c 64bd 10a3 c63d 8055 22bb
00000200: 9220 06bd 7e45 abbd 0aa7 09be 1a63 74bd
00000210: e864 953c 00ec 323a 884d e53c 6885 8a3c
00000220: 0670 15bd 40bd ad3c a004 55bd a0aa 6e3c
00000230: 2410 963d 2b97 80bd 7834 ac3c 1b9d 09be
00000240: b5be 943d 29df 443d 81ce 0dbe 1a65 963d
00000250: f4fb 72bd 5c72 9ebd dc1e 993d fcf1 bebd
00000260: 4e1d c5ba 663b 053d ed2e f4bd ab71 993c
00000270: 27dc 9f3d 39c0 243e b932 d2bd 4a26 bb3d
00000280: 70de 073e e345 52bd c77d 183d df9c ef3c
00000290: e77a 113e 1319 c53c fcbb 623b 5b02 883b
000002a0: 94ce 99bd a86d 81bd 9d30 e53d fe6c 4abd
000002b0: e2e5 c8bd 5a0d 81bd f14f a73d 0ba4 cd3d
000002c0: a767 9b3d 3412 edbd f6f7 ee3d fae7 e93c
000002d0: f01c 593b 2a3a 0ebe 8f6e 1a3d 88b3 5dbd
000002e0: cabc 3f3d fbc0 44bd c39d ae3c 4976 a53d
000002f0: 87e6 b13c c6ba cdbd 63de ca3d aa5d 0dbe
00000300: d6b2 0bbe 2f06 9ebd b047 d3bc 2027 b13b
00000310: 6c72 07be 881a 8e3d 083e 003e 6cbb e9bc
00000320: 0050 36ba 1ff8 aabd 60b1 893b 4864 a13c
00000330: a8fa 853d 627f c2bd 7a51 79bd e1a5 fcbd
00000340: d032 413d e8ca 303d 149b 51bd 8c7b a1bc
00000350: a6ae 973d 0a02 e0bd 00a8 8fb8 b2c7 f7bd
00000360: c0aa 903b 27d5 8fbd 241f ec3d 80cf c03c
00000370: 446c 063e f605 ebbd dd86 edbd 2080 883d
00000380: c0b6 da3b 00a0 053b 8a24 03bd fec2 013e
00000390: f0a2 d83c 401d 9e3d de42 003e 6ca1 eabc
000003a0: 0ce7 8e3d c0ac ba3b 2095 f03d 09d3 f7bd
000003b0: c844 993d e03b 163c 8033 9eba 848b f3bd
000003c0: 8cef 223d 7959 d9bd 49ff 9fbd 40e7 14bc
000003d0: 63a2 babd 20e1 89bb 9adf 7fbd 00fa 98bc
000003e0: faf0 b6bd ae06 b73d b0d4 893d a8be 1cbd
000003f0: 4611 d83d 1a53 823d d40c 8abd e61e 0abd
-0.05913615 0.057394654 -0.0862293 -0.065857455 -0.006390488 -0.063509256 0.06332901 -0.06349863
0.08835213 -0.08412636 0.12163063 0.12931937 0.0015807281 -0.09975984 -0.1367385 0.10131071
0.021540368 0.09420753 0.12838872 -0.07320348 -0.05952278 0.09369528 -0.10882098 -0.045453828
-0.1314328 -0.010252468 0.06320105 -0.15253372 0.072497405 0.12399992 0.05387679 -0.12911728
0.10551183 0.057916824 0.002744765 0.039295632 0.033794295 -0.039828934 0.0119159445 0.08063828
0.06423983 -0.14940079 0.066585906 0.038225137 0.04203153 -0.012599591 -0.07282516 -0.11746411
0.17635725 0.13810194 0.055842973 0.13889156 0.14052086 0.0009688434 0.012707774 0.10112927
0.15043677 0.03903337 0.112646535 0.04802082 0.08444327 0.06625376 0.14575179 0.06344423
-0.06879559 -0.10073175 -0.0499458 0.09588571 0.005962851 -0.04506058 0.13346066 0.16795884
0.054451752 -0.017305681 -0.042132292 -0.03888552 -0.06650778 -0.11730029 0.16425122 0.013934052
-0.07234377 0.04294232 0.14780784 0.102531016 -0.03220661 -0.120431595 0.09084896 0.16357872
0.11399062 0.10605521 0.0560459 0.14685275 0.1566368 -0.17722006 -0.040471386 0.10931916
-0.07799025 0.03962329 0.06643513 0.086828545 -0.04166516 0.010326207 0.015900314 -0.12552325
-0.0030745417 0.03613642 0.13204655 0.112240344 -0.0807852 0.124650925 -0.0220657 0.10046342
0.08675429 -0.044580884 -0.08037299 -0.016464487 0.039677203 -0.0187646 -0.12591149 -0.13991888
-0.05228869 0.011063054 -0.11297244 -0.031344913 0.0696961 -0.05581317 0.096990705 -0.00247702
-0.032745905 -0.08362864 -0.13442627 -0.059664823 0.018236592 0.0006825328 0.027991071 0.016909316
-0.036483787 0.021208405 -0.052006364 0.014567047 0.07327297 -0.06278833 0.021021113 -0.13438837
0.07262937 0.048064385 -0.13848306 0.07343502 -0.059322312 -0.07736656 0.07476589 -0.093234986
-0.0015038641 0.03252735 -0.11923013 0.018730959 0.078056626 0.16088952 -0.10263581 0.091381624
0.13268447 -0.05133618 0.037229326 0.029249607 0.1420704 0.024059808 0.003459691 0.0041506714
-0.07510105 -0.063197434 0.11190913 -0.04942035 -0.09809472 -0.06301375 0.081695445 0.10041054
0.075881295 -0.115757376 0.116683885 0.028552998 0.003312882 -0.13889375 0.037703093 -0.054126292
0.046810903 -0.048035603 0.021315461 0.08079202 0.02171637 -0.1004539 0.09905698 -0.13805261
-0.13642439 -0.07716023 -0.02579102 0.0054062754 -0.13227242 0.06938654 0.12523663 -0.028531753
-0.000695467 -0.083481066 0.004202053 0.019701138 0.065419495 -0.094969526 -0.060868718 -0.123363264
0.0471676 0.043162256 -0.051173285 -0.019712232 0.074063584 -0.10937889 -6.850064e-05 -0.12098636
0.0044148862 -0.070230775 0.11529377 0.023536444 0.13127238 -0.11475746 -0.11597989 0.06665063
0.0066746175 0.0020389557 -0.03201727 0.1267204 0.026444882 0.07720423 0.12525508 -0.028641425
0.069776624 0.005696863 0.11747193 -0.12100799 0.07483822 0.009169549 -0.0012069792 -0.11891845
0.03977923 -0.10612769 -0.07812364 -0.009088337 -0.09113004 -0.004207745 -0.062469102 -0.018673897
-0.089326814 0.08936821 0.0673002 -0.03826776 0.1055017 0.063635066 -0.06740728 -0.033720873

bias f4 [30]
00000000: 26fc 1abe a5b5 393e d087 b8bc ed82 943d
00000010: 8e36 0ebd e0f3 bdbb 0340 fbbd 8e83 bfbd
00000020: 16a4 cd3d be1c b23d c9cb 8fbc ce48 533e
00000030: 538a 7e3d 6029 283d f6fc 26bd c72b bdbd
00000040: e363 babd f8b8 eebd 0261 163d 8842 54bd
00000050: b73d a4bd ce02 a2bd 4596 4b3d 7214 123e
00000060: 9406 10be 1135 3a3b 22c7 7a3d 5813 0e3d
00000070: 4dbd 1dbe cddf b0bd
-0.1513525 0.18135698 -0.022525698 0.072515346 -0.034719996 -0.0057968944 -0.12268069 -0.09351264
0.100410625 0.086968884 -0.017553227 0.20633242 0.062143635 0.041055083 -0.040768586 -0.092368655
-0.09101083 -0.11656374 0.036713608 -0.05182126 -0.08019584 -0.07910691 0.049703855 0.14265612
-0.1406501 0.0028412978 0.061225064 0.034686416 -0.15404244 -0.086364366

weight_ih_l0 f4 [90, 30]
00000000: d790 2abe ba22 0bbe 6c61 023e bd42 3abe
00000010: 622a 303e 0a37 0a3e 9a9a 72bd 88f1 b53d
00000020: a06e fd3b 1496 363e 16c5 cbbd 0e3f 3a3e
00000030: 039f d3bc b4b3 09bd ce41 1b3e a4e1 193e
00000040: 34a8 c23d a030 c83b 8ea3 0a3e 72be 2e3e
00000050: 6282 193e 2d3c f2bd e0ac c33b cbbd 1dbe
00000060: b8fb 173e 4086 553c fae0 51bd 9888 b3bc
00000070: d0a4 42bd 906e 6b3d dda2 893d 6875 063d
00000080: bac3 303e b387 613d 801f 83ba a07a d33c
00000090: f011 bd3c 449e 7b3d 54ef 85bd 4882 bf3d
000000a0: eb5e 793d 261a 503c d864 16b9 32c1 07be
000000b0: c1bd 0a3e 047f 4d3e 1a75 343e a2d7 95bd
000000c0: f0a3 373d 4aec 033e 1492 8e3d 044c d73d
000000d0: 96d4 073e 087c 003e bdc3 cebd 79c3 be3b
000000e0: 7de3 ffbc 47a7 e2bc 47db 0dbe ef99 da3c
000000f0: b090 a8bd 2411 063e 681d 2bbe 34db 8f3d
00000100: b492 17bd 604a a8bb de26 05be 0765 05bd
00000110: b887 89bd 3002 33bd cb3d 44be 15cc 18bc
00000120: cd9f 91bc 6079 43bc 2cfc 30be 82fd bd3d
00000130: 9045 153a 427c 3a3e 9928 e4bd 2164 2cbe
00000140: 5841 aebd b689 07be a6f3 03be 380c 463d
00000150: ce42 ccbc edd7 45bd 9895 973b ef27 4ebd
00000160: 374c 04be a919 343e a9fc 25bd c9bb 383e
00000170: 4a76 223e 526a 23be 8081 8a3d 80eb b33b
00000180: 2086 e33c d647 0ebe 6271 bcbd 20fa 103c
00000190: 47b1 153d 73ac be3c d44e 0dbe 1010 de3d
000001a0: 048d 3e3d 035e f4bd 11ed 11bd 002b a8bc
000001b0: adf4 a03b 8429 943d 1495 0abd dc4a 8a3d
000001c0: 20cf 63bd 90d7 7f3c a8ea c7bd 4ff0 c0bd
000001d0: 2b07 193d 3584 40bd e8c4 afbd c655 d63d
000001e0: 339a f5bd 2de3 ce3d 0880 513d 1f11 a4bd
000001f0: 7b1e c2bd 25ca b1bd d025 a13d cb67 203e
00000200: 0011 99bb c4f3 293d fe7e 2cbd e5eb 16bd
00000210: 7177 23be 344f d4bd 8ce6 15be cbb7 563d
00000220: 22f5 39be 1bb8 26be dbdf c93d 90d4 ed3d
00000230: 48ba a83c 4f44 f4bd edd5 e2bd 3c15 fe3d
00000240: ffc0 043e 855f 143e 9c45 fbbc 0eda 17be
00000250: 4d58 bbbd a0bb 0ebe 63b8 6fbd cc04 d1bd
00000260: 1406 07bd e7ef 9bbd 3cb0 263e 14e0 223e
00000270: 7dea 1bbe 5e9f 013e 4f53 2ebe 600c 1b3e
00000280: ba0b d43d 10d1 fabd 4a11 c53d d0cd c7bc
00000290: 23c4 c6bd 87c1 e3bd 132c 3d3e 215e 06be
000002a0: 3c3f 333b 7838 0b3d 7a04 09be 8276 ebbd
000002b0: b86a 1ebe 409d 4e3b b077 e43c d993 0c3e
000002c0: 0427 e3bd 34a4 cabd 094e d73d d235 413d
000002d0: 6896 30be 18c1 a63c e043 4abc 8641 f83d
000002e0: f6a3 183e f837 8d3d c0e8 553d 33d9 063e
000002f0: 1ec8 263e 7c9a 8f3d 75fb 48bd 3f82 1ebe
00000300: 91d9 12be 444b b73d b680 e23d 6cc1 8bbd
00000310: 6b99 fc3c 4ecb 323e e298 593c f0ff cf3d
00000320: 1400 6a3d a4a6 b3bd 67f0 933d c4b0 32be
00000330: 4700 ae3d fbd2 263e 7c3b fd3d 5da9 6a3d
00000340: e548 16be c5c7 e1bd 78b6 28be 35b2 04be
00000350: 03ad 9ebd a96a 823d 10fa 00bd a01c 5f3d
00000360: b464 7f3d bba4 073e c4b2 64bd 0026 c2bd
00000370: 3f80 aabd a4b6 1c3e 3c46 933d 78e2 313d
00000380: 7aa0 8ebd 83ad 083e 268c 9ebc 8a24 323e
00000390: 70dd 6abd 35bb 1bbe 61a4 f1bd 08d0 ee3d
000003a0: 72be 0d3e 30a1 943d 45ac 983b 754d 25be
000003b0: 7cc9 8e3d 0a22 adbd e38a ff3d 8c7f 2ebe
000003c0: d264 a0bd ff66 153d 18e7 b1bd 9827 1d3e
000003d0: ecbc e53d 49f8 2bbe 7c83 6c3d e41a 11be
000003e0: 980a 6f3d f8b9 f43c f848 243d e0fc f6bd
000003f0: 6991 94bd 101a 1a3d a8ef e83c 200a 483d
-0.16656815 -0.13587466 0.12732476 -0.18189521 0.17203668 0.13497558 -0.05922947 0.08883959
0.007734135 0.17830688 -0.099497005 0.18188116 -0.025832659 -0.033618644 0.15161821 0.15027481
0.095047385 0.006109312 0.13538954 0.17064837 0.14991143 -0.11827884 0.005971536 -0.15404432
0.14842117 0.013032496 -0.051239945 -0.021915719 -0.04752046 0.057478487 0.06720517 0.03282681
0.17262164 0.055061053 -0.0010003895 0.025815308 0.023079842 0.06143023 -0.06539789 0.09351021
0.060881536 0.012701547 -0.00014342682 -0.13257292 0.13548948 0.20067984 0.17622796 -0.07316519
0.044834077 0.12883106 0.06961456 0.10512546 0.13264689 0.12547314 -0.10095928 0.005821642
-0.031236405 -0.027667655 -0.13853179 0.02668473 -0.08230722 0.13092476 -0.16710436 0.070242316
-0.03700514 -0.0051358193 -0.13003108 -0.03256705 -0.067153394 -0.043703258 -0.19164197 -0.009326001
-0.017776394 -0.0119307935 -0.17283696 0.092768684 0.00056942645 0.18211463 -0.11140556 -0.16835071
-0.08508557 -0.13236126 -0.12885913 0.048351496 -0.024934199 -0.048301626 0.0046259873 -0.050331052
-0.12919699 0.17587914 -0.04052416 0.18040384 0.15865436 -0.15958527 0.067629814 0.0054907203
0.027773917 -0.1389459 -0.092013136 0.008848697 0.036546018 0.02327559 -0.13799602 0.108429074
0.0465212 -0.11931994 -0.035626475 -0.020528316 0.00491198 0.07234481 -0.03383358 0.067525595
-0.05561745 0.015615359 -0.09761554 -0.09420835 0.03736035 -0.047001082 -0.08582479 0.10465579
-0.11992302 0.10101924 0.05114749 -0.08011078 -0.0947847 -0.08681134 0.0786854 0.15664594
-0.004671216 0.04149224 -0.042113297 -0.03684606 -0.15963532 -0.10366669 -0.14638728 0.052421372
-0.18159917 -0.16281168 0.0985715 0.11612809 0.020596638 -0.11927091 -0.11075959 0.12406394
0.12964247 0.14489563 -0.03067284 -0.14829275 -0.091477014 -0.13938761 -0.058525454 -0.10205993
-0.03296478 -0.07614117 0.16278166 0.15905792 -0.15226169 0.1265845 -0.17023967 0.1514144
0.10353799 -0.12246907 0.09622438 -0.024390131 -0.09705379 -0.11120897 0.18473844 -0.13121845
0.0027350923 0.0339894 -0.13380614 -0.11497213 -0.15470397 0.0031526834 0.027889103 0.13728274
-0.11091426 -0.098946005 0.10512931 0.047170468 -0.17244875 0.020355746 -0.012345284 0.121218726
0.14906296 0.06895441 0.05222392 0.13168792 0.16287276 0.070118874 -0.049067933 -0.15479372
-0.14340807 0.08949903 0.11059706 -0.06824002 0.030834874 0.17460367 0.013281079 0.10156238
0.05712898 -0.087720186 0.072235875 -0.17450243 0.08496147 0.1629142 0.12364861 0.057290424
-0.14676245 -0.11024431 -0.16475856 -0.12958606 -0.07747843 0.06368 -0.03148848 0.05447066
0.062351897 0.13246433 -0.055834547 -0.09479904 -0.08325242 0.15304047 0.071911305 0.043428868
-0.06964202 0.1334744 -0.019353937 0.17396751 -0.057340086 -0.15208133 -0.11798931 0.116607726
0.1384218 0.072573066 0.004659208 -0.16142829 0.06972024 -0.08453758 0.124776624 -0.17040843
-0.0783173 0.036475178 -0.08686656 0.15347135 0.112176746 -0.16793932 0.05774258 -0.14170414
0.058359712 0.029873833 0.04010865 -0.12059951 -0.07254297 0.03762251 0.02843459 0.04883778

weight_hh_l0 f4 [90, 30]
00000000: 7b5c a2bd 428c 273e 6290 06be 4f19 82bd
00000010: 88ed c43d c07b 66bd 9304 003e b3ee 05be
00000020: 8434 f93d 9129 18be 51da 26be d214 813d
00000030: d945 0cbe 1c4f a33d 708b eb3d 2a01 bbbd
00000040: ac3c 643d c9cb f83c 393a 20be c254 53bd
00000050: 62b3 633d e8a7 d03d 662b d83a 4d4a 163e
00000060: 48ff 3dbc 1910 0c3e e8fe 923d a3f7 0cbe
00000070: 1675 6e3d 48c0 12be e444 0fbe 5b23 043d
00000080: 78ab e5bd 3f87 3dbc 3ca2 063e 55d8 163e
00000090: 5932 39be 279d 45be 15e9 ec3a 3c8c 89bc
000000a0: 88fa 293a 0570 b13d 617b 2d3d 9e11 883d
000000b0: 6681 e1bc 3cec 4c3d a731 823d c8e3 e53d
000000c0: 7b39 66bc cce7 d13d 3b6c 31be 16f3 d23c
000000d0: 4c2d fbbb 85d2 323d fbd7 10bc 0de8 24bd
000000e0: b239 693d a08b bebc 130a 933d eba2 4cbd
000000f0: 45d5 723d 9b39 7cbd b6cf b6bd d8a5 18be
00000100: 1382 443e 231f 003e 722e 2b3e 59cb 08be
00000110: ba84 413e a806 6a3d 5325 c4bd 62e3 0c3e
00000120: 4152 983c 0b26 cd3d 1619 4d3e ac23 ab3d
00000130: 03d7 513d a39c 9bbc 97a7 64bc 58a7 3abe
00000140: 8ed8 fc3a 4563 3dbe 4f78 1bbe d36d 1cbd
00000150: 27c1 3b3e e8c0 0c3d 2e8a 543d 7cd0 09bd
00000160: 2543 873d 29fd eb3a 75e0 04be a008 f43c
00000170: a816 3f3d aa59 663c 7f10 893c 4769 e13d
00000180: 2d17 bbbd 2366 0fbe b922 f33c 9847 35bd
00000190: 77fc bfbd f3e5 2cbe b029 b3bc 1ce7 28bd
000001a0: fd26 0ebe 90dc a03c 1bda c9bd 8521 243e
000001b0: 0f6c 303e d554 393d 4317 0abe 9308 babd
000001c0: d2d6 0dbe 7036 0ebe dcc8 37bd 1437 f73d
000001d0: b5f0 26bb 267f 123e 8009 ea3d ea6d 0abe
000001e0: c39f bfbd fba0 8b3b 13c3 24be 2c1a 8e3c
000001f0: 089a 16be 8752 1e3e 53a3 b93d 212c 3dbc
00000200: 3473 8f3d 87cf 843d 9aaf d03c 342e ce3d
00000210: f6b2 bd3d c76d 20bc 9f7d 963d 8cfd 12bd
00000220: 25a8 1f3e d123 8b3d 32d2 16be 43e3 e9bc
00000230: b6fa d33d 4497 1bbe 4660 af3a 46f6 0cbe
00000240: 503e a039 2a34 1d3e 43d9 11be 3014 af3d
00000250: eb79 fabd ca7d 09be 1349 1c3e eab8 653d
00000260: 59fb 2abe b4b8 143e 0888 0ebe 2133 8abd
00000270: e6c5 b33d 3e9f 1c3e 5d1c 333e 6df5 343e
00000280: dbc8 02be dfbb ee3d c1b1 ee3d fc44 1b3e
00000290: ae52 6a3d 8d7e 39be 136b 253e 3afc 453e
000002a0: 4359 28be f98a 9cbd 43c4 433c b07a ccbc
000002b0: 9762 8b3d 7801 08be 7cc2 c13c 512c 05be
000002c0: 1846 de3d b0ab 3e3e bfe3 db3c 285b debd
000002d0: f5c3 96bd 8642 173e 88bd 2c3e ead9 d73d
000002e0: 8f3b eebc 5f16 2bbe 05f8 3c3e 461f 1f3e
000002f0: 1505 7abd 4d2d a83d af9a ef3d 0149 74bd
00000300: 390c dcbc ad2c 4c3c 954d dabd 69a5 a4bd
00000310: 8a9f 18bd 8f90 003e eaac 133c 707a 30be
00000320: ed8b 4c3d e5fc 0ebe 374a a33d 26b1 5ebd
00000330: f9cd c6bd 3ce4 bdbd d515 3a3e 91e6 a83d
00000340: 56e1 89bd 6ef7 113e 3d81 ec3d ba38 17be
00000350: 6830 243e d5e2 4b3e fc65 0dbe 2af7 3abd
00000360: 4a34 f73d e4e8 6c3d 8be3 0cbe 1077 5d3e
00000370: dfc5 0bbd d82f 2d3e 4872 dfbd 699f cf3d
00000380: 504e b43d df77 55be ec03 c43d 6316 503e
00000390: 41e8 3cbe dd69 0c3e e944 843d 026c 643d
000003a0: 19d2 62bd bc3f e8bc 91d1 2ebd bf48 ba3d
000003b0: 3371 803d ae86 3e3e 868d 8a3d 6cd5 003e
000003c0: 9187 2abe aa57 c1bd d736 0e3e de4e 5abb
000003d0: 7ed4 eb3d cea9 033d 3949 05be 01f9 cebd
000003e0: 9b36 1a3e 2033 9dbd df88 a2bd 9fbd 133e
000003f0: a08c 1cbd a032 acbd 4430 f03c 3ee9 8e3d
-0.079277955 0.16362098 -0.13141015 -0.063524835 0.09615618 -0.05627036 0.12501745 -0.13079338
0.1216822 -0.14859606 -0.16294219 0.06302799 -0.1369852 0.07974073 0.11501205 -0.091310814
0.055721924 0.03037061 -0.1564721 -0.051594503 0.055590995 0.101882756 0.0016492426 0.14676781
-0.011596508 0.13678016 0.07177526 -0.13766341 0.05821713 -0.14331162 -0.13991123 0.03226028
-0.11214346 -0.01156789 0.13147825 0.14730962 -0.18085612 -0.1929823 0.0018074835 -0.016790502
0.00064841704 0.08663944 0.04235399 0.06643985 -0.027527522 0.05002998 0.06357127 0.112250865
-0.01405179 0.1024929 -0.17326443 0.025750678 -0.007665312 0.0436578 -0.008840556 -0.040260363
0.05693979 -0.023259938 0.07179656 -0.04996006 0.05928542 -0.061578374 -0.089263365 -0.14907014
0.19190244 0.12511878 0.16716936 -0.13358821 0.18898287 0.057135254 -0.095774315 0.13758615
0.01859391 0.10017022 0.20029101 0.08356413 0.05123044 -0.018995589 -0.013955972 -0.18227899
0.0019290613 -0.184949 -0.15182613 -0.038190674 0.183354 0.034363657 0.05188959 -0.03364609
0.06604604 0.0018004525 -0.12976249 0.029789269 0.046652466 0.0140594635 0.016731499 0.11006408
-0.0913528 -0.14003806 0.029679643 -0.04425773 -0.09374326 -0.16884594 -0.021870464 -0.041236028
-0.1388206 0.019636422 -0.098560534 0.16028412 0.17228721 0.045246918 -0.13485436 -0.09083667
-0.13851479 -0.13887954 -0.04486929 0.12071052 -0.0025473062 0.14306316 0.11427593 -0.13518491
-0.09356644 0.0042611337 -0.1609004 0.017346464 -0.14707196 0.15461169 0.09064355 -0.011546166
0.07004395 0.06484895 0.025474358 0.10067406 0.0926265 -0.009791798 0.07348179 -0.035886332
0.15591486 0.06793941 -0.1472862 -0.02855075 0.10350554 -0.15194422 0.0013380132 -0.13765821
0.00030564005 0.1535193 -0.14243035 0.08548772 -0.12230285 -0.13426891 0.1526225 0.05608455
-0.16697444 0.14523584 -0.1391908 -0.06748033 0.087779805 0.15295121 0.17491288 0.17671748
-0.12771933 0.11656927 0.116549976 0.15163034 0.057207756 -0.18114682 0.16154127 0.19334498
-0.164403 -0.076436944 0.011948648 -0.024960846 0.06805914 -0.1328181 0.023652308 -0.13005187
0.10853213 0.18620181 0.026841996 -0.108572304 -0.073615946 0.1477147 0.16869175 0.10539611
-0.029081134 -0.16707753 0.18453987 0.15539274 -0.061040003 0.082117654 0.116994254 -0.059639934
-0.026861297 0.012461823 -0.10659329 -0.08039362 -0.037261523 0.12555145 0.009013394 -0.17234206
0.04993813 -0.13963659 0.0797314 -0.05436816 -0.09707255 -0.09272048 0.18172391 0.08247102
-0.067324325 0.14254543 0.11548088 -0.14767733 0.1603409 0.19910748 -0.13808435 -0.04564587
0.1207052 0.05783929 -0.13758676 0.2162745 -0.03412425 0.16912782 -0.10910469 0.10137827
0.088039994 -0.20846508 0.095710605 0.2032104 -0.18447973 0.13712259 0.06458456 0.055767067
-0.055376146 -0.028350703 -0.042680327 0.090959065 0.06271591 0.18606064 0.06765275 0.12581414
-0.16653277 -0.09440549 0.13888107 -0.0033311169 0.11515139 0.03214436 -0.13016213 -0.101060875
0.15059893 -0.07675767 -0.07936262 0.14427803 -0.038220048 -0.084080935 0.02931989 0.06978081

bias_ih_l0 f4 [90]
00000000: 051a 153e 2650 de3d cd2d 3bbe 44cb 74bc
00000010: 0950 8c3d cdc9 d6bd e5e3 c3bd 67ec 5b3d
00000020: 1d65 c9bd 32d7 4a3e 2d98 d7bd ee86 9e3d
00000030: 47aa 0ebe d0c7 50be 21cf 8f3d 87ae 233e
00000040: 1b6f f9bd 0ef4 103e b105 ef3d dbd0 c93d
00000050: dbff 2abd 6ce7 2c3e e010 2abe 683c 20be
00000060: 438a 11be ae8c 94bd bd23 9ebd 87b7 fa3d
00000070: 24e8 fb3d 6175 16be 05cf ab3d 8c32 463d
00000080: 3594 823d ec40 b9bd add8 28be 8644 ad3d
00000090: c465 ef3c 6917 88bd 746e c53d 343d 4f3d
000000a0: bfe0 2abe 8605 98bc 18b0 e63d 4015 d5bc
000000b0: be6b 1e3d 42fa 063e 8e85 2d3d 39bb 403b
000000c0: 7cbb 41bd 0bd1 babd 3d30 263e fe9b 1a3d
000000d0: 328d eebd ab66 e2bd 4380 d73c 9111 053e
000000e0: 3dc8 07be 17c6 3e3e f0d5 103e 03c5 48be
000000f0: 06c2 0a3e 3d26 d53d 03ef 4b3d de83 60bd
00000100: b6f8 0dbe 8d28 493e fd57 9bbd ec20 6d3e
00000110: 3116 cbbd 762f 2abe e4fd e2bd 9105 b3bd
00000120: a4a5 f4bd 77c6 59bd 16e8 1abc b4b4 0abd
00000130: 843d 18be a04a 0fbd ecfb 1a3e bf50 06be
00000140: 899e 383e 6e20 6dbd 6815 7b3e 20fa 4abd
00000150: 87a7 ccbd 642c 843c 55c7 a63d 5492 13be
00000160: 69f7 dabd e80e 5b3a
0.14560707 0.10855131 -0.1827919 -0.01494104 0.06851203 -0.10487709 -0.09564952 0.053692248
-0.09833739 0.19808653 -0.10527072 0.077405795 -0.13932143 -0.20388722 0.070219286 0.15984546
-0.12179395 0.141556 0.116710074 0.09854289 -0.04174791 0.16885155 -0.16608 -0.15648043
-0.14212899 -0.07253395 -0.0772166 0.12242036 0.12300137 -0.14693214 0.08389095 0.04838805
0.063759245 -0.09045586 -0.16488905 0.084603354 0.02922333 -0.0664509 0.09640208 0.050595477
-0.16687296 -0.018557321 0.11264056 -0.02601111 0.03867697 0.13181403 0.042363696 0.0029408468
-0.04729794 -0.09121903 0.16229339 0.037746422 -0.116480246 -0.110547386 0.026306277 0.12994982
-0.13259979 0.18630253 0.1414411 -0.19606404 0.13550577 0.10407684 0.049788486 -0.05481326
-0.13864407 0.19644375 -0.07585142 0.2315709 -0.09916342 -0.16619667 -0.11083582 -0.08741296
-0.11945656 -0.053167786 -0.009454748 -0.03386374 -0.14867216 -0.034983277 0.15135163 -0.1311674
0.18029226 -0.057892255 0.24519885 -0.049554944 -0.09992891 0.016134448 0.08143488 -0.14411288
-0.10691721 0.0008356408

bias_hh_l0 f4 [90]
00000000: 3c53 ef3d 5b73 35be 9fb6 b8bc 11da 04be
00000010: 0688 27bd 7805 4d3c 585e d73d 16c9 52be
00000020: 798c 8ebd 5278 103e 04fe 503c 5754 1a3e
00000030: aa04 2bbc 2c32 d2bd 2dda ebbd ecf5 683d
00000040: c939 f03d d4ce 9ebd 307f 08be 4d51 f5bc
00000050: 772c 62bd 6248 5cbd a9ce 8c3c ac0e 383e
00000060: 047f f5bd b47e 1cbe 5eb1 f8bd 2e0d c1bd
00000070: 99af 4d3e 3cc8 2c3e 8cd3 d33d 6580 873d
00000080: 5b59 d9bd 7cec e7bd d279 17be 79b2 81bd
00000090: 6bdc 5abe e4a9 66be 7a1c 29be a81c 0ebe
000000a0: f9d4 90bd 65e6 f73b db7b fa3d 44e4 d53d
000000b0: c6fd b6bd b33f 9fbd 79e6 7c3e 882c 163e
000000c0: e69c 84bd cb7b 17be 875c 04be 519a 543e
000000d0: 91e9 14be a386 69bd e9f2 91bd 59e4 d33d
000000e0: 87fa d7bd 2685 c6bd 4d8e 163e 02e3 86bc
000000f0: c27f 0e3c 73ef 1dbe cf95 8bbd c2e1 123e
00000100: 26ce b4bd 2b83 92bc 56e0 26be 7441 03be
00000110: 55dd e23d 83a5 0a3d ab6f c73d a766 203d
00000120: 582d 963d 60bc 18be 0159 7cbd 87c9 3f3e
00000130: 536f 66bc f672 3d3d 9982 33bd e0fa 273e
00000140: 8efa 2e3e 89ad 32be b051 98bc 0dbb 783e
00000150: a2f8 8b3d e6f4 0dbd 6cd9 71bd 7a61 e3ba
00000160: b281 77bd 49f2 03be
0.116857976 -0.17719786 -0.022548018 -0.1297381 -0.040901206 0.012513511 0.105160415 -0.2058452
-0.06960387 0.14108399 0.012755875 0.15071236 -0.010438124 -0.10263476 -0.11516223 0.056875154
0.11729772 -0.07754293 -0.13329768 -0.029945994 -0.055218186 -0.053779967 0.017188387 0.17974347
-0.11987117 -0.15282708 -0.12143205 -0.09426342 0.20086516 0.16873258 0.10343084 0.06616286
-0.10612746 -0.11324403 -0.14792565 -0.06332869 -0.21373145 -0.22525746 -0.16514769 -0.13878119
-0.07071871 0.007565307 0.12230655 0.10443929 -0.08935122 -0.077758215 0.24697293 0.14665425
-0.064752385 -0.14793317 -0.12925921 0.20761992 -0.14542224 -0.057013165 -0.071264096 0.10346288
-0.10545831 -0.09693365 0.14702721 -0.016465668 0.008697452 -0.15423374 -0.06815683 0.14343932
-0.08828382 -0.017884811 -0.16296515 -0.12817937 0.11077372 0.03384925 0.09738096 0.039160397
0.073328674 -0.1491561 -0.06160832 0.1872922 -0.014064628 0.046252213 -0.04382572 0.16404295
0.17087767 -0.17449011 -0.01859364 0.24290104 0.06834532 -0.03465738 -0.05904524 -0.0017347776
-0.06042642 -0.12885393

weight_ih_l0 f4 [3, 30]
00000000: 3482 cc3e 7649 423f b429 5d3f 8439 a6be
00000010: 72cb 54bf 90d3 a2bd 307a 383f 6412 be3d
00000020: f071 9b3e 383b 3a3e f853 6e3f 1f5c c23e
00000030: 154c 2f3e 8481 6a3f d404 133f 660f 1fbf
00000040: ab40 0bbf f8a4 72bf acfa 673f d475 90be
00000050: c0eb 88bc f02e e9bd 144f 5abf 4af7 5c3f
00000060: 8c1a 813d 6846 603f 4028 0cbf d792 5bbe
00000070: 6a6a c93d 9491 b4be d6f7 163f 0f86 5bbd
00000080: 4821 d53e de20 2ebe 20dc 1ebd 52c8 73bf
00000090: 994a 28bf f8c0 663e 7848 31be c03d 0ebf
000000a0: b36f 10bf a5d8 e9be 2fdc a4be 68d9 a1be
000000b0: a811 19bf 668c 7f3e ff94 11be c4c5 82be
000000c0: 90ac 66bf 002e d03e bc76 a53e f075 c2bd
000000d0: 38a4 eabe 9057 c4bd b67c 0d3f 4147 143f
000000e0: aac0 80be 6e3a 733f 52e0 f03e 0678 e8be
000000f0: 08cd f73e 6565 f1be 064e 2a3f f40b 2cbf
00000100: e2e7 0bbf c090 e33c 64ae 663f bac1 c53e
00000110: 5ae0 213f 08e3 8d3e a117 19bf 0a66 27be
00000120: b1e3 b2bd 6053 72bd 985f b43e 2f3e b93e
00000130: 959e 5f3f 9856 133e bcf1 f3be 04f3 70bf
00000140: a443 aabe 247e ebbe 806d 8d3c 98f8 7bbe
00000150: ad15 04bf dec4 64be d3da 1dbf 97a1 c73e
00000160: 4f86 a73e 832b 35bf
0.39943087 0.7589334 0.8639176 -0.32465756 -0.8312293 -0.079505086 0.72061443 0.092808515
0.30360365 0.18186653 0.93096876 0.37960908 0.17118867 0.91603875 0.5742924 -0.6213287
-0.5439555 -0.9478297 0.9061687 -0.28214896 -0.016713977 -0.11385906 -0.85276914 0.86314833
0.063038915 0.8760743 -0.54748917 -0.21442734 0.0983475 -0.35267317 0.5897192 -0.053594645
0.41626954 -0.17004725 -0.038784146 -0.9522754 -0.65738827 0.22534549 -0.17312801 -0.55562973
-0.5642044 -0.456731 -0.32199237 -0.3161118 -0.59792566 0.24955902 -0.14216994 -0.25541508
-0.9010706 0.40660095 0.3231715 -0.09495151 -0.45828414 -0.09587014 0.5526842 0.57921225
-0.2514699 0.9501103 0.47046143 -0.4540407 0.48398614 -0.4714767 0.66525304 -0.6720574
-0.546507 0.027778983 0.9010985 0.38624364 0.6323296 0.27712274 -0.5980168 -0.16347519
-0.08734835 -0.059161544 0.35229182 0.36180255 0.8735135 0.14388502 -0.47645366 -0.9412081
-0.3325473 -0.45994675 0.017264128 -0.2460655 -0.51595575 -0.22340724 -0.61662024 0.3899047
0.32719657 -0.7076952

weight_hh_l0 f4 [3, 1]
00000000: 6b8f a9be 9293 0d3f b135 65bf
-0.33117232 0.553033 -0.8953505

bias_ih_l0 f4 [3]
00000000: beb4 5fbe a484 033e 6978 33be
-0.21846291 0.12843567 -0.17526402

bias_hh_l0 f4 [3]
00000000: fe4a 1ebf 146d 45be d167 da3e
-0.6183318 -0.19279891 0.4265733

weight f4 [8, 31]
00000000: 2ba0 c1bd 6779 18be 9893 7abd 123c 14be
00000010: 27ab 72bc 52ed 1a3e c4f5 523d 6d55 793d
00000020: 0974 0abd 7203 abbd d4ab c13c 2dd1 8ebc
00000030: a22e e33d 7ba6 353b f30a dcbc 5ea7 00bd
00000040: a1d8 af3d 0f22 ec3d 3ef4 033e f983 2c3e
00000050: 4e02 583e 5391 023e 63a1 c5bc c247 7dbd
00000060: 2e4d 07bd afbe 963b 44e9 b63d 3112 7d3d
00000070: 0174 97bd a7d8 30be 8842 6cbd 79b4 a7bc
00000080: 490c 2abe bf3a 0abe 21a3 35be 101f 6ebe
00000090: 89a7 cc3d 848c 38be 7434 573e 3474 02be
000000a0: 694c a0bd cde7 1e3e eb4c 4fbe aa36 0d3e
000000b0: 533d 64be 9f91 53be eea4 1f3e d728 22bb
000000c0: d77a 153e 9b6b 0f3e 9380 ce3d e02f 633e
000000d0: 61c6 f73d d787 233e 71b2 0d3e 1cbd d43d
000000e0: e82e fcbd 91e5 f93d 3dfd 35be 71c5 f8bd
000000f0: 38b4 ddbd fc32 3dbd 18a1 4e3a 2ced 85bb
00000100: c9a0 903a 6271 c93a 2d19 fc39 307f a139
00000110: 1ea5 263a 3740 90ba 7cd9 703b 09c9 3c3a
00000120: 9af8 c2ba 4294 f3b9 f365 30ba 0968 7e3a
00000130: 840c 26bb 803e 97ba d23e 60bc 3af1 883b
00000140: 98a8 783a 98a7 71bb a4f1 193a 4213 863a
00000150: fbb7 ccba 3382 89bb c58a feba 7598 f1ba
00000160: 04a6 c13a f41d 2d3b e61b 9bba cdd3 6d3b
00000170: 7fde e4ba bd83 1d38 a235 3dba 26b5 023a
00000180: ce87 103a 717b aa3a 46dc beb9 190b b23a
00000190: 410d 9aba ce6c 423a c465 423a ff7d 89b8
000001a0: 6fec be3a 87e5 88ba 1fc3 643a 922e a23a
000001b0: 303d a7ba f987 ff3a 38dc 9a3a 95c2 a8ba
000001c0: 2960 7bba a8e5 c5ba b33e b53a 9dcd 69ba
000001d0: 0e8f 01ba d405 af3a 10ed 663a 18a0 7aba
000001e0: 789e 923a af05 f939 986a 7a3a 4a9d a93a
000001f0: 42f2 47bb aec4 933b 6b64 8dba b251 a2bd
00000200: be10 99bd d1b9 5a3d 9eac 2c3d 68e1 8f3d
00000210: 0fbf 4bbd 9cc4 8bbd 4fde 98bb 76fb 2d3d
00000220: fa75 55bc b914 86bc 5568 58bd 7589 dfbc
00000230: a54d bcbc d1ce 1d3d c369 a93d 1a7d e8bb
00000240: 0ced 93bc 033e b33d 2ea2 9cbc 56d0 4d3d
00000250: 7c92 233d 6541 64bc d202 8dbc 571e 023d
00000260: c086 ecbc 09cb 9abd 094d d6bc a230 2fbb
00000270: fa29 babd 9dab a73c 8304 ccbb d761 493c
00000280: 985d 383c 4850 b9bc bb6d 75bd 6fdd 9dbd
00000290: f24d 9c3c 24fa 523a c2ad 67bb 5f69 263c
000002a0: ef8d da3c 92a3 be3c 5e90 4a3d e9b2 e93d
000002b0: 690d 1c3c 47c4 b7bd f0d7 33bc 64b3 4c3d
000002c0: 6d0f eb3d 461c 213c e551 1dbd c292 d3bc
000002d0: 24ac 8c3c 3617 ea3c e867 413d 7f26 88bc
000002e0: c6ca a9bc fc2f 62bb afdb ab3a 759c 2a3c
000002f0: 581c a73b 2b43 f63b 2c0b a83b 256a aa3a
00000300: daa5 b63b 940f 18bb d915 d03b dbe0 4a3b
00000310: 1859 593b 495f 153b 00bd 8cbb 51ee 9539
00000320: df4f d23b ca28 e9bb 9f3b 5f3b a449 093c
00000330: 5c28 b2bb e6f7 58bb de92 d23a 99e0 bebb
00000340: 1cd5 0039 deb8 7e3a 1e04 92ba 3979 3f3b
00000350: 1b59 86bb 0112 1c3c d9a8 29ba 0f7d cc3a
00000360: cac1 9439 85b9 58bd e154 1fbd 2e26 41bd
00000370: 0b4a c2bd 435d cebd 191f 93b8 fa1a 00bd
00000380: 23fc 44bd 6559 233b 1fa7 b3bd fd52 39bc
00000390: a90f 80bd 8ea8 073e ac25 6bbd 2ec2 83bd
000003a0: 332a 77bd 5478 f6bc 9e04 ccbd a603 09bd
000003b0: 4708 1fba e30d 1d3e 9281 263e 01f8 06bd
000003c0: 17c4 a33d 9858 3e3a 5cf3 cabd d53d c03c
000003d0: 3b48 b2bd fdf3 e13c 1984 06be 72e7 bc3c
-0.09454378 -0.14890061 -0.061175913 -0.1447604 -0.014811314 0.15129593 0.05150391 0.060872484
-0.033802066 -0.083502665 0.023641504 -0.017433727 0.11092879 0.0027717638 -0.02686069 -0.031409614
0.085862406 0.11529934 0.1288614 0.16847219 0.21094629 0.1275075 -0.024124807 -0.06183601
-0.03303259 0.004600368 0.08931211 0.061784927 -0.07395173 -0.17270146 -0.057680637 -0.020471798
-0.16606249 -0.13498972 -0.1773801 -0.23254037 0.09992892 -0.18022352 0.21016103 -0.1273964
-0.07827074 0.15518112 -0.20244186 0.13790384 -0.22289018 -0.20661019 0.1559026 -0.002474358
0.14597641 0.14005892 0.10083117 0.22186232 0.12098385 0.15969788 0.13837601 0.10387632
-0.12313634 0.122019894 -0.17772384 -0.12147034 -0.108253896 -0.0461912 0.0007882281 -0.004087111
0.0011034246 0.0015368874 0.00048083943 0.00030803075 0.0006357002 -0.0011005466 0.0036750725 0.00072015874
-0.0014875114 -0.00046459032 -0.0006729059 0.00097048335 -0.002533705 -0.0011539012 -0.0136868525 0.004179147
0.00094855716 -0.0036873575 0.0005872494 0.0010229128 -0.0015618795 -0.004196429 -0.0019420019 -0.0018432277
0.0014774208 0.0026415559 -0.0011833876 0.0036289573 -0.0017461329 3.7554408e-05 -0.000721777 0.00049860997
0.00055134005 0.0013006759 -0.0003640374 0.001358363 -0.0011753218 0.0007416726 0.0007415677 -6.556138e-05
0.0014566312 -0.0010444381 0.0008726585 0.0012373498 -0.0012759324 0.0019495479 0.0011814898 -0.0012875373
-0.0009589219 -0.001509835 0.001382789 -0.00089188834 -0.0004942276 0.0013353177 0.0008809129 -0.0009560599
0.0011186143 0.00047497216 0.0009552627 0.0012940553 -0.0030509387 0.00450953 -0.0010787373 -0.079257384
-0.074738964 0.053399865 0.042156808 0.07025415 -0.049742755 -0.0682461 -0.004665173 0.04247614
-0.013028616 -0.016367303 -0.052833874 -0.027287224 -0.022986243 0.038527314 0.082721256 -0.0070949914
-0.018057369 0.08752062 -0.019120302 0.050247513 0.03993462 -0.013931607 -0.017213259 0.031767216
-0.028872848 -0.07558257 -0.02615978 -0.0026731868 -0.09090038 0.020467574 -0.006226124 0.012291393
0.011252783 -0.022621289 -0.0599191 -0.07708251 0.019080136 0.0008048138 -0.003535137 0.010156958
0.026679007 0.023271356 0.049454086 0.114110775 0.009524682 -0.08972984 -0.0109767765 0.049975768
0.114775516 0.009833401 -0.03840818 -0.025826816 0.017171927 0.028575521 0.047218233 -0.016619919
-0.020726573 -0.0034513464 0.0013111735 0.010413279 0.0050998144 0.0075153313 0.005128285 0.0013001604
0.0055739703 -0.0023202645 0.0063502607 0.0030956778 0.0033164676 0.002279239 -0.0042949915 0.00028597054
0.006418213 -0.007115458 0.0034062637 0.008379374 -0.00543694 -0.0033106743 0.0016065498 -0.005825114
0.0001228642 0.00097168784 -0.0011140143 0.0029216541 -0.0040999777 0.009525777 -0.00064719986 0.0015601235
0.00028373144 -0.0529113 -0.038899306 -0.04715555 -0.09486779 -0.10076382 -7.0152986e-05 -0.031275727
-0.04809202 0.002492511 -0.0877211 -0.01131129 -0.06252987 0.13247892 -0.057408974 -0.06433521
-0.06034298 -0.030086674 -0.09961818 -0.033450745 -0.0006066602 0.15337329 0.16260365 -0.03295136
0.079963855 0.00072611263 -0.09909698 0.023466984 -0.08705183 0.027582163 -0.13136329 0.02305958

bias f4 [8]
00000000: 7fc4 403d e3fa 753d 74a8 963d 2727 a23d
00000010: e1b0 f4bd f468 083d 0030 133e 2aa5 25bc
0.047062393 0.060053717 0.07356349 0.07917624 -0.119477995 0.033303216 0.1437378 -0.010110179

weight f4 [1, 24]
00000000: bcf8 8f3d 9052 6abd 82ae 233e 5216 f5bc
00000010: a74f 0d3d da79 a53d 9fdb 22bc eb2a adbd
00000020: 05a5 e1bb 46a1 163d a9a0 3d3e 7c75 a23d
00000030: 8eac e53d 4c5f 473e e23f 24be 73c4 99bd
00000040: f422 cbbd 24db c03c ab82 ec3d 62e1 d4bc
00000050: 725a 10be 77cb 503d 3f73 5e3e 0726 a83e
0.07029864 -0.057207644 0.15984538 -0.02991787 0.03449979 0.08079882 -0.009940057 -0.084554516
-0.006886127 0.036774896 0.18518318 0.079325646 0.11214553 0.19469947 -0.16039994 -0.07508173
-0.09918776 0.023541994 0.115483604 -0.025986377 -0.14097002 0.05097529 0.2172365 0.32841513
