model_files/LSTNET/lstnet_model_hor_12_win_35.pt (torch, 41275 bytes, 13 tensors)

weight f4 [30, 1, 6, 8]
00000000: f01b 4c3c 8070 0b3e 8654 a13d 205a 37bd
00000010: e84a df3d 0086 393d 9a68 033e 9c9d 583d
00000020: c193 8abd 77eb f9bd 56ca ffbd 78f3 fc3c
00000030: 42c5 043e 191d 9ebd 9460 373d 666f 02be
00000040: 5001 703d 40ce d8bb cf06 09be 881a 393d
00000050: f463 7c3d 9fce 0cbe a0d8 27bd 6e57 b0bd
00000060: 5fa8 9abd 1240 b8bd 94ca 63bd 50aa 0b3d
00000070: 6079 e23d 4e99 973d 6d18 fabd 3865 03be
00000080: 88f7 b13d 504a a4bc cc72 f23d 0426 bcbd
00000090: d46f 863d 0450 7fbd 3d93 acbd 3c38 dabc
000000a0: 9420 e1bc 7411 d5bd f004 d03d 75e5 84bd
000000b0: ecd1 db3d 0c23 f03d 4c60 e53d c4f6 cdbc
000000c0: ad1f d6bb 2461 bdbd 45e8 ff3d dd59 b7bd
000000d0: cdca 13be 604c 06be b47a 32bd f763 80bc
000000e0: f3e9 a23d 09db 2a3c c3f4 b03d ab7d 73bc
000000f0: 3cd5 87bc 9ef2 aa3d e3f5 87bd e0ce 7abd
00000100: c2be cbbd a034 e3bd c44c cebd d3f5 933d
00000110: 57a5 e2bd 8016 e33c b4e4 a83d cca8 aa3d
00000120: b287 9e3d 7563 a23d a0fe 1a3d 1670 61bd
00000130: 88bb e0bd e6f3 d5bd 012a 04be f877 c9bd
00000140: 70e5 c73d d5c9 7f3d f28c ed3d 0745 063d
00000150: 4510 48bd 917c 87b8 91f3 a7bd 5402 02be
00000160: 2aa2 6f3d 0808 333c b6bd 0a3e 9373 813c
00000170: 45b1 cbbd c72e 01be 72a6 f4bc 4338 eabd
00000180: 7a06 0e3e d87d b0bd 5024 26bc a2a5 933d
00000190: a605 69bd 82be 0d3e 7679 4abd 20fb 1f3c
000001a0: 98f0 7ebd 909e 573c 9294 a8bd 26ba c7bd
000001b0: 489f 9c3d b97c 0cbe f88e be3c d721 e8bd
000001c0: feb6 acbd 268c 093e 1e26 0a3e fa37 dabd
000001d0: f33d dabd a610 61bd 64ed e43d 3951 0ebe
000001e0: 7c8f 583d 8c16 abbc 423d cdbd 50a8 fbbc
000001f0: 1c06 f1bc 8373 dfbd 05a1 80bd 10b9 943c
00000200: a619 9f3d 1e07 53bd 708d 803c b45d 5cbd
00000210: a252 0bbe 0004 6eb9 5416 97bd a6e6 a1bd
00000220: 80a6 72bc b7e5 83bd 20ce 2cbd 704b d63c
00000230: 268a 8e3d 406c 0d3c 10e3 b4bd 603d fe3d
00000240: b0f0 80bc c0be d9bd e9f2 b0bd 9660 b13d
00000250: 94ed 4b3d d773 12be 2860 7b3d 4469 923d
00000260: a252 2cbd 8511 9bbd 4a1d 00be b2d3 013e
00000270: 8017 cb3d e48a 223d e8b3 abbc d4cb c8bd
00000280: 027e d8bd 5a89 a9bd 00cb 3a3d 2072 73bd
00000290: dc2c 55bd b125 e5bd c461 cebd 2ec0 27bd
000002a0: e80e cebc 25af b1bd 98e8 2dbd b4ab 213d
000002b0: 1e73 22bd 51fd ddbd b84d 593d e877 4d3d
000002c0: 86ff bf3d c72c 95bd 6842 dcbc f294 053e
000002d0: 3060 523d d828 adbd 64b9 b93d 322a a93d
000002e0: 584e a73d 2acd 89bd e430 7f3d 5bec 8fbd
000002f0: f8bc 933d d420 433d 0ad2 ab3d f818 623d
00000300: 6241 923d d3e1 03be ff8e a9bd 8087 883c
00000310: c8ce bb3c c7ca 0ebe ab30 80bd 04bb e53d
00000320: 7fe4 82bd 48c6 b63d d064 803d 22cf c23d
00000330: 2815 033e 0050 4c3a 4cd4 dcbd e229 8abd
00000340: 747c f53d 2c2a 3d3d 625b 8b3d 98f3 23bd
00000350: e6b4 adbd da0c 09bd caad 96bd a844 f43d
00000360: 5ecf 5bbd 40b2 6d3d bc16 4abd bc20 0f3e
00000370: a4ca 6d3d 43df 94bd e2a6 08be 1fa9 e6bd
00000380: 9fb6 89bd 6910 06be 127e b03d e6b7 113e
00000390: 53d5 d9bd 4ce1 e13d 109f e33c f878 2dbd
000003a0: faee cabd b8c3 c8bd 6c6c 4d3d 0c3c 0fbe
000003b0: 8658 12be 2a2d 9f3d 383e c1bc 7ffd f3bd
000003c0: e2e8 2abd 964c 94bd 8216 0d3d baea f93d
000003d0: 5b88 42bd dc79 5dbd 3929 6ebd 151f bf3d
000003e0: 7ae6 07be 1618 823d 1b43 afbd de99 fe3d
000003f0: fd23 9e3c 957a d63d 16bf cf3c 24b9 ef3d
0.012457833 0.13617134 0.0787745 -0.044763684 0.10902959 0.045293808 0.12832871 0.052884683
-0.06766463 -0.122031145 -0.124897644 0.030877814 0.12965873 -0.07720394 0.04476984 -0.12737808
0.058595 -0.006616384 -0.13381504 0.045191318 0.06161876 -0.13750695 -0.040978074 -0.08610426
-0.075516455 -0.089965954 -0.055613115 0.03409797 0.11058307 0.074022874 -0.1221169 -0.1283158
0.08689791 -0.020054966 0.11838302 -0.091869384 0.06564298 -0.06233217 -0.08426521 -0.026638143
-0.027481355 -0.104037195 0.10157192 -0.06489078 0.10733399 0.11725435 0.11200008 -0.025142081
-0.0065345378 -0.09247044 0.12495474 -0.08952687 -0.14432831 -0.13115072 -0.04357405 -0.015672667
0.079547785 0.010428199 0.086404346 -0.014861505 -0.01658117 0.08347057 -0.06638696 -0.061232448
-0.099484935 -0.11094022 -0.10073236 0.072246216 -0.11066692 0.02772069 0.08246747 0.08332977
0.077407256 0.07929126 0.037840486 -0.055038534 -0.10973269 -0.104469106 -0.12906648 -0.09837335
0.097605586 0.06244834 0.11599149 0.032780673 -0.04884364 -6.460504e-05 -0.082007535 -0.126962
0.05850426 0.010927208 0.13548931 0.01580218 -0.09945921 -0.126155 -0.029864524 -0.11436512
0.13869658 -0.08617753 -0.0101404935 0.07209326 -0.056890152 0.13842204 -0.04943224 0.009764463
-0.062241167 0.013160363 -0.082314625 -0.09752302 0.07647568 -0.13719453 0.023261532 -0.113345794
-0.084333405 0.13432369 0.13491103 -0.10655208 -0.10656347 -0.054947518 0.11178091 -0.13898171
0.052871212 -0.020884775 -0.100214496 -0.030719906 -0.029421858 -0.10910704 -0.06280712 0.01815465
0.07768564 -0.05152046 0.015692443 -0.0538003 -0.1360574 -0.00022698939 -0.073773056 -0.07905321
-0.0148102045 -0.06440299 -0.042188764 0.026159018 0.069599435 0.008631766 -0.08832371 0.1241405
-0.015739769 -0.10632086 -0.086400814 0.086610004 0.04978712 -0.14302002 0.061371 0.07148984
-0.042070992 -0.07571701 -0.12511173 0.12678412 0.09916592 0.039683238 -0.02095981 -0.09804502
-0.10570909 -0.08278151 0.045603752 -0.05943501 -0.052044734 -0.1118883 -0.10077241 -0.04095476
-0.025153592 -0.08675984 -0.042458147 0.03947039 -0.039660566 -0.10839332 0.053052634 0.05016318
0.09374909 -0.07283931 -0.026887134 0.130451 0.051361263 -0.08455056 0.090685636 0.08260001
0.0816924 -0.06728585 0.062302485 -0.07027503 0.07213777 0.04763873 0.08389671 0.055199593
0.07141377 -0.12879114 -0.082792275 0.016666174 0.02292575 -0.13944541 -0.06259283 0.11217311
-0.063912384 0.08924538 0.062692285 0.09512164 0.12801039 0.00077939034 -0.1078268 -0.0674627
0.11986628 0.046182796 0.06804539 -0.04002723 -0.08481769 -0.03345952 -0.073573664 0.11927158
-0.053664558 0.05803132 -0.049338087 0.13977331 0.05805458 -0.07269146 -0.1334491 -0.11262726
-0.06724285 -0.13092197 0.08617796 0.14230308 -0.106363915 0.110293 0.027785808 -0.042351693
-0.099088624 -0.098029554 0.050152227 -0.1398775 -0.14291582 0.07772286 -0.023589239 -0.11913585
-0.041726 -0.0724117 0.034445293 0.12202974 -0.04749332 -0.054071292 -0.05814478 0.093321
-0.13271514 0.0635225 -0.08557721 0.124316916 0.01930427 0.104725994 0.025359672 0.11705235

bias f4 [30]
00000000: fd22 b7bd 3e36 943d 2777 0fbe 128c 53bd
00000010: d7d8 8dbd 28a2 30bd 3b8d 75bd ec94 09bd
00000020: 3f59 b5bc 7a88 cfbd a486 6d3d 5c4b bdbc
00000030: 949d fa3d bed6 ec3d 8664 b43d 70d5 613d
00000040: 9f62 1bbc 2758 02be bf00 d33d 32c0 ce3d
00000050: 7318 49bd aade 2bbb 7eca ddbd 1c38 0c3e
00000060: 1492 f2bd eef8 cebd a2ff 1cbe e03b e93d
00000070: bb47 fa3c 81ef ca3d
-0.0894222 0.072369084 -0.14010297 -0.051647253 -0.069261245 -0.043123394 -0.05994914 -0.03358929
-0.022137282 -0.10133453 0.05798973 -0.023107223 0.12237087 0.11564396 0.08808236 0.05513519
-0.009483962 -0.1272894 0.10302877 0.10095252 -0.049095582 -0.0026225247 -0.10829638 0.13693279
-0.118442684 -0.10106073 -0.15331891 0.113883734 0.030551782 0.09908963

weight_ih_l0 f4 [90, 30]
00000000: 347b a73d 9fa8 313e d0a9 30bc 58e3 30be
00000010: b884 8d3d d509 22be 533b e8bd 0011 19be
00000020: 255a 0b3e 143c 0dbe 3cb9 9d3d d85d e0bc
00000030: 780f a43c 0d22 2b3e 2051 cc3c 7995 24be
00000040: 5980 88bd d387 98bd ad87 c2bd bfd5 89bd
00000050: 8f69 48bd 733a 513d 0031 483c 525e 833d
00000060: fcd7 36be be36 093e e788 0abe c00f 0b3e
00000070: 8987 0a3e e328 dc3c 403a f83b 7e41 2b3e
00000080: e88d ca3c de93 0ebe 2cd4 fa3d 8140 c6bd
00000090: 48f7 2b3e b838 0e3e 172c 21bd 501c d13c
000000a0: 6aee 333e 787b a3bd ae74 80bd a732 9abd
000000b0: a8c5 58bd e047 403d 98a4 3b3e de22 8cbd
000000c0: a660 a1bd 6e62 08be 2550 e83d 1843 c3bd
000000d0: 0ca4 2a3e 0cb5 d93d ecd0 eb3d bcf9 3cbd
000000e0: 6be1 6c3d f48a 0b3e 6efd 6e3d 5f2a 18be
000000f0: 6edb 033e d448 8d3d fc2b 083e e265 093e
00000100: 8023 b0bc edaa 173e e003 683c 7d77 25be
00000110: 60de d93d ae2f f8bd b052 4c3c 861c 173e
00000120: f469 cf3d b8d3 9fbd 1dd9 c8bd 8dce a3bd
00000130: da1f 6f3d 178c 39be d2a2 0d3e c4c5 2f3e
00000140: 0538 cabd a436 ff3d e4f1 83bd ec8e 98bd
00000150: c58b 89bd 620c 303e 7eb2 0a3e 54f3 41bd
00000160: 8503 96bd 06aa 91bd 84e7 e73d b8cb 963d
00000170: 9ebe fabd f0c2 ae3d b8bb e03d db4b 3c3d
00000180: e76c 07be aa58 293e 5018 3fbc b4ae d8bd
00000190: 3048 0b3e 643d 233e 0062 a23c db9c b6bd
000001a0: f82e e73d f626 023e 6efc dc3d 7bf7 223d
000001b0: f8e1 b3bd b149 2ebe ccab 073d bece 373e
000001c0: 004b 4b3d 323b 173e 8110 853d 14bf ba3d
000001d0: 5272 d23c ecc3 943d 4856 9c3c c604 b9bd
000001e0: 86db 073e 6853 10bc 8dc0 25be 3817 eb3c
000001f0: b944 d9bd f75f 11be 6d23 c7bc 2453 9e3d
00000200: 0730 dcbd c4cd cd3d 28e9 a8bd c9a1 1dbe
00000210: 2940 97bd 5342 03be 8768 05be a590 86bd
00000220: 20c2 b7bc 63dc 63ba 4013 f3bd 980b 0b3d
00000230: 591b 05be 17b7 22be a872 a63d 59d5 ecbd
00000240: 54a7 633c 4b23 3abe f0af cc3d 889b e73d
00000250: aa0a 0b3e 239d 3bbd ce00 6fbd 3664 98bd
00000260: d8b4 543d 789d 193e f0c2 c23d dfe8 f8bd
00000270: e9a1 a2bd 5da4 2fbe b68b 2bbe 8ca3 e63d
00000280: 4045 b93c 0f41 b5bd 7ddd edbd 0521 87bd
00000290: 0c1b 033e 7231 063e 54b6 b9bd e6a6 1dbe
000002a0: 396e bfbd a8ba cf3c fa41 a93d 7a2e 393e
000002b0: 3042 c43c ea11 f6bd 78c9 543d a83f f83c
000002c0: 239d 49bc 4041 1dbb cfc1 ed3d f5e6 2dbe
000002d0: 382f 253e 48a9 fc3d e01f 39bd 78e8 d53c
000002e0: e229 033e 1efc 4e3e f38e a7bd 0082 0bbb
000002f0: d99b 0d3e cd22 9abd b6bb 33be 4084 1d3e
00000300: aeba 2c3e f2ea eebd a454 103e f6f3 0d3e
00000310: faeb b63b ac4c 273e 8f4d 02be 243b 633d
00000320: 48f1 ef3c 384c cdbd 54c9 043d 6c8e 933d
00000330: c67d 48bd 9296 c7bd 0178 6c3e 76d0 2f3e
00000340: 5cc7 2e3d 53d2 bd3c 2172 afbd 63aa 75bd
00000350: 8011 15bc 68e7 e33d d473 133d d104 13be
00000360: e994 bcbd e7ef dabd d645 c03d a4c8 0fbd
00000370: a89c c33d 564e a6bd 6c7a 8a3d 97fe 3abe
00000380: 146f 67bd b0d0 be3d b1b4 fabd fda0 2d3e
00000390: 67f1 09be 8070 0bbb d893 963d 668d b33d
000003a0: 46f3 183e de87 073e 83ff 893d 7c38 91bd
000003b0: 92b7 6f3d b8ff 8bbc b280 29be c4b1 363e
000003c0: c4e0 343d 2ed3 1b3e 104e 37be e0ec c93d
000003d0: 685b 0c3e 5b8d 0dbe cc89 9a3d 6ef0 1e3e
000003e0: 7802 fa3d 288a 04be bb23 1cbe ecca 56bd
000003f0: 9074 10be dd36 0fbe 4460 283e 56d8 01be
0.08177796 0.1734948 -0.010782674 -0.17274225 0.0691008 -0.15824063 -0.1133944 -0.14947891
0.13608606 -0.13792449 0.07701346 -0.027388498 0.020026907 0.16712208 0.024941027 -0.16072644
-0.066651054 -0.074477814 -0.09498534 -0.06730222 -0.048928794 0.051081132 0.012218714 0.064144745
-0.17855829 0.13399789 -0.13528787 0.13580227 0.13528265 0.026874965 0.0075753033 0.16724202
0.02472587 -0.13923594 0.122475 -0.09680272 0.16793549 0.13888824 -0.039348688 0.025526196
0.17571416 -0.07982534 -0.06272255 -0.075291924 -0.052922875 0.046943545 0.18324506 -0.06842588
-0.07879762 -0.13318798 0.11343411 -0.095342815 0.16664141 0.10630235 0.11514458 -0.046136603
0.057832163 0.13627225 0.058347158 -0.14859913 0.12876675 0.068986565 0.13298029 0.13417771
-0.021501303 0.14811297 0.01416108 -0.16158862 0.10638118 -0.12118469 0.012470886 0.14756975
0.10127631 -0.07804054 -0.09807036 -0.07998381 0.058379985 -0.18119846 0.13831642 0.17165285
-0.09873966 0.12461594 -0.06442621 -0.07449135 -0.06716112 0.17192224 0.13544652 -0.047351196
-0.0732489 -0.071125075 0.11323455 0.07363075 -0.122433886 0.08533275 0.109733045 0.04597078
-0.13225137 0.16537729 -0.011663511 -0.10580197 0.13601756 0.15941387 0.01982212 -0.089166366
0.112882555 0.12710175 0.10790335 0.039786797 -0.087833345 -0.17020299 0.033122823 0.1794996
0.049632072 0.14768675 0.064972885 0.091184765 0.025689278 0.07263932 0.01908411 -0.090341136
0.13267335 -0.008808948 -0.16186734 0.028697595 -0.10608811 -0.14196764 -0.024308885 0.077307016
-0.10751348 0.10049012 -0.08247596 -0.15393747 -0.073852845 -0.1281827 -0.13028155 -0.065705575
-0.022431433 -0.0008692203 -0.11868906 0.033946604 -0.12998714 -0.15890156 0.08127338 -0.1156413
0.013894875 -0.18177526 0.09994495 0.11308962 0.13578287 -0.045804154 -0.058350377 -0.07440989
0.05193028 0.15001476 0.095098376 -0.12153792 -0.07941038 -0.17152543 -0.16752514 0.11261663
0.022616029 -0.088502996 -0.11614511 -0.06598095 0.12803286 0.131048 -0.090679795 -0.15395698
-0.09347195 0.02535756 0.08264537 0.18084136 0.023957342 -0.120151356 0.051949948 0.030303791
-0.012305531 -0.002399519 0.11609232 -0.16982634 0.16131294 0.12336975 -0.045196414 0.026111826
0.12808946 0.20213363 -0.08181562 -0.0021287203 0.13828982 -0.07526169 -0.17552075 0.1538248
0.16868088 -0.11665906 0.14094788 0.13862595 0.00558233 0.16337842 -0.12724899 0.055476323
0.029289857 -0.10024303 0.032418564 0.07204899 -0.048948072 -0.09745516 0.23092653 0.17169365
0.042670593 0.02317158 -0.0856669 -0.059976947 -0.009098411 0.111281216 0.035999134 -0.14357306
-0.0920809 -0.10690289 0.0938832 -0.035103455 0.09551364 -0.0812041 0.06761631 -0.18261181
-0.056502417 0.09317148 -0.122414954 0.16955943 -0.13470994 -0.0021276772 0.07352418 0.08767204
0.14936551 0.13235423 0.06738188 -0.07090852 0.058524676 -0.01708971 -0.16553 0.1784125
0.044159666 0.15217277 -0.17900872 0.098596334 0.13706744 -0.13823454 0.07545814 0.15521404
0.12207502 -0.12943327 -0.15248005 -0.052439615 -0.14106965 -0.13985772 0.16442972 -0.12680182

weight_hh_l0 f4 [90, 30]
00000000: d89e 913d e11b 5fbd 4382 23be 5e58 c2bc
00000010: 98d6 30bd 29ff 8cbd 6543 863e 0ba6 19be
00000020: 88a8 a13d a064 f0bd ccd1 01be ea86 3fbc
00000030: 3f39 7b3e ab29 d73d bc70 0fbc c1d6 07be
00000040: cfd5 10be db52 c13d 40b6 e8bd 3874 e8bd
00000050: 6eea 9d3d 22c3 823e 3adf 60bb 65ad 1a3e
00000060: 815c 6fbd 9f18 ce3d 8a6b 74bd 33dd 6ebd
00000070: adcc 87bd 8b03 293e bb20 2fbe 9a43 e23d
00000080: 7253 34be 062e 673d 2707 193d 8121 a23d
00000090: c9cb 6abd 7868 893e 6c76 303d 6e96 33be
000000a0: 5e09 903d efc1 cabb 41c3 cbbc d766 35be
000000b0: 519e 2cbe f4d9 1cbe 6cf7 223d 22bb a53d
000000c0: b145 5bbe 51f5 113c 9408 983d c197 9a3d
000000d0: 14b1 d9bd d885 bcbd 5822 303b 878b 023e
000000e0: cf65 dbbd b87d 003e 0fb5 313e 1369 1a3e
000000f0: c1ec 493c 15b1 d2bc 0ba0 893d f2f5 183e
00000100: 9e70 8b3d 2be3 343e a8e4 893e 0228 6fbe
00000110: 7214 23bd 0efe 1ebe 7ce8 d9bd 49a4 19be
00000120: 5b14 f03d 9ec0 b83c ec92 9a38 fa79 e6bd
00000130: 8576 e8bd b679 7fbe 1a77 0a3e 6a5c 20be
00000140: 3310 303e 0a4d fe3d b6d1 0fbe 92f7 783e
00000150: 7b1a 103e b9a6 aebd 596f 61be 7b7a 0fbe
00000160: b3cf 5ebb 4d60 80bd c483 993c 3879 92bd
00000170: 2b3d ccbc cc46 14be 5f83 0e3e ba55 223e
00000180: 3dec 0b3e 3c63 0abe 8f4f 163e b89d 87bd
00000190: c8b8 303b 77a5 7cbc 7642 7b3d a441 d0bd
000001a0: c7bb 2d3e 18ad 89bd 9b52 a7bd c9a0 a23d
000001b0: 1a64 f8bb db95 7abe 682f 223e 0632 173e
000001c0: 7465 c0bc 9b93 0a3e 2c20 2d3e 3414 a7bd
000001d0: 8c22 9a3d ba2b be3c a6b8 3dbe 6377 da3d
000001e0: 598c 803e 2f79 2bbe 559b 8abd 5cc2 0d3e
000001f0: b17b adbd e5d3 663e 2b9d 52be 2592 46bd
00000200: fe67 d03c 3b0c d63d ee77 ea3d c02f e23d
00000210: 56c5 6dbd af2c 3b3d a264 923c dddf 423e
00000220: 19f5 553e 9880 4a3e 8b06 c03c 6fe6 803d
00000230: 51aa 1dbe a144 8bbd 9a28 813d 0c65 1f3c
00000240: 1c7a 2bbe ef14 3c3d 854c f0bd 02cb e13d
00000250: a976 f43d 47c2 003d c77c 683e ed22 9a3d
00000260: 9bb0 af3c 863c 3fbc 0146 79be 1adb 5abc
00000270: c083 f8bc d864 333e 136d 58be 30ee 89bd
00000280: 868a 9a3d e484 533d 8435 37be 14ce a9bd
00000290: 026c 8cbe 7e1c 793c e077 c43d 1300 bf3d
000002a0: 44af e43d 3a2d ff3d 93bf 20be 0b90 b5bd
000002b0: 7ce8 5dbd 6c59 7dbe bcb7 943c 67fc 9f3c
000002c0: 032e 2f3e ea74 0ebd c8c7 c63d 034f 17be
000002d0: 09d3 2c3e 5b1e d4bc 7598 7dbd 4b42 dcbd
000002e0: 724c ef3d 98c4 ed3d 8f8e 8fbd 1732 403d
000002f0: 0492 febd f90a 0f3c 4d03 aebd f31a 17be
00000300: bfd0 2bbb 8ce7 2e3d 5573 1dbe f2d6 2bbd
00000310: b308 08be 4cb0 55bc cbdb 1cbd 06b6 7abd
00000320: 1620 4dbe bc41 3abe 9439 513c 5845 8abe
00000330: ea8c 13bb 726e cf3d 4e63 8ebd b33b 233e
00000340: 4dfc 403e e083 573e ffeb 56bd f684 583e
00000350: 40e5 dc3c bbdd 673d 0ae3 953b e1b8 6abd
00000360: ec8d bdbc e6fc 28bd b1a0 a33d dac0 0abe
00000370: 36dd 37bc 92e4 c5bc f42c 81bd a4ac 453d
00000380: cd04 e33c 5a2b 14ba e7b0 68bd 68a5 c5bd
00000390: 8a28 13be 3e14 d4bd 839e 783e 65d9 36bd
000003a0: cde3 ea3d d1e4 4b3d 4dd2 3fbd 0154 ea3c
000003b0: c6c0 d73d c5e8 1c3d d47e 5f3c 8b6e 5e3d
000003c0: cfd6 eabd 883a a33d d52c 26be 7a67 53bc
000003d0: 2d61 473c 6f6f 5fbd a911 85be 9987 2c3e
000003e0: 3fce 47be fead 113d c8cd 02be 7e89 25be
000003f0: 740a 05be 442a 573c dcb5 163d 427e e3bd
0.07110375 -0.054469947 -0.1596766 -0.023723777 -0.043173403 -0.068846054 0.26223293 -0.15004747
0.07893473 -0.11737943 -0.12677687 -0.011689881 0.24533556 0.105059944 -0.008754905 -0.13265516
-0.14144062 0.094396316 -0.113628864 -0.11350292 0.077107295 0.255395 -0.003431274 0.15105207
-0.058437828 0.1006329 -0.05967287 -0.05831642 -0.06630836 0.16505258 -0.1710233 0.1104805
-0.17609957 0.056440376 0.037360337 0.079165466 -0.05732325 0.26837516 0.043081686 -0.17537853
0.07033037 -0.0061876695 -0.024873378 -0.17715012 -0.16857268 -0.15317518 0.03978674 0.080923334
-0.21413304 0.008908586 0.07423511 0.07548476 -0.10629478 -0.09205216 0.002687594 0.12748538
-0.10712778 0.12547958 0.17354225 0.15079145 0.012324513 -0.025719205 0.06719979 0.1493757
0.068085894 0.17664783 0.26932263 -0.23355106 -0.03981442 -0.15526602 -0.10640046 -0.15004076
0.117226325 0.022552785 7.3706586e-05 -0.11253734 -0.11350731 -0.24948773 0.13521996 -0.15660253
0.1719368 0.12417038 -0.14044842 0.2431319 0.14072601 -0.085278936 -0.22015132 -0.14011566
-0.003399831 -0.06268368 0.018739589 -0.07152027 -0.02493151 -0.14480132 0.13917302 0.15853015
0.13664337 -0.13514417 0.14678787 -0.06621879 0.0026965607 -0.015420309 0.06134268 -0.1016877
0.16966163 -0.06722468 -0.081700526 0.079408236 -0.0075802924 -0.24471228 0.15838397 0.14765176
-0.023485877 0.1353287 0.16906804 -0.0815815 0.075261205 0.02321421 -0.18527469 0.106673025
0.25107077 -0.16745447 -0.067679085 0.13843673 -0.08470858 0.22541769 -0.20567767 -0.048479218
0.025440212 0.104515515 0.11448656 0.11044264 -0.058049522 0.04569691 0.017870251 0.1903071
0.20894279 0.19775617 0.02344062 0.06293952 -0.15397002 -0.06800199 0.06306572 0.009728681
-0.167458 0.0459184 -0.11733345 0.11025049 0.11936695 0.031435277 0.22703849 0.07526193
0.021446517 -0.011672145 -0.2434311 -0.013357902 -0.03033626 0.17518938 -0.21135359 -0.06734884
0.075459525 0.051640406 -0.17891508 -0.082912594 -0.27426153 0.015204547 0.09593177 0.09326186
0.11166242 0.12459798 -0.1569808 -0.08865365 -0.054176793 -0.24741143 0.018154018 0.019529535
0.17107396 -0.034779467 0.09706074 -0.14776234 0.16877379 -0.02589338 -0.061912972 -0.10754832
0.11684503 0.11609763 -0.07009613 0.04692277 -0.12430194 0.008730643 -0.08496723 -0.14756374
-0.0026216952 0.04270129 -0.15376027 -0.041953035 -0.13284568 -0.013042521 -0.03829555 -0.061208747
-0.20031771 -0.18189138 0.012770075 -0.2700603 -0.0022514411 0.10128488 -0.069525346 0.15940742
0.18846245 0.210464 -0.052471157 0.2114447 0.026964784 0.056607943 0.0045741843 -0.05730522
-0.023138963 -0.041256808 0.07989634 -0.1355013 -0.011222174 -0.024156842 -0.06307402 0.048260346
0.02771225 -0.0005652212 -0.056809332 -0.09650689 -0.14370933 -0.103554234 0.24279217 -0.044640917
0.11469231 0.049778763 -0.046831418 0.02860451 0.105348155 0.038307924 0.013641078 0.05430464
-0.11466753 0.07970148 -0.1622804 -0.012903089 0.012169165 -0.05454963 -0.25990036 0.16848601
-0.1951227 0.035566323 -0.12773812 -0.1616573 -0.12992269 0.0131326355 0.03679453 -0.11108066

bias_ih_l0 f4 [90]
00000000: e717 00be f15a fbbd a1d5 42be b4d8 fbbd
00000010: 9b9a de3c c540 4ebd b087 e6bc ab40 a43b
00000020: 4bc2 8ebd 55e6 29be a284 8f3d 0d70 22bd
00000030: 0d5f 4b3e 6e2b 76bd b754 d6bd c391 ebbc
00000040: 7f26 09be d8cb 503d f8a5 bc3d dfbb 6a3d
00000050: ead6 053e 333c aa3d c723 54bd ea1e 103e
00000060: 2301 fa3c 710a 56be e08b 8fbc 1554 29be
00000070: fcd7 903a 029f d8bd 5001 053d dfb0 a73d
00000080: 1fef cdbb 2e33 bb3d 6ab0 bb3c 5c31 b23d
00000090: a863 5cbd 1ebc ccbd c15e db3d d076 b1bd
000000a0: a79c 3a3e baf5 573d fca6 163e b3a1 463e
000000b0: 4dc2 073d d9e3 2ebd 9639 cebd bc95 983d
000000c0: 34fc 2b3e b25d a1bd 6c7b 41bd 5d8e 78bd
000000d0: d99f d4bd 5c5d f23d 909c 253c 1bbb 5f3e
000000e0: b092 26be 3924 9abd a087 e1bd 287a de3d
000000f0: 5027 6b3e faba 273d e8d3 11be bf63 80bd
00000100: 7451 a83d 4c9f fc3d 5feb ac3c 669f 8bbd
00000110: edd8 b4bd 4c81 523d ff77 92bd 061f 02bd
00000120: 4ca0 c13a 83ea 6fbe d40c 25be 21f7 2b3d
00000130: 36b7 4abe 8877 a03d b67a 3ebe 2ac9 fabd
00000140: c6cc 02be 1d83 913d 8560 313c c8a5 3cbc
00000150: 57c4 873d 87e8 003d 97a3 4abd 2a69 383d
00000160: 37f7 b73a d081 84be
-0.12509118 -0.12273205 -0.19026805 -0.12297192 0.027173331 -0.050354738 -0.028140873 0.005012592
-0.06970652 -0.16591771 0.070077196 -0.03965764 0.19860478 -0.06010001 -0.10465377 -0.028756028
-0.13393591 0.05097565 0.092113435 0.057308074 0.13070264 0.08312263 -0.051791932 0.14074293
0.03051812 -0.2090242 -0.017522752 -0.16535981 0.0011050696 -0.10577203 0.032471955 0.08188032
-0.006284609 0.09140621 0.02291127 0.08700821 -0.053805977 -0.09996818 0.10711432 -0.0866524
0.1822382 0.052724577 0.14712137 0.19397621 0.033144284 -0.04269776 -0.100695774 0.074504346
0.16795427 -0.07879199 -0.047236845 -0.060682643 -0.10382051 0.11834213 0.010108128 0.21848719
-0.16266894 -0.0752644 -0.110121965 0.10863143 0.22964215 0.0409498 -0.14240992 -0.06269025
0.08218661 0.12335071 0.021108327 -0.06817512 -0.08830438 0.05139284 -0.07151794 -0.031767868
0.0014772504 -0.23429303 -0.16118175 0.041983727 -0.19796452 0.07835299 -0.18601498 -0.122454
-0.12773427 0.07105086 0.010826235 -0.011514135 0.06629246 0.031471755 -0.049472418 0.045022167
0.0014035468 -0.2588029

bias_hh_l0 f4 [90]
00000000: 3e61 5bbd 2931 cb3d 2bde 6ebe 738c 783d
00000010: 17a5 bc3c c713 4a3e 99db 983d 401a 31be
00000020: 696d 57bd 1002 28be 555c 2e3e 98ba 3d3d
00000030: b4e5 a7bd a361 123e 5468 723d 46f9 1cbe
00000040: 224a 1b3d 98af 113e 0cfc d23d aa77 a0bd
00000050: cd99 05bd 306b 993d ecc1 7a3d 386a afbc
00000060: eda4 febd 0f9f 70be ee34 91bc 966f d83d
00000070: 699c 303d 66fa b63d 0b15 243e 276a 09be
00000080: d681 f83d 5cd3 433e 62f1 5ebc 083d 68bd
00000090: 313b 93bd b64d c2bd 1ac4 b3bd 6ab8 cbbd
000000a0: 13bc 143e c286 1e3e 8d80 b4bd de3c 8dbd
000000b0: 99ec 283e 6624 2ebe 599d 103e 6282 b5bc
000000c0: b780 293e 6fe7 9bbd e498 10bd c5ea 343d
000000d0: 6413 283e 298b 993d ddd0 403e f6b9 8e3e
000000e0: 7568 3ebd 21d1 fabd 5ed0 cabd 169d c0bb
000000f0: e7e5 e1bb ea86 f73d 739d 9cbd 03f0 063e
00000100: fd34 8d3c fdb7 4c3e 6d65 94bb 406f 293e
00000110: 0770 86bd 3d47 493e efdf 363e 3afd a1bd
00000120: f9c2 6bbe aaf0 21be 01d3 75bd 832d 113e
00000130: 04ac 023c 517e a53d 9dc0 26bd c9e0 063e
00000140: d4d6 613d c16c 44bd b986 bb3d 5896 98bc
00000150: 6bab b73c f010 953d 5cf3 82bc 2ff0 493e
00000160: 0c25 28bd a9a0 3f3d
-0.053559534 0.09921486 -0.23326938 0.060680818 0.02302794 0.19734107 0.0746376 -0.1729517
-0.052594576 -0.16407037 0.1702741 0.046320528 -0.08198109 0.14295058 0.059181526 -0.15329465
0.037912495 0.1422714 0.103019804 -0.07835324 -0.03261738 0.074911475 0.061220095 -0.021412954
-0.12433801 -0.23498176 -0.017725434 0.10568158 0.043117914 0.089344785 0.16023652 -0.134194
0.12134139 0.19123596 -0.013607355 -0.05669883 -0.07189024 -0.094874784 -0.08777638 -0.099472836
0.1452487 0.15481094 -0.088135816 -0.06896375 0.16496505 -0.17006072 0.14122523 -0.022156898
0.16553007 -0.07612502 -0.035302058 0.044169206 0.16413647 0.07497246 0.18829675 0.27876252
-0.046486337 -0.122469194 -0.09903024 -0.005878101 -0.0068938616 0.1208628 -0.076472186 0.13177495
0.01723718 0.19992061 -0.0045286925 0.16546345 -0.06564336 0.19656081 0.17858861 -0.07909627
-0.23023595 -0.15814462 -0.060015682 0.14177518 0.007975582 0.080807336 -0.040711034 0.13171686
0.055136517 -0.04795528 0.09156556 -0.018626377 0.022420606 0.07278621 -0.015985183 0.19720529
-0.041050956 0.046784077

weight_ih_l0 f4 [15, 30]
00000000: b8d2 3a3e 5f5b 083b 06e2 b03e b2f9 07be
00000010: 6286 17be 448b 8b3e 7a3f 993c 4048 d43e
00000020: 5c20 d33e 200c 123e f006 3cbe 341f 353e
00000030: 8ce5 a4be b8cf af3e d7b8 acbe 6678 843e
00000040: 2579 9fbe 154e 683d 3b38 373e 6cb7 a43e
00000050: a845 1d3e bd6e 673d ecc6 1fbe 603a 08bd
00000060: 6cab 203e 746c d5be c089 b3bd 56b3 933e
00000070: 6aba 433d 7300 11be 6a3d d6be ec23 b73e
00000080: b4b8 77be 28a2 d83e 8cca e1be 9739 9e3e
00000090: e2ac ad3e 38b0 d03e 3dc6 45be 28e0 8fbe
000000a0: 76fd 7dbe 9ce2 21be db8c 7bbe 7509 053e
000000b0: 5c3a 26be b80d 6e3e 8273 cd3d c155 a5bd
000000c0: 5398 9dbe 1cc6 493e b909 49bc e318 9cbc
000000d0: 2c64 313e f274 94be 02ad f9bc eeab 1dbe
000000e0: 06fa f53d bc4a 363e 75ec 2f3e a699 683e
000000f0: 0347 aabe 5a8d 51be 5e0e b83e b62d a13e
00000100: 7c19 24be f72a c1be 1c02 bebe c002 9e3d
00000110: 9c43 573e 54d4 64be 8c9a 86be de64 2abe
00000120: 84c0 283e 6018 c83e 3491 d83e 387e a4bd
00000130: b120 613c 9812 d6be f04e 9e3c 50ec 5e3d
00000140: 36a8 7dbe b68e adbe 4c5a b1be ba0d e0be
00000150: 8d4a 5fbe f09d 29bd a9e3 683e e492 cebd
00000160: 38da f33d 7af4 bc3e 944f 3f3e c4a3 0a3e
00000170: 60b5 f8bc bf10 b6be be10 55be 7003 4ebd
00000180: fc8a febd 5874 62bd 10d4 c83e c41a 39be
00000190: 7df9 91be 475f cabe 4ecf a4be 6272 a2be
000001a0: c082 15bc 466e 973e c730 4abd b65f 9bbe
000001b0: b8fe dabd 2002 5ebc c23d b0be 9dba a73e
000001c0: e8cd ca3d f066 e43e 9650 32be 941f 013e
000001d0: 3c01 f4bd 18e9 e13d 50f6 9b3c 5c27 d1be
000001e0: c8f2 ba3d 7a99 4a3e bf71 b3be d0a6 2fbe
000001f0: 48dd c4bd 7bad acbe c0fc a1bb 2487 6cbe
00000200: 2c7d bb3e 34bd 823e 31e0 90be d435 f2bd
00000210: 003c 9a3b 2ced 9dbe 5afb 0cbe 10ed 9e3d
00000220: b416 e83e 080a 01be 8c3d 4b3e e0cd 293d
00000230: ad25 3ebe 2dbf f73c 9aeb a1be 60f0 bfbc
00000240: 22e2 3fbe 884d 44be cb84 473d 7dc8 aabe
00000250: b6dc 863e 4719 88be 188b cbbd 4d97 8f3e
00000260: 248c a9bd 3418 5cbe 1168 e1be 491a be3e
00000270: 1e7e c6be 6c8c 47be c7f6 0f3b 70d2 c53d
00000280: 3067 84bd 84ce 1fbe d686 a33e 7a0b ad3e
00000290: 84c4 26be e090 afbc 7877 81be 95ac 7e3e
000002a0: fa03 ba3e fc33 a23e db08 92be 2dd5 843e
000002b0: bc4c 2ebe 83c8 afbe 2f47 db3c 2add df3e
000002c0: 4171 bdbe a414 ddbe a9e9 e83d 9370 93be
000002d0: bc60 723e 29d6 a83e 6084 07bd d091 ea3d
000002e0: a4e2 773e 826d 193e c9a4 e33e 83a3 a8be
000002f0: c119 a5be 0ca7 b63e 9029 f63d 0118 b0be
00000300: 5ce2 7bbe f26a 843e d230 8bbe 519e 7ebe
00000310: 82cd bdbe 1c2c 0bbe 7e7c c5be 80a4 babd
00000320: 4093 1b3e a25d c7be edc8 66be 08b9 a63d
00000330: 8bf6 acbe 8678 40be bd7d 1c3e 0673 34be
00000340: 8e94 a63e 5de8 5a3e 0c59 08be d76b 413d
00000350: a04a fdbc 440f 13be b2f8 aebe a417 db3c
00000360: c76c 25be f765 bfbe dbeb ccbd e0f6 5c3c
00000370: 4873 c43e a8f8 493e 1074 5c3d c12d 2c3e
00000380: 0672 893e 1c4e 7dbe aa29 e73e 3909 88be
00000390: 0421 92bc 8c01 3e3e 737e a23d 27bb a1be
000003a0: aef2 df3e 942b 92be e59b 4bbe 90e5 743d
000003b0: dae5 27bd 098c dabe 830d 143e 5cc0 97bd
000003c0: 009c 933d 32b9 21be f06a 343d cc71 5d3e
000003d0: e7ec e1be abc3 d63c 4d9b b7be 3601 bbbe
000003e0: 7654 b6bd 805d 54bc 6301 87be 40a8 fcbd
000003f0: 54d5 2ebe e4b6 fabd e0be 4e3c c85a c23d
0.18244445 0.0020806415 0.34547442 -0.13278845 -0.14797357 0.2725469 0.018707026 0.41461372
0.41235626 0.14262438 -0.18362021 0.17687684 -0.3220638 0.34338164 -0.33734772 0.25873107
-0.31147113 0.05671509 0.17892544 0.3217119 0.15358603 0.056502093 -0.15603226 -0.033258796
0.15690392 -0.41684306 -0.08766508 0.2884776 0.0477852 -0.14160328 -0.4184373 0.35769594
-0.24191552 0.42311215 -0.44099844 0.30903313 0.33920962 0.40759444 -0.19313903 -0.28100705
-0.24803719 -0.15809101 -0.24565451 0.12991889 -0.162332 0.23247421 0.10031797 -0.08072997
-0.30780277 0.19704479 -0.0122703845 -0.019054836 0.17323369 -0.28995472 -0.030478004 -0.15397617
0.12010579 0.17801946 0.17180045 0.22714862 -0.33257303 -0.20464078 0.3594846 0.31480187
-0.16025347 -0.37728092 -0.37110984 0.07715368 0.21021885 -0.22346622 -0.26289785 -0.1664004
0.16479689 0.39081097 0.4229828 -0.08031887 0.013740704 -0.4181106 0.01932475 0.054424584
-0.24771199 -0.33897942 -0.34639204 -0.43760473 -0.21805783 -0.041410387 0.22743095 -0.10086611
0.11906856 0.3690527 0.186827 0.13539034 -0.030359924 -0.3555965 -0.20807168 -0.050296247
-0.12428853 -0.055286735 0.3922429 -0.18076617 -0.28510657 -0.39525816 -0.3218941 -0.31727892
-0.0091254115 0.2957632 -0.049362924 -0.3034646 -0.10693115 -0.013550311 -0.34422117 0.32759562
0.09902555 0.44609785 -0.17413554 0.12609702 -0.11914298 0.11030787 0.01903835 -0.4085034
0.09128338 0.19785109 -0.3504772 -0.17153478 -0.096125185 -0.33726105 -0.00494346 -0.23098427
0.36618936 0.25534976 -0.28296044 -0.11826673 0.0047068596 -0.3084501 -0.13767758 0.0776006
0.4532982 -0.12601483 0.19847697 0.041456103 -0.1856906 0.030242527 -0.31625062 -0.02343005
-0.18738607 -0.19170201 0.048710626 -0.33356085 0.26340264 -0.26581785 -0.099386394 0.2804512
-0.08278683 -0.21493608 -0.4402471 0.3712943 -0.38768095 -0.1948716 0.002196716 0.096592784
-0.06464994 -0.15606123 0.3193881 0.33797818 -0.16285902 -0.021431386 -0.2528646 0.24870522
0.3633116 0.31680286 -0.2852238 0.2594389 -0.1702146 -0.34332666 0.026767341 0.43723422
-0.37000468 -0.4317981 0.11372692 -0.28796825 0.23669714 0.3297589 -0.033085227 0.11453593
0.2420755 0.1498318 0.4446166 -0.3293725 -0.3224621 0.35674322 0.12019646 -0.34393314
-0.24598068 0.25862843 -0.27185684 -0.2486508 -0.37070853 -0.13591045 -0.38571543 -0.09113407
0.1519289 -0.38938624 -0.22537585 0.08140761 -0.33781847 -0.18795976 0.1528234 -0.17622003
0.32535213 0.21377702 -0.13315219 0.047221985 -0.030919373 -0.14361292 -0.34174114 0.026744671
-0.16154777 -0.3738248 -0.10005923 0.013486594 0.38369203 0.19723761 0.053821623 0.16814329
0.26844805 -0.24736828 0.45148975 -0.26569536 -0.017838009 0.18555278 0.079342745 -0.31588098
0.43739837 -0.28548872 -0.19883688 0.05978924 -0.040990688 -0.42684963 0.1445828 -0.074097365
0.07207489 -0.15793303 0.044047296 0.21625441 -0.44126055 0.026216349 -0.35860673 -0.3652436
-0.089028284 -0.012961745 -0.26368245 -0.12336779 -0.17073566 -0.12241915 0.01261875 0.094899714

weight_hh_l0 f4 [15, 5]
00000000: 3abc 9bbe 1184 bfbe 2012 963c 295f 4fbe
00000010: 598e 5bbe 10f5 e1bc 048f 5f3e 94ef 9b3e
00000020: e804 99be e08d 4d3d d4eb 71be bc7e 0d3e
00000030: 1013 9bbc 7000 74bd 80ee 5bbb 6809 b43e
00000040: f844 aa3d 785d 0cbe 9499 a8be ee84 87be
00000050: b0e1 9cbd 10d3 0c3d 602f 8b3e acb4 2a3e
00000060: 50ec 1cbe ba85 a9be 84d0 ac3e 0fc0 bfbe
00000070: e8a9 d43e f66f d0be b220 9cbe 8808 2d3e
00000080: b47b aa3e e039 c53e 3ac8 b9be bbe3 66be
00000090: 8cb6 95be 21a8 76be 9ce2 233e b035 98be
000000a0: c272 25be 1069 82bc 6b43 95be 9926 afbe
000000b0: 36bf 0bbe 14d7 f5bd 78b4 2dbd 3aa9 a83e
000000c0: f8a3 cb3e ae26 d7be f8ec ab3d 04ae b33e
000000d0: 384b b33e 69f8 90be f081 833e b286 74be
000000e0: 7c83 d83e 2eee 16be 7df7 d1be f84c c33e
000000f0: fdac bfbe e685 c13e b763 a4be 4316 98be
00000100: 140b 5d3e e825 7e3e b6d4 cb3e 6cb4 0a3e
00000110: ae05 933e a0da a1bd 94bd d3be d0d4 483e
00000120: 0390 debe d197 50be 94df 343e
-0.30417043 -0.37405446 0.01831919 -0.20251144 -0.2144102 -0.027582675 0.218319 0.3045622
-0.29886556 0.05018413 -0.23625118 0.13817877 -0.018929988 -0.05957073 -0.0033558905 0.35163426
0.08313936 -0.1370753 -0.3292967 -0.26468605 -0.07660234 0.034380972 0.27184582 0.16670483
-0.15324521 -0.33109838 0.33752835 -0.37451217 0.41535878 -0.4071042 -0.30493695 0.16897786
0.33297503 0.38520718 -0.36285573 -0.2254781 -0.29240835 -0.24087574 0.16004413 -0.2972846
-0.16157058 -0.015919238 -0.29152998 -0.34209135 -0.1364716 -0.120039135 -0.042408437 0.3294161
0.39773536 -0.42021698 0.083948076 0.350937 0.35018325 -0.28314522 0.25685072 -0.23879507
0.42287815 -0.14739296 -0.4100913 0.3814466 -0.37436667 0.3779747 -0.32107326 -0.29704484
0.21586257 0.24819148 0.39810723 0.13545388 0.2871527 -0.079030275 -0.41355574 0.19612432
-0.43469247 -0.20370413 0.17663413

bias_ih_l0 f4 [15]
00000000: 8e6b 06be 7f02 b53e cbda 953e 6235 b3be
00000010: 9781 1ebe 6bec 043c 33c5 e93e a2b5 a5be
00000020: c7a4 893d acb5 9f3e 03d6 9d3d 7b90 ca3d
00000030: f14f b4bd c0b2 c4be 1b07 973e
-0.13126966 0.35353467 0.29268488 -0.35001665 -0.15479122 0.008113007 0.45658264 -0.32365137
0.06720882 0.31193292 0.07706835 0.09890839 -0.0880431 -0.38417625 0.2949761

bias_hh_l0 f4 [15]
00000000: 6c8a 1cbd c2c7 4ebe 364e f4bd 3889 9c3e
00000010: 1979 b9bc 8168 d43e ebf0 8ebd a9bf f63d
00000020: ff5c fa3c de78 cc3e eeb4 d43e 11da 20be
00000030: e93f 063e 4fb4 833e 3fec 5c3e
-0.038217947 -0.20193389 -0.1192898 0.3057344 -0.022640752 0.4148598 -0.06979545 0.12048275
0.030561922 0.39935964 0.41544288 -0.15708186 0.13110317 0.25723502 0.21574496

weight f4 [8, 150]
00000000: b1c1 f3ba f6d8 9dbc f850 873c f567 da3c
00000010: 3c8f 39bc 1139 5dbb f1e7 2abc 9068 dbbb
00000020: b78e a73b 300a dd3c 6474 7d3d 6ecf 30ba
00000030: 48ce ecbc 7a84 3e3c c380 e3b9 25df 1cbc
00000040: d633 373c 1f20 443b 28ef 15bb b213 0cbc
00000050: 3575 3f3c 266c 2ebc 8c92 8d3c 308c f7bc
00000060: 3efa a53b 0daf 34bc 14f6 943a 065d 743a
00000070: be2c 483c 4e72 643c a848 8ebc 3d1a 5b3c
00000080: 357a 3ebc 07b9 ac3b 0b86 c83c 0182 3ebc
00000090: 2e7f eeba df71 16bc c089 013c e67d 153c
000000a0: fbf3 e53b dc4d 33bc 180b f53b d190 26bb
000000b0: c542 353c eaab 0d3d 558b 71bc 2856 31bc
000000c0: dca3 aa3b 5a07 8e3c 83bd 743c 75dc 18bc
000000d0: f4b8 90bc ff07 9cba 93ba 21bc 9c75 343b
000000e0: f4b5 b7bc a6a5 a33b f729 b83a 39f8 1cbc
000000f0: ae1a 61bc 039e 8a3c 5cea d7b9 9d5e 073c
00000100: 6ff6 dbbb 2066 49bc 3e86 e0bb ca95 de3b
00000110: 8719 b5b9 ea91 5e3c 7de8 d6bc 6db1 483c
00000120: 043e 113c 4997 38ba ec4d 563c c5c8 6239
00000130: a1f5 3a3c c60c 95bb db61 833b d844 0a3c
00000140: 385a b53b 2931 5c3b f257 3bbc e772 243b
00000150: d47a 173b 3cf3 8bbc be19 2b3c 20ce b937
00000160: ccf1 843b 59ba b53b 7306 21bb 20e1 313c
00000170: 01ab e8ba 4354 283c efe6 913b 34d5 eebb
00000180: 6e45 603c a3d8 cabc b023 a43a 86cf 3d3c
00000190: 1769 703c 5fb4 b1bb baca 4ebc 9aef 173c
000001a0: 8623 a33c fe57 2b3d a031 eebc 4736 36bc
000001b0: 5c17 bd3b 6ce9 bb3c b9df cf3c 7a11 0fbd
000001c0: a889 073b 5ff9 88bb e777 c3bb ca5c 593b
000001d0: cacc a63a 33f6 723b f107 88bb 1573 ac3b
000001e0: 05ef a63a fb34 46bb ea21 103c fd23 00bc
000001f0: 44f9 173c b134 7cbc aa66 1f3c 62fa 25bb
00000200: 1fde 253b d1cf f0bb 3335 17bc 5da0 c23c
00000210: 71d1 39bc 1399 8aba 7606 c53c 06d9 19bb
00000220: 74c5 033c d411 b4bc 1ad7 c6b9 a347 9c3c
00000230: 7a51 05bc 2df1 cc3c c95c e23b f359 53bc
00000240: 0a0a 843b c406 6ebc 5695 1cbd 65b9 0fbc
00000250: caf3 053b f5d4 46bc 2422 493d f1fd c4bb
00000260: afe8 f0bc 70a5 89bc c5c3 ecbc 1f63 043d
00000270: 0856 04bd 59ba 11bc 8997 72bc 1199 e93d
00000280: 2bab 273d 9a05 113d 1704 83bd 7540 43bd
00000290: 75c4 283c dbfb 46bc 2bc6 4ebc 419d 113d
000002a0: d08b 90bc eafb 133d de11 c53a 146c c43c
000002b0: 4207 333c 6e5a 7abd 8de4 64bd 1e1e 1c3d
000002c0: 6bb3 e73c 2320 dd3c f61d 0ebb c667 7e3c
000002d0: c978 80ba 568e 143c a843 b8bb a1fa e4bb
000002e0: cf94 e73c d0dc a4bc d218 fb3c 96ae 813c
000002f0: ac86 60ba 023f 5b3c 3785 04bd fcbe 443d
00000300: ff9c aebc daee 44bc c98b b8bc 144d d0bc
00000310: 181b 123d 4738 0ebd 3909 bebc 233e 48bc
00000320: ae53 e7bb 08cb 003d 2c3e 0fbd 3c22 913c
00000330: b5fe b73c f399 d2bb b786 a73c 21fd 0ebc
00000340: 59c0 0c3d 4758 07bc b568 c43c 6d0d b1bc
00000350: b708 09bd f3ed 1fbc d0c7 52bc 0683 b83c
00000360: 0421 e53c d508 b5bc de6b 22bb 5d71 553b
00000370: d7f1 2dbc da4d 6f3c 234a 143b 64f6 75bc
00000380: 1dae b63b ba8d 62bc b4f4 813d 5a8e 04bd
00000390: ef88 c83c b3b7 473d e16b 5dbc 41f2 ac3c
000003a0: 877c c6bc 545d a9bc 36bc 15bb 6fc9 a83c
000003b0: bec3 d1bc 56ce 5ebd ec35 29b9 2b37 db3b
000003c0: aecb 6bbc 3c41 36bd ae53 113c 322a a1bc
000003d0: 6780 253d acf1 8a3c 0de8 d23c 4ed4 b138
000003e0: c676 56b9 a05f b93c d6a6 82bd ac0e c73d
000003f0: ebd8 ff3b 69f2 af3c ee71 9c3c 6300 05bd
-0.0018597153 -0.019268494 0.016518101 0.026660899 -0.011325654 -0.0033755938 -0.010431276 -0.0066958144
0.0051134485 0.026982397 0.061878577 -0.00067447766 -0.028906956 0.011628265 -0.0004339275 -0.009574686
0.011181792 0.0029926372 -0.0022878144 -0.008549618 0.011685659 -0.010645902 0.017281793 -0.030218214
0.0050652316 -0.0110280635 0.0011364841 0.0009321723 0.012217699 0.013943268 -0.01736863 0.013372955
-0.011625816 0.0052710804 0.02447798 -0.011627675 -0.0018195861 -0.009182422 0.007906377 0.009124255
0.00701761 -0.010943856 0.007478129 -0.0025415907 0.011063282 0.03458778 -0.014742692 -0.010823764
0.005207522 0.01733749 0.014937761 -0.009329905 -0.017666318 -0.0011904238 -0.009871143 0.002753592
-0.02242563 0.004994112 0.0014050592 -0.009580665 -0.013739271 0.016921049 -0.00041182607 0.008262304
-0.006712727 -0.012292415 -0.0068519404 0.0067927586 -0.0003454203 0.013584593 -0.026233906 0.012249333
0.008864883 -0.0007041586 0.013080101 0.00021627832 0.011411102 -0.004548642 0.004009468 0.008439265
0.0055344366 0.0033598638 -0.011434542 0.0025092901 0.0023113983 -0.017083757 0.010443149 2.2149703e-05
0.0040571447 0.005545896 -0.0024570494 0.010856897 -0.0017751158 0.010273996 0.0044525783 -0.0072885994
0.013688428 -0.024761504 0.0012522843 0.011585122 0.014673493 -0.0054231132 -0.012621576 0.009273434
0.0199144 0.041831963 -0.029076397 -0.011121339 0.005770607 0.022938453 0.025375234 -0.034928776
0.0020681415 -0.004180118 -0.005965221 0.003316688 0.0012725827 0.0037073016 -0.0041513373 0.0052627423
0.0012736028 -0.003024398 0.008797148 -0.00782108 0.009275738 -0.015393422 0.009729067 -0.0025326242
0.0025309396 -0.0073489924 -0.009228992 0.023758108 -0.011341439 -0.0010574184 0.024050932 -0.0023475303
0.008042682 -0.021981157 -0.00037925766 0.019077128 -0.008137101 0.025017345 0.0069080335 -0.0128998635
0.004029517 -0.01452798 -0.038228355 -0.008772229 0.00204395 -0.012135734 0.049104825 -0.0060117175
-0.029407827 -0.01680252 -0.028901944 0.03232109 -0.03230861 -0.008894526 -0.014806637 0.11406148
0.040934723 0.035405733 -0.063972645 -0.047668893 0.010300745 -0.012145008 -0.012620489 0.03555036
-0.017644793 0.036128916 0.0015035232 0.023977317 0.010927023 -0.061121397 -0.055882026 0.03811466
0.028283795 0.026992863 -0.0021685339 0.015527671 -0.0009801622 0.009067139 -0.0056232996 -0.006987885
0.0282692 -0.020124823 0.030651484 0.01583032 -0.00085649895 0.013381721 -0.032353606 0.0480337
-0.021315096 -0.012019837 -0.022527592 -0.025427379 0.03567037 -0.03472164 -0.023197757 -0.012221846
-0.007059536 0.031443626 -0.0349714 0.01771652 0.022460321 -0.0064270436 0.02044998 -0.008727343
0.034363125 -0.008260793 0.02397571 -0.021612847 -0.033455577 -0.009761321 -0.012865022 0.022523414
0.027969845 -0.022098938 -0.0024783532 0.003256879 -0.010616741 0.014605964 0.0022627197 -0.015012357
0.005574955 -0.013827736 0.063455015 -0.03236232 0.024479358 0.048759174 -0.01351449 0.02111161
-0.024229301 -0.020674385 -0.0022847778 0.020603864 -0.025606032 -0.054395996 -0.00016137183 0.006689926
-0.014391823 -0.044495806 0.008870048 -0.01967344 0.040405657 0.016960941 0.025745416 8.4795625e-05
-0.00020452877 0.022628605 -0.06379478 0.09719595 0.007807841 0.021477895 0.019097295 -0.032471072

bias f4 [8]
00000000: 4701 743d ed9f d8ba 4042 dcbc c095 e83c
00000010: 021c 08bd 9b96 543d 929b 3bbd 6a9c d5bc
0.05957153 -0.0016527154 -0.02688706 0.028391719 -0.033229835 0.05190144 -0.04580266 -0.02607556

weight f4 [1, 24]
00000000: 5411 693e 63dc 7e3d 7d3d 683d e4f8 cb3c
00000010: 633f 903c 40d8 23bd c247 023d 8521 3bbe
00000020: 5079 04be 66e7 873c 3633 9a3d 586f c23e
00000030: 2495 b53b 49db e3bd 971e 16bd 7e5c 15be
00000040: 2b8d 0e3e 3c43 a2bd 7619 a93d 312b af3d
00000050: bf48 093e d0bf 6c3a 3506 973d 197e 9d3e
0.22760516 0.062221896 0.056699265 0.024898954 0.01760835 -0.040001154 0.031806715 -0.18274505
-0.12936902 0.016589832 0.07529299 0.37975574 0.0055414606 -0.1112581 -0.036650266 -0.14586064
0.13921039 -0.0792298 0.082568094 0.0855316 0.13406657 0.0009031268 0.07374231 0.30760267
