model_files/LSTNET/lstnet_model_hor_7_win_35.pt (torch, 41275 bytes, 13 tensors)

weight f4 [30, 1, 6, 8]
0	0x3ddc757d	0.107645966
1	0xbd64e12e	-0.05587881
2	0xbdd6ae5d	-0.10482476
3	0x3db87e4e	0.09008466
4	0xbe0454ef	-0.12923025
5	0xbd4487d1	-0.047981087
6	0xbc713f62	-0.014724584
7	0xbdcde489	-0.10053355
8	0xbe023b48	-0.12717927
9	0x3d6da5c4	0.058019415
10	0x3d1b3cdf	0.037899848
11	0x3c6f0b79	0.014590138
12	0x3d458d9b	0.04823075
13	0xbe153c64	-0.14573818
14	0x3d67382e	0.05645006
15	0xbe269758	-0.1626867
16	0xbd93ecf8	-0.072229326
17	0x3c9e94b3	0.019358015
18	0xbd4a70ea	-0.04942409
19	0x3dc540db	0.09631511
20	0xbbf929b8	-0.00760385
21	0x3d66bf9a	0.05633507
22	0x3d8049b4	0.06264058
23	0x3ccb4466	0.024812888
24	0x3da40114	0.08008018
25	0xbe0e369d	-0.13888021
26	0x3e053cb3	0.13011436
27	0xbcd3b869	-0.02584477
28	0x3d08e58f	0.03342205
29	0xbccdea7b	-0.025136223
30	0x3d7baf37	0.061446395
31	0x3d375138	0.04475519
32	0xbe1fadef	-0.15593694
33	0x3da7b658	0.08189076
34	0x3c30843c	0.010773715
35	0xbdd17876	-0.10228054
36	0xbca2fbce	-0.01989546
37	0x3dcea19b	0.100894175
38	0x3dfa2722	0.12214495
39	0x3d2fcac8	0.042917997
40	0xbd02794a	-0.03185395
41	0x3d71d6ad	0.05904262
42	0x3e00c369	0.12574543
43	0xbdf243af	-0.11829316
44	0xbd1dfb22	-0.038569577
45	0xbcb49613	-0.022044217
46	0xbd6a3ade	-0.057185046
47	0x3c435245	0.01192147
48	0xbd93b442	-0.07212116
49	0xbc888988	-0.016667143
50	0xbc86ba47	-0.016446246
51	0x3dbc2c06	0.09188084
52	0x3dc2974f	0.09501516
53	0xbd9f4a68	-0.07777864
54	0xbe04b4e1	-0.12959625
55	0xbd996f95	-0.07491986
56	0xbcfb3e0b	-0.030669233
57	0x3d830c74	0.063988596
58	0xbd0fe365	-0.03512897
59	0x3d469d87	0.048490074
60	0xbe05c9e8	-0.13065302
61	0x3d2dbb79	0.042415116
62	0x3d98d93c	0.07463309
63	0xbdfd36e1	-0.12363983
64	0x3dac5c82	0.08416082
65	0xbe3df237	-0.18549429
66	0x3c362801	0.011117936
67	0x3dcf0aa8	0.101094544
68	0x3d38cfb7	0.045119967
69	0xbc34d7a3	-0.01103774
70	0x3d9e2f7f	0.07723903
71	0xbd5b218f	-0.0534988
72	0xbd89d6b7	-0.06730407
73	0x3caa84ba	0.020815242
74	0x3db423c7	0.087958865
75	0x3dcaa046	0.09893851
76	0xbe092a2b	-0.13394992
77	0xbde59fe9	-0.11212141
78	0xbe280158	-0.16406763
79	0xbdf2c6ea	-0.11854346
80	0x3d7c2e16	0.06156739
81	0x3d956a23	0.072956346
82	0xbdc3be63	-0.09557798
83	0x3d713370	0.058886945
84	0xbde43231	-0.11142386
85	0xbdc93369	-0.09824259
86	0xbe0ec6fe	-0.13943097
87	0xbd4be6c0	-0.049780607
88	0xbdb42ef3	-0.08798017
89	0x3d5a521d	0.053300966
90	0xbd278972	-0.040902562
91	0xbe24293b	-0.16031353
92	0x3deae45b	0.114693366
93	0xbbc7890a	-0.0060893344
94	0xbde29eac	-0.110654205
95	0x3dbe3bc0	0.0928874
96	0xbdbfb275	-0.0936021
97	0xbcffd994	-0.031231679
98	0x3dfce5a8	0.12348491
99	0xbdb0ec43	-0.08638813
100	0x3d6d51f0	0.05793947
101	0x3cd76ae0	0.02629608
102	0xbd915fcd	-0.07098351
103	0x3df3b8dc	0.119004935
104	0xbdc43ae2	-0.095815435
105	0x3e1203c6	0.14259252
106	0xbd198ca8	-0.037487656
107	0x3d4791e8	0.04872313
108	0xbdfcbcbb	-0.12340685
109	0xbd3112ba	-0.04323075
110	0xbde3a791	-0.11115945
111	0x3d9d7296	0.07687871
112	0xbd97f7aa	-0.07420285
113	0xbded85d3	-0.115977906
114	0xb9569000	-0.00020462275
115	0x3d558a94	0.05213411
116	0xbdb0196c	-0.08598599
117	0xbdaaea3f	-0.0834546
118	0xbc968750	-0.018375069
119	0xbdd0ba1e	-0.10191749
120	0xbd24c208	-0.040224105
121	0xbdb1c5fe	-0.08680342
122	0xbe04b155	-0.12958272
123	0xbe13579b	-0.14388888
124	0xbd866ec9	-0.06564099
125	0xbd3f0874	-0.04663892
126	0xbdf9fd16	-0.122064754
127	0xbd9430e7	-0.0723589
128	0x3d37e0e0	0.044892192
129	0xbdbae692	-0.09126009
130	0x3e06e51c	0.13173336
131	0x3ddde834	0.10835305
132	0xbdd35d70	-0.10320556
133	0xbddd7b8c	-0.1081458
134	0x3df57a3c	0.11986205
135	0xbd46330a	-0.04838852
136	0x3dd59eee	0.10430704
137	0x3c4227e0	0.011850327
138	0xbdfe8d2a	-0.12429269
139	0xbde725eb	-0.11286529
140	0x3dd28646	0.10279517
141	0x3d61f324	0.055163518
142	0xbd5303da	-0.051517345
143	0x3dce48ea	0.10072501
144	0xbd248be2	-0.040172465
145	0x3de932c7	0.11386638
146	0x3dc67877	0.096909456
147	0xbda45bea	-0.08025344
148	0x3db728ec	0.08943352
149	0x3d86e45a	0.06586523
150	0x3ced0c1c	0.028936438
151	0xbe093ba1	-0.13401653
152	0x3ddd2b1b	0.10799237
153	0xbd986e92	-0.074429646
154	0x3d89b7a4	0.0672448
155	0xbc47af07	-0.012187726
156	0x3e01ab18	0.12662923
157	0xbd89fd98	-0.06737822
158	0xbdac748e	-0.084206685
159	0xbc80e873	-0.01573584
160	0xbd37ffce	-0.04492169
161	0xbc96b74b	-0.018397948
162	0xbe1b1925	-0.1514631
163	0xbdd36b61	-0.10323215
164	0xbd8bff8f	-0.06835853
165	0x3dc5c36b	0.09656414
166	0x3d1b81db	0.037965637
167	0xbcf0216d	-0.029312814
168	0x3de79d9b	0.11309358
169	0x3da496a2	0.080365434
170	0xbc4c7ee6	-0.012481427
171	0x3da2af59	0.07943601
172	0x3e05ea8f	0.13077758
173	0x3d85c35f	0.06531405
174	0x3dd981a8	0.10620433
175	0xbdc1a5fe	-0.094554886
176	0x3d2eaec4	0.04264714
177	0xbe114746	-0.14187345
178	0x3d726392	0.05917699
179	0xbd4ca919	-0.04996595
180	0xbe1050d6	-0.14093336
181	0x3c456be7	0.012049652
182	0x3ab52f36	0.0013823274
183	0xbe278525	-0.16359384
184	0x3d0faabd	0.035074938
185	0x3c0be0a4	0.008537445
186	0x3cffa591	0.031206878
187	0xbde14a99	-0.110005565
188	0x3e0df74c	0.13863868
189	0x3cdb8912	0.026798759
190	0xbd535e27	-0.051603463
191	0x3d88719a	0.06662293
192	0x3e599772	0.21249178
193	0x3e169bc7	0.14707862
194	0xbe085d8f	-0.1331694
195	0xbd1c9ebc	-0.03823732
196	0xbd89d700	-0.06730461
197	0x3e029777	0.12753092
198	0x3e75abc3	0.23991303
199	0x3c0e77e3	0.008695575
200	0x3d683a2d	0.056696106
201	0x3e00572d	0.12533255
202	0x3d326967	0.04355755
203	0x3d75f803	0.060050976
204	0xbe989f28	-0.29808927
205	0x3e6b0054	0.22949344
206	0x3e485ae6	0.19565925
207	0xbcd78596	-0.026308816
208	0x3d97755d	0.07395432
209	0x3dc53aa5	0.09630326
210	0xbd636ab1	-0.05552167
211	0x3d9077f2	0.07054128
212	0xbe221dff	-0.15831755
213	0x3d11def4	0.035613015
214	0x3d24390c	0.040093467
215	0xbc357340	-0.011074841
216	0x3dac206c	0.084046215
217	0x3d02116b	0.031754892
218	0x3d163e51	0.036680523
219	0x3e4bbb0e	0.19895574
220	0xbe20d663	-0.15706782
221	0xbe4cc8a0	-0.19998407
222	0x3df3f572	0.11912049
223	0x3e1ca461	0.1529708
224	0x3cbd3e94	0.023101129
225	0x3e303b6b	0.17210166
226	0x3ddc003d	0.10742233
227	0x3cde82ce	0.027161982
228	0xbd6b2f40	-0.057418108
229	0xbdc6008c	-0.09668073
230	0x3d89f325	0.06735829
231	0x3e5d6a6f	0.21622632
232	0xbbac30c0	-0.005254835
233	0x3dfb2eea	0.122648075
234	0x3e7535f1	0.23946358
235	0x3d5df9a8	0.05419317
236	0xbd603014	-0.05473335
237	0xbe79fd9f	-0.24413155
238	0xbcb65a93	-0.022259986
239	0x3ddcc9da	0.10780688
240	0x3dd8ae3e	0.10580109
241	0xbe038a42	-0.1284571
242	0xbd8d13cd	-0.06888542
243	0xbe183c7a	-0.1486682
244	0xbd53bcd3	-0.05169375
245	0x3e1e6aa1	0.15470363
246	0xbd96f8e3	-0.0737169
247	0xbe0b7c47	-0.13621627
248	0x3d34a80b	0.04410557
249	0x3dad4710	0.0846082
250	0x3d280639	0.04102156
251	0xbe12df31	-0.14342953
252	0xbe9a5de3	-0.30149755
253	0x3e8fadc8	0.28062272
254	0xbdb70555	-0.08936564
255	0x3dbeb043	0.09310963

bias f4 [30]
0	0xbddf33ed	-0.10898576
1	0xbe1c182e	-0.15243599
2	0xbadadb00	-0.0016697347
3	0x3d4090ea	0.0470132
4	0x3e2ef6a2	0.1708627
5	0x3d866850	0.06562865
6	0xbdf5eeee	-0.12008463
7	0xbdf9bb2f	-0.121939056
8	0x3d8ea414	0.06964889
9	0x3d88cb83	0.06679442
10	0x3d33f066	0.043930434
11	0xbd82b451	-0.06382049
12	0xbcacdf0a	-0.021102447
13	0x3d3e9a5f	0.04653394
14	0x3d5f0d94	0.05445631
15	0xbdd4cfba	-0.10391183
16	0x3d055197	0.032548513
17	0xbd5bf764	-0.053702727
18	0x3dd73f36	0.105101034
19	0xbe036d79	-0.12834729
20	0x3d70bc86	0.05877354
21	0xbd02762d	-0.031850982
22	0xbd9716d6	-0.073774025
23	0xbe14d50a	-0.14534393
24	0x3d40fd69	0.04711667
25	0x3c7cba0f	0.015425219
26	0xbda52d99	-0.08065338
27	0xbcfa22e8	-0.030534223
28	0x3cff23d0	0.031145006
29	0x3d27d7f1	0.040977422

weight_ih_l0 f4 [90, 30]
0	0xbd97bb6e	-0.07408796
1	0x3dbcdf16	0.09222238
2	0xbe24d172	-0.16095522
3	0x3e141e90	0.14464784
4	0xbcfe7653	-0.03106228
5	0xbd159ccf	-0.036526497
6	0xbe08e69c	-0.1336922
7	0xbe19c19a	-0.1501526
8	0x3e04e8a0	0.12979364
9	0xbdbf0f9d	-0.0932915
10	0xbc149d84	-0.009070758
11	0x3d845a00	0.06462479
12	0x3e2c8803	0.1684876
13	0xbe0548cb	-0.1301605
14	0x3e18e3f1	0.14930703
15	0x3e330570	0.17482543
16	0xba5ec7dd	-0.000849841
17	0xbdbbdc9d	-0.09172938
18	0x3cfd8db1	0.030951353
19	0x3dca4a3e	0.09877442
20	0x3df5f7e7	0.12010174
21	0xbe0427a6	-0.1290575
22	0x3d3365ee	0.04379838
23	0xbdf17b0d	-0.11791048
24	0xbd9e0c07	-0.07717138
25	0xbe183dfe	-0.14867398
26	0xbd29a116	-0.04141339
27	0xbde7d7c0	-0.11320448
28	0xbd4e1528	-0.050313145
29	0x3dc75b7c	0.09734246
30	0xbde54bad	-0.11196075
31	0x3c95f7de	0.018306669
32	0x3d5ea068	0.054352194
33	0x3d2724b0	0.040806472
34	0xbcc593f3	-0.0241184
35	0xbd791e4d	-0.060819913
36	0x3d699b65	0.05703296
37	0xbd96ba30	-0.07359731
38	0x3c3b6990	0.011438742
39	0xbb1d5e96	-0.0024012676
40	0xbd19f14e	-0.03758364
41	0x3db8fad8	0.0903222
42	0xbcfea294	-0.031083383
43	0xbd61d9af	-0.05513924
44	0xbd45e89e	-0.048317544
45	0xbcd10140	-0.025513291
46	0x3e3a06f6	0.18166718
47	0xbe0e0bc6	-0.13871679
48	0xbc45b715	-0.012067576
49	0x3cf88afd	0.030339712
50	0xbda67a80	-0.08128834
51	0xbb476bce	-0.0030429247
52	0xbcf387a3	-0.029727763
53	0xbdde0d49	-0.10842378
54	0x3de1698a	0.11006458
55	0xbd30a909	-0.043129954
56	0x3d0bbff0	0.034118593
57	0x3c9e11e6	0.019295644
58	0x3e18a6f8	0.14907444
59	0xbd7957f9	-0.060874913
60	0xbcab3376	-0.020898562
61	0x3d289b8c	0.041163966
62	0x3c308f00	0.010776281
63	0xbe33322a	-0.17499605
64	0xbd886a28	-0.06660873
65	0x3de51cb3	0.111871146
66	0xbce8ad98	-0.028403088
67	0x3dcf97fc	0.101364106
68	0xbdfb6482	-0.1227503
69	0x3e255409	0.16145338
70	0x3cbac560	0.022799194
71	0xbd211684	-0.039328113
72	0x3e07c2a5	0.13257845
73	0x3e0ab6c3	0.1354628
74	0x3d8a35eb	0.06748565
75	0xbe2bb8bd	-0.16769691
76	0xbd262eb4	-0.040571883
77	0x3cebe850	0.028797299
78	0xbbbb013a	-0.0057069333
79	0x3e317236	0.17328724
80	0x3da53ea1	0.08068586
81	0xbda5b332	-0.080908194
82	0xbdd5f36d	-0.104468204
83	0xbe2bb4a4	-0.16768128
84	0x3e06b7ff	0.13156126
85	0xbd5b4768	-0.053534895
86	0x3e6a6044	0.22888285
87	0xbe3acbec	-0.18241853
88	0xbc0be460	-0.008538336
89	0x3e2f0558	0.17091882
90	0x3db09c65	0.0862358
91	0xbe2bdcd6	-0.16783461
92	0xbd2ca8a8	-0.04215303
93	0x3d97e031	0.07415808
94	0xbe059af8	-0.13047397
95	0xbcbb552b	-0.02286776
96	0xbe279e66	-0.16369018
97	0xbcf9cb60	-0.030492485
98	0x3d9c9b64	0.07646826
99	0xbe37149d	-0.17878957
100	0xbc065703	-0.008199456
101	0xbe2a634d	-0.16639443
102	0xbd52b3d4	-0.05144103
103	0xbe0624ab	-0.13099925
104	0xbe120271	-0.14258744
105	0xbd9104f7	-0.07081025
106	0xbe0958e6	-0.13412818
107	0xbd3f4cc8	-0.046704084
108	0x3d6e78ef	0.0582208
109	0xbe09bca3	-0.13450865
110	0xbd061680	-0.0327363
111	0x3dc06e28	0.09396011
112	0xbd43e0e5	-0.047821898
113	0x3c86268f	0.016375808
114	0xbe01fdd8	-0.1269449
115	0xbe226ad5	-0.15861066
116	0x3d423e8f	0.04742294
117	0xbce50dbc	-0.02796065
118	0xbd864399	-0.06555862
119	0x3e2ea713	0.17055921
120	0x3aec5f4c	0.0018033772
121	0x3db1d5af	0.08683335
122	0xbe1ac594	-0.15114433
123	0xbdcf3f65	-0.101195134
124	0xbd492e55	-0.04911645
125	0x3bafb8dd	0.0053626136
126	0xbbce2d20	-0.0062920004
127	0x3d1a0e38	0.037611216
128	0xbd819964	-0.06328085
129	0x3d4aa6f9	0.049475644
130	0xbdd68ea0	-0.10476422
131	0x3e0f77ea	0.14010587
132	0x3e23f146	0.16010007
133	0x3d848779	0.06471152
134	0x3e2b10dd	0.16705652
135	0x3e3263b6	0.17420849
136	0x3dc740e8	0.09729177
137	0xbd1dea9e	-0.038553827
138	0x3bd69e7a	0.0065496536
139	0x3e10430c	0.14088076
140	0xbd2430f9	-0.040085766
141	0xbd418439	-0.047245238
142	0xbdb31c4c	-0.087456316
143	0xbe09aa92	-0.13443974
144	0x3e40a970	0.18814635
145	0xbda21473	-0.07914057
146	0xbc7b7f22	-0.015350135
147	0x3cddb0ff	0.027061937
148	0xbe22d584	-0.15901762
149	0x3e00985d	0.12558122
150	0x3e405b31	0.18784787
151	0x3cd10cfb	0.025518885
152	0x3cbb10d0	0.022835165
153	0xbe2ebc3e	-0.17063996
154	0xbd84d3d0	-0.064857125
155	0xbe17e8bc	-0.14834875
156	0x3cfde386	0.03099228
157	0x3d844b60	0.06459689
158	0x3e31e456	0.1737226
159	0xbe11cba4	-0.14237839
160	0xbbc2c35d	-0.0059436993
161	0x3e1f106e	0.15533611
162	0xbd97585c	-0.073899
163	0xbceac97b	-0.028660526
164	0x3e581802	0.21102908
165	0xbe1d92ae	-0.15387985
166	0x3da41541	0.08011866
167	0xbd0bf5d4	-0.034169987
168	0x3dc0592e	0.0939201
169	0x3e351fc9	0.17687906
170	0x3dd83135	0.105562605
171	0xbdeee36f	-0.11664473
172	0x3cc4d12c	0.024025522
173	0xbd305dd0	-0.043058217
174	0x3da8cea3	0.08242538
175	0x3d7edaed	0.062220503
176	0xbe09eb07	-0.13468562
177	0x3c93bb17	0.018033547
178	0x3dae9c44	0.08525899
179	0xbd585be1	-0.052821998
180	0x3b953841	0.004553825
181	0xbcfaefee	-0.030631986
182	0xbe002101	-0.1251259
183	0xbe21412e	-0.1574752
184	0x3dfc6c60	0.123253584
185	0x3d624a9f	0.055246945
186	0x3dd9e06c	0.10638508
187	0x3e15b996	0.14621577
188	0xbd377e38	-0.044798106
189	0xbdf93729	-0.12168724
190	0x3d4c2050	0.049835503
191	0xbe2fad62	-0.17155984
192	0xbe297b9a	-0.16551057
193	0xbe559db6	-0.20860943
194	0xba27bcf7	-0.00063987024
195	0xbe0d6935	-0.13809665
196	0x3de3d788	0.11125094
197	0x3e116362	0.14198068
198	0xbe571f5e	-0.2100806
199	0xbdc046ac	-0.093884796
200	0x3db919f4	0.09038153
201	0xbd3ab1e3	-0.045579802
202	0x3d8f84d0	0.07007754
203	0x3e1c9c50	0.15294003
204	0xbe59f691	-0.21285464
205	0xbe005046	-0.12530622
206	0x3ce35768	0.02775164
207	0xbc479d35	-0.012183477
208	0x3df355ec	0.11881623
209	0x3e277571	0.16353394
210	0x3df7c7b2	0.12098636
211	0x3e14a7ac	0.14517087
212	0x3d31fb2c	0.043452427
213	0x3daf16e5	0.08549289
214	0x3dda7245	0.106663264
215	0xbde6fbb8	-0.1127848
216	0xbc9a0f29	-0.018806057
217	0xbe057f79	-0.13036908
218	0xbd186e3c	-0.037214503
219	0x3d829e41	0.06377841
220	0x3e273d58	0.16331995
221	0x3e3aa8ba	0.18228427
222	0xbdffe12f	-0.12494122
223	0x3dd2911e	0.10281585
224	0xbe551144	-0.20807368
225	0xbe19d514	-0.15022689
226	0x3dc251f0	0.094882846
227	0xbd48122c	-0.048845455
228	0xbcbea9d5	-0.023274342
229	0x3d0ffe00	0.035154343
230	0xbdd5d6b3	-0.10441341
231	0xbe3f91ff	-0.18708037
232	0x3db682dd	0.08911679
233	0x3e1165ba	0.14198962
234	0x3d810adc	0.063008994
235	0xbe3e44ae	-0.18580887
236	0xbe2debff	-0.16984557
237	0xbdaa1b06	-0.083059356
238	0x3cf485f8	0.029849038
239	0xbdcb48e6	-0.09926014
240	0xbd03c1f8	-0.032167405
241	0xbce66134	-0.028122522
242	0xbd519b6c	-0.051173612
243	0xbbed72cf	-0.0072463523
244	0xbdc36b28	-0.09541923
245	0xbd496312	-0.049166746
246	0x3cc1efd8	0.023673937
247	0x3e3195e0	0.17342329
248	0x3e2a6dfe	0.16643521
249	0x3e1d27d0	0.15347219
250	0xbca45ff8	-0.020065293
251	0x3e0b5076	0.13604912
252	0x3db46a00	0.088092804
253	0x3e13b050	0.14422727
254	0x3ba9f992	0.005187222
255	0xbe23b5be	-0.15987298

weight_hh_l0 f4 [90, 30]
0	0xbd88a2da	-0.066716865
1	0x3c890f2b	0.016730865
2	0x3e19882f	0.14993356
3	0x3b25783f	0.0025248674
4	0x3ca22629	0.019793587
5	0x3db0d31b	0.08634015
6	0x3d37bab4	0.04485579
7	0x3defef43	0.117155574
8	0x3e106ebf	0.14104746
9	0x3d6ef67b	0.05834053
10	0x3dd9d002	0.106353775
11	0xbe03a860	-0.12857199
12	0x3de64a81	0.11244679
13	0x3de04f99	0.10952682
14	0x3e460211	0.19336726
15	0x3c48f94c	0.012266468
16	0xbd5b5029	-0.053543244
17	0xbd9e12f7	-0.07718461
18	0xbd1a8cc4	-0.0377319
19	0x3e173eeb	0.14770095
20	0xbdd28610	-0.10279477
21	0x3c40f3e3	0.011776897
22	0x3c941ec4	0.018081076
23	0x3d378c04	0.044811264
24	0xbd65d059	-0.0561069
25	0xbe00bf6a	-0.12573019
26	0xbb95ba85	-0.004569354
27	0xbdb9b685	-0.09068016
28	0xbe098e6d	-0.13433237
29	0x3e0f1cf3	0.13975887
30	0x3da5ec60	0.081017256
31	0x3d851e8e	0.064999685
32	0x3d8f13e2	0.06986214
33	0x3e233a13	0.15940122
34	0xbca8cf08	-0.020606533
35	0x3c87f1fa	0.016594876
36	0x3d994794	0.074843556
37	0x3de7b346	0.113134906
38	0x3e22db75	0.15904029
39	0x3e0a2b3d	0.13493057
40	0x3dca0e5a	0.098660186
41	0xbda1194b	-0.078661524
42	0xbd8cb4c5	-0.068704166
43	0xbe36af00	-0.17840195
44	0xbdf5566f	-0.119793765
45	0x3dfaf4fa	0.12253757
46	0xbd5dba53	-0.05413277
47	0xbd106640	-0.035253763
48	0x3ce27203	0.027642256
49	0x3de53992	0.11192621
50	0xbe0a09e8	-0.13480341
51	0xbbd8eb83	-0.006619872
52	0xbc69d944	-0.014272992
53	0xbd90e94a	-0.07075746
54	0x3dc39cbe	0.095513806
55	0x3e46336c	0.19355553
56	0xbd0b7bf0	-0.034053743
57	0x3e4c625f	0.199594
58	0x3a9a4cdc	0.0011772173
59	0x3e26a6fb	0.16274635
60	0xbdbdbe31	-0.09264792
61	0x3ddd8fe5	0.10818461
62	0xbd82b70a	-0.06382568
63	0xbcb2a355	-0.021806398
64	0xbde9b8a2	-0.11412169
65	0xbe4a4a64	-0.1975494
66	0xbd8f3599	-0.06992645
67	0x3dbd8ca1	0.092553385
68	0x3d28e6fc	0.04123591
69	0xbe1f49d0	-0.15555501
70	0xbe360bf0	-0.17777991
71	0x3dfd4517	0.123666935
72	0x3e0b0265	0.13575132
73	0x3c63d55b	0.013905848
74	0xbd7ef660	-0.06224668
75	0x3da7a16e	0.08185087
76	0xbcd271a3	-0.025688952
77	0xbb927095	-0.004468987
78	0xbdaf095b	-0.08546706
79	0x3d934fc6	0.0719295
80	0x3e0688b2	0.13138083
81	0x3ccfba06	0.025357258
82	0x3d9da647	0.076977305
83	0x3da74644	0.08167699
84	0xbe0d4359	-0.13795222
85	0x3dfc977e	0.12333582
86	0x3deb890e	0.115007505
87	0xbe2a83b2	-0.166518
88	0x3e4a932a	0.19782701
89	0xbd9952b9	-0.07486481
90	0xbd4ec62f	-0.05048197
91	0x3d0f97cf	0.035056885
92	0xbccd7baf	-0.025083391
93	0x3da68325	0.081304826
94	0x3dbc21d2	0.09186138
95	0x3d681a81	0.0566659
96	0x3d1a0037	0.03759786
97	0x3d2bc945	0.041939992
98	0xbd9efd70	-0.07763183
99	0x3de22719	0.110426135
100	0x3d81fcdd	0.06347058
101	0xbd8bac03	-0.06819918
102	0xbdef02bc	-0.116704434
103	0x3d9c7dc0	0.076411724
104	0x3d83d5be	0.064372525
105	0x3da3b325	0.079931535
106	0xbe2363a9	-0.15955986
107	0xbdd06c6b	-0.10176929
108	0x3e0dba4e	0.13840601
109	0xbe1f9f32	-0.15588072
110	0x3e091adc	0.13389152
111	0xbdecabb2	-0.11556186
112	0x3de899dd	0.11357472
113	0x3dc170fd	0.09445379
114	0x3e18ab30	0.14909053
115	0x3d7e4e8a	0.06208662
116	0xbd651701	-0.05593014
117	0x3d9d4a62	0.07680203
118	0xbdf9fa59	-0.12205953
119	0xbcb9686d	-0.022632802
120	0x3dbd5728	0.09245139
121	0x3e0c5eae	0.13707992
122	0x3e041a2d	0.1290061
123	0xbcc83229	-0.02443798
124	0x3d474f0c	0.04865937
125	0x3dce22de	0.10065244
126	0xbe156e8f	-0.14592956
127	0xbdb52e89	-0.088467665
128	0xbe117c83	-0.14207654
129	0x3dfb5b36	0.122732565
130	0x3dc1ef15	0.094694294
131	0x3bacaf2b	0.005269905
132	0x3d4432a6	0.047899865
133	0xbdb6ba91	-0.089223035
134	0xbdc20089	-0.09472758
135	0x3dd653fa	0.10465236
136	0xbde2292c	-0.11043009
137	0x3b85d43a	0.0040841373
138	0xbe002fdb	-0.12518255
139	0x3dadb725	0.08482198
140	0xbdfe55db	-0.124187194
141	0x3dec8d7a	0.11550422
142	0x3da24176	0.07922642
143	0x3dbd876d	0.09254346
144	0xbc0a3281	-0.008434893
145	0xbdb98b1d	-0.09059737
146	0xbdc76575	-0.09736148
147	0x3e083ece	0.13305208
148	0x3c854507	0.016268266
149	0x3e2805f5	0.16408522
150	0x3e0974dc	0.13423485
151	0x3de0a1f6	0.109683916
152	0x3de1b481	0.110207565
153	0x3def4a72	0.11684121
154	0xbd86d0d8	-0.065828025
155	0xbc996ea2	-0.018729512
156	0x3d990326	0.07471304
157	0x3e24f9f8	0.1611098
158	0xbc45e8e2	-0.012079449
159	0x3e31dc23	0.17369132
160	0x3e18241f	0.14857529
161	0x3d7aea93	0.061258864
162	0xbdc7a8ac	-0.097489685
163	0x3e0d4036	0.13794026
164	0x3c1c5929	0.009542742
165	0x3d1a128b	0.03761534
166	0x3e28657a	0.1644496
167	0xbdd30672	-0.10303964
168	0xbda5c902	-0.0809498
169	0xbe03cb7e	-0.12870595
170	0x3e0e73ee	0.13911411
171	0xbb85478c	-0.004067367
172	0xbd0f7954	-0.035027817
173	0x3d14e63f	0.036352392
174	0x3da90fc0	0.08254957
175	0xbe3ae297	-0.182505
176	0x3d999d0b	0.07500657
177	0xbd204f0f	-0.039137896
178	0xbd6b6105	-0.057465572
179	0xbde536d1	-0.11192096
180	0xbe033c84	-0.12816054
181	0xbd034fac	-0.032058403
182	0xbd49a453	-0.049228977
183	0xbc3869d1	-0.011255697
184	0xbdc0e067	-0.09417801
185	0x3d415418	0.04719934
186	0x3dd89a6c	0.10576329
187	0xbdb727de	-0.08943151
188	0x3e38c11a	0.18042412
189	0xbe427654	-0.18990451
190	0xbdfa915a	-0.12234755
191	0x3d424dde	0.04743754
192	0xbd95b044	-0.073090106
193	0xbe213763	-0.15743785
194	0x3ba6fd26	0.0050960956
195	0xbd2b6e29	-0.041853104
196	0x3de498fb	0.11161991
197	0xbd3c6998	-0.04599914
198	0xbd4953df	-0.04915225
199	0xbccd83a2	-0.025087181
200	0x3e201dc2	0.15636352
201	0xbdcbe295	-0.099553265
202	0xbdab5557	-0.08365887
203	0xbe07f3be	-0.13276574
204	0x3d13e11d	0.036103357
205	0xbd9ac077	-0.07556241
206	0x3dfec0ef	0.12439143
207	0xbd93b8e9	-0.07213003
208	0xbce35532	-0.027750585
209	0xbd6f0f6c	-0.058364317
210	0xbdd77ada	-0.10521479
211	0x3dfdff92	0.12402262
212	0xbdb54e6d	-0.08852849
213	0xbdd1c02b	-0.10241731
214	0xbe3616fb	-0.17782204
215	0xbda92fea	-0.08261092
216	0x3d30c6f5	0.04315849
217	0x3df21865	0.11821059
218	0x3d836a98	0.064168155
219	0x3d32f0ac	0.043686554
220	0x3e00d6e1	0.1258197
221	0x3e137ad0	0.14402318
222	0x3de77ba1	0.11302877
223	0xbe2b05fd	-0.16701503
224	0x3e4a3e41	0.1975031
225	0x3dee92cb	0.11649092
226	0xbdcc8387	-0.09986024
227	0x3e0a36c3	0.13497452
228	0x3d0e18b9	0.034691546
229	0x3dbb1b2d	0.09136043
230	0x3e1aeaaa	0.1512858
231	0xbd6ff813	-0.05858619
232	0xbcfa2386	-0.030534517
233	0x3d54fcec	0.051999018
234	0xbd88822d	-0.06665454
235	0x3deb643b	0.11493727
236	0xbe03a9af	-0.12857698
237	0xbce34504	-0.02774287
238	0x3e0aa67b	0.1354007
239	0x3e028f9d	0.12750097
240	0x3d6bd760	0.057578444
241	0xbda5ec42	-0.08101703
242	0x3def8738	0.11695713
243	0xbe221a53	-0.15830354
244	0xbdd5abdb	-0.104331695
245	0x3d838514	0.06421867
246	0x3e1d26bf	0.15346812
247	0x3deb5d70	0.11492431
248	0x3d61d07c	0.055130467
249	0xbdc66615	-0.09687439
250	0xbd27a302	-0.04092694
251	0x3dc1e6e6	0.094678685
252	0x3e1aad9a	0.15105286
253	0x3e060955	0.13089497
254	0xbe09758a	-0.13423744
255	0x3d236cf8	0.039898843

bias_ih_l0 f4 [90]
0	0xbd339628	-0.043844372
1	0xbe02b84f	-0.1276562
2	0xbd81237b	-0.063055955
3	0xbd36a52c	-0.044591114
4	0xbddd5e34	-0.108089834
5	0xbde1df66	-0.11028938
6	0xbe40de4b	-0.18834798
7	0x3d670f51	0.05641109
8	0x3cbcfde9	0.023070293
9	0xbdc67073	-0.09689417
10	0x3db31303	0.087438606
11	0xbd89756b	-0.06711849
12	0xbded2a76	-0.115803644
13	0xbe03ade0	-0.12859297
14	0xbe006b88	-0.1254102
15	0x3dd2db35	0.10295717
16	0x3d21f367	0.039538767
17	0xbdbad8f8	-0.09123415
18	0xbe114892	-0.1418784
19	0x3d1bc033	0.038025092
20	0x3e535676	0.20638451
21	0x3dbaa80e	0.09114085
22	0x3d22c57f	0.03973913
23	0x3e291cd5	0.16514905
24	0xbe1046c6	-0.14089498
25	0x3ccd0432	0.025026415
26	0xbd6d9414	-0.058002546
27	0xbe3bbc10	-0.18333459
28	0x3cfaea78	0.030629382
29	0xb98ac8a0	-0.00026470888
30	0x3dfd67dc	0.12373325
31	0x3e0e06c9	0.13869776
32	0xbd9fe79e	-0.07807849
33	0xbdd4b103	-0.10385325
34	0xbc08d2ce	-0.008351041
35	0xbe0c7400	-0.13716125
36	0xbd237329	-0.039904747
37	0xbd903241	-0.07040835
38	0xbd5e97ed	-0.054344106
39	0x3e516294	0.20447761
40	0x3df39621	0.11893869
41	0x3dab0e0c	0.083522886
42	0x3e60b573	0.21944217
43	0xbe37358e	-0.17891523
44	0x3bc52660	0.0060165375
45	0x3e917b4d	0.28414384
46	0x3dc24770	0.09486282
47	0x3e1a169a	0.15047684
48	0xbd6f5150	-0.058427155
49	0xbe0f0d13	-0.13969831
50	0x3e1b5207	0.1516801
51	0xb7aeddbc	-2.084567e-05
52	0xbe334648	-0.17507279
53	0x3e462c8b	0.1935293
54	0x3dec835a	0.11548491
55	0x3d7035e1	0.058645133
56	0xbd5f2f18	-0.05448827
57	0xbe619e15	-0.2203296
58	0xbe3332b7	-0.17499815
59	0xbdc1d766	-0.09464912
60	0xbd8bf265	-0.068333425
61	0x3e8208cd	0.2539734
62	0xbd89f2e4	-0.06735781
63	0xbdbc3594	-0.09189907
64	0x3dbc3ea0	0.09191632
65	0x3ce5dcff	0.02805948
66	0x3dc3ba6c	0.095570415
67	0x3e7b451c	0.24538082
68	0xbdd6bc39	-0.104851194
69	0xbe0e73cd	-0.13911362
70	0x3d2329b0	0.03983468
71	0x3d91faa3	0.07127883
72	0x3bfd8c7f	0.0077376957
73	0x3d5f1e52	0.054472275
74	0xbe009abb	-0.12559025
75	0xbe174212	-0.14771298
76	0xbe0536d9	-0.13009204
77	0x3e2bf998	0.16794431
78	0xbdb624eb	-0.0889376
79	0x3b834f7a	0.004007277
80	0x3de1e74a	0.11030443
81	0x3e257936	0.1615952
82	0x3e24b19d	0.16083379
83	0x3e399688	0.1812383
84	0xbd47c818	-0.04877481
85	0xbd0b1cb0	-0.033962905
86	0x3d8aa70f	0.06770145
87	0xbb6f2661	-0.0036491381
88	0x3e4b457a	0.19850722
89	0x3d313e10	0.043272078

bias_hh_l0 f4 [90]
0	0xbd38ad88	-0.045087367
1	0x3cda6186	0.02665783
2	0xbe1cf716	-0.15328631
3	0x3d8a722e	0.06760059
4	0x3ddbaf3a	0.10726781
5	0xbe33beef	-0.17553304
6	0x3e082e07	0.13298808
7	0xbe13dee0	-0.14440489
8	0xbe339ee9	-0.17541088
9	0x3dd99312	0.106237546
10	0x3d8a204f	0.067444436
11	0xbd288d0b	-0.041150134
12	0xbe337ad7	-0.17527328
13	0x3e2a4bb6	0.16630444
14	0xbdd933fc	-0.10605618
15	0xbe023991	-0.12717272
16	0x3d25054f	0.040288266
17	0xbc1ae461	-0.009453864
18	0xbe02f350	-0.12788129
19	0xbbdb7546	-0.0066973297
20	0x3e120b46	0.14262113
21	0xbe217abe	-0.15769479
22	0x3e1846a4	0.14870697
23	0x3d331951	0.043725315
24	0xbd4b0260	-0.04956281
25	0xbda5f61d	-0.08103583
26	0xbc46ffc9	-0.012145945
27	0xbca3cdab	-0.019995531
28	0x3e35ad04	0.17741781
29	0x3c04fe34	0.008117247
30	0x3dfd2960	0.12361407
31	0xbc2349d7	-0.009966335
32	0xbb972900	-0.004613042
33	0xbdda814d	-0.106691934
34	0x3e129d1f	0.1431775
35	0xbe037df5	-0.12841018
36	0x3e58af8f	0.2116072
37	0xbdd477d8	-0.10374421
38	0x3de2a606	0.11066823
39	0x3e1e1a1d	0.15439649
40	0xbe452d35	-0.19255526
41	0xbda23279	-0.07919783
42	0x3dd6e06a	0.10492022
43	0x3e1251ac	0.14288968
44	0xbd2a2b45	-0.04154517
45	0x3e00528d	0.1253149
46	0xbd151718	-0.036398977
47	0xbddb7a4d	-0.107166864
48	0x3d9f46d2	0.0777718
49	0x3d6af9c9	0.05736712
50	0x3d22d246	0.039751314
51	0x3dd5af9f	0.10433888
52	0xbe3a6c60	-0.18205404
53	0xbd4a2e40	-0.049360514
54	0xbe3f3ec7	-0.18676291
55	0xbd084e0e	-0.033277564
56	0xbe073a4a	-0.1320583
57	0xbe5563d9	-0.2083887
58	0xbdc5f21d	-0.0966532
59	0x3e300ba2	0.17191938
60	0x3e15c1d2	0.14624718
61	0x3e440c64	0.19145352
62	0x3e3bd3e6	0.18342552
63	0xbd457d4b	-0.04821519
64	0x3d70f276	0.05882498
65	0xbda9cd55	-0.08291117
66	0x3c599509	0.013280162
67	0xbdce3e31	-0.10070456
68	0x3dc8a0bd	0.097962834
69	0xbe1cd4a0	-0.15315485
70	0x3e1c2770	0.15249419
71	0x3e296498	0.1654228
72	0x3debfcb7	0.11522811
73	0x3cd3e6b7	0.02586685
74	0x3dd618d9	0.10453958
75	0xbd28350d	-0.04106622
76	0x3e1e84d1	0.15480353
77	0x3dddf1f5	0.10837165
78	0xbca69644	-0.020335324
79	0x3c2a5370	0.01039587
80	0x3e30463d	0.17214294
81	0xbdee7b0d	-0.11644564
82	0xbe25b7a1	-0.1618333
83	0x3e2f3fd0	0.17114186
84	0x3ded4541	0.11585475
85	0x3ca486dd	0.02008384
86	0xbb0472fe	-0.0020210142
87	0x3db70e5f	0.08938288
88	0x3e5827db	0.21108954
89	0x3d6457b1	0.05574769

weight_ih_l0 f4 [15, 30]
0	0xbec853ce	-0.39126438
1	0xbe237c60	-0.15965414
2	0xbeb63ba5	-0.3559238
3	0xbe7ae9ac	-0.24503201
4	0xbef880a8	-0.48535657
5	0x3e1acfd3	0.15118341
6	0x3dcc6c9e	0.099816546
7	0xbe89e760	-0.26934338
8	0x3d016480	0.031589985
9	0xbd3d41a2	-0.04620517
10	0x3e05becd	0.13061066
11	0x3e41426c	0.18872994
12	0x3e856aff	0.26058194
13	0xbe3fcfcd	-0.18731613
14	0x3e529411	0.20564295
15	0x3e7291c4	0.23688418
16	0xbcb824aa	-0.02247842
17	0xbeaff03b	-0.3436297
18	0xbe94c4e6	-0.29056472
19	0xbe4a005d	-0.19726701
20	0xbedde048	-0.43335176
21	0xbe05b748	-0.13058197
22	0xbeb2dcf9	-0.34934214
23	0xbe162dec	-0.14665955
24	0x3ed4bf33	0.41552123
25	0x3d15ccc3	0.03657223
26	0x3e966dcb	0.2938064
27	0xbeb8fc0f	-0.36129805
28	0xbe8f566e	-0.27995628
29	0x3ec91259	0.3927181
30	0xbd359f20	-0.044341207
31	0x3eaffa44	0.34370625
32	0xbd84d8f8	-0.06486696
33	0xbe9196fc	-0.28435504
34	0x3e8513ed	0.25991765
35	0x3d896ad3	0.06709828
36	0x3e10de9c	0.14147419
37	0x3ec2bb44	0.38033497
38	0x3e02cff4	0.1277464
39	0x3ece4cde	0.4029302
40	0xbd1e3f30	-0.03863448
41	0xbd10fd28	-0.03539768
42	0xbe3fc804	-0.18728644
43	0x3cf11489	0.029428737
44	0x3c4a219e	0.0123371165
45	0x3e95103e	0.29113954
46	0x3e522f90	0.20525956
47	0x3ee4e6f9	0.44707468
48	0x3e4173cb	0.18891828
49	0xbeac8183	-0.3369256
50	0x3e60727c	0.21918672
51	0x3bc79f59	0.006091994
52	0xbe8fef16	-0.28112096
53	0xbeaf5c17	-0.34249946
54	0x3eb58b1e	0.354577
55	0x3ed54bc8	0.4165938
56	0xbeb86b5f	-0.36019418
57	0x3ebc69d0	0.3679948
58	0x3e8d34d0	0.27579355
59	0x3dc860a0	0.09784055
60	0x3e9016b2	0.28142315
61	0xbeca687e	-0.39532846
62	0xbe2c0c9a	-0.16801682
63	0x3e9822e4	0.2971412
64	0x3d1086cc	0.035284802
65	0xbd685542	-0.056721933
66	0x3ea49ff8	0.32153296
67	0xbee12e86	-0.43980807
68	0xbec50737	-0.38482067
69	0xbeae5ae4	-0.3405372
70	0xbea5068b	-0.32231554
71	0xbe0461d2	-0.1292794
72	0x3aed37bd	0.0018098276
73	0x3ec6946e	0.38785118
74	0xbe455934	-0.1927231
75	0xbe571551	-0.21004225
76	0xbd024d6c	-0.031812117
77	0x3e187d90	0.14891648
78	0xbe35ea0a	-0.1776506
79	0xbe1e5744	-0.15462977
80	0x3e379353	0.17927293
81	0x3e890656	0.26762646
82	0xbe792de9	-0.2433392
83	0xbe90d2d4	-0.2828585
84	0x3d924866	0.07142715
85	0xbea14322	-0.3149653
86	0x3ef870a2	0.48523432
87	0x3e62e11c	0.22156185
88	0x3dd09898	0.10185355
89	0xbee32ecf	-0.4437165
90	0xbe544155	-0.20728047
91	0x3e0d0e9e	0.13775107
92	0xbead9884	-0.33905423
93	0xbec74785	-0.38921753
94	0x3d32ab64	0.043620482
95	0x3db36e80	0.087613106
96	0x3e164b74	0.1467722
97	0x3bff42c0	0.0077899396
98	0xbeae84be	-0.3408565
99	0xbd2ef78b	-0.042716544
100	0x3dba6010	0.09100354
101	0x3ed6cd76	0.4195363
102	0xbeac910f	-0.3370442
103	0x3d119317	0.035540666
104	0x3caa3800	0.020778656
105	0xbeb4ed63	-0.35337362
106	0x3e2727b8	0.16323745
107	0x3ebf651d	0.3738183
108	0xbea383cd	-0.31936494
109	0xbdd47930	-0.10374677
110	0xbe9c4c79	-0.30527094
111	0x3eb8fe48	0.361315
112	0x3e4f17f6	0.20223984
113	0xbe4c6e8b	-0.19964044
114	0xbcb0162f	-0.021494953
115	0xbecb85cf	-0.39750525
116	0x3ed284ca	0.41116935
117	0xbea13973	-0.31489143
118	0xbd5c44e0	-0.05377662
119	0xbdbbe088	-0.09173685
120	0x3e834866	0.25641173
121	0x3e4f3a0c	0.20236987
122	0x3de703b8	0.11280006
123	0xbee7fab0	-0.45308447
124	0x3ea7a433	0.32742462
125	0xbe5c738e	-0.21528456
126	0x3ed334e0	0.41251278
127	0x3e1c7ec4	0.15282732
128	0x3d1b8aa0	0.037974
129	0xbeac7d03	-0.33689126
130	0x390ec800	0.00013616681
131	0xbed27f0b	-0.4111255
132	0x3e620396	0.2207168
133	0xbeaa3d73	-0.33250007
134	0x3e9bd7cf	0.30438086
135	0xbe194b0c	-0.14970034
136	0xbe8aa42b	-0.27078375
137	0x3e353a49	0.17698015
138	0x3ebc3581	0.3675957
139	0xbda1476c	-0.07874951
140	0x3d21d7be	0.03951239
141	0x3eadf0a6	0.33972663
142	0x3ed125fb	0.4084929
143	0x3e15e4d3	0.14638071
144	0xbd93fab8	-0.07225555
145	0x3e842a50	0.25813532
146	0x3ead8c97	0.33896324
147	0xbea5b770	-0.32366514
148	0xbe418d4c	-0.18901557
149	0xbd33d178	-0.043900937
150	0x3cad0dc5	0.02112473
151	0xbddc03f8	-0.107429445
152	0xbe75ae71	-0.23992325
153	0xbe61811d	-0.22021909
154	0xbe3157ad	-0.17318602
155	0xbe0ffbba	-0.1406087
156	0xbebc3f49	-0.36767033
157	0xbec6da5d	-0.38838473
158	0x3ddb1630	0.10697591
159	0xbec2302c	-0.37927377
160	0xbedb2520	-0.42801762
161	0xbec589dd	-0.38581744
162	0x3eca9821	0.3956919
163	0x3e84a786	0.2590906
164	0xbe8c925c	-0.27455413
165	0xbe5dc266	-0.21656188
166	0xbcc11059	-0.023567365
167	0x3ea00398	0.31252742
168	0xbd60ffbf	-0.0549314
169	0xbebdd56c	-0.3707689
170	0x3d107b7d	0.035274018
171	0xbeaccaf6	-0.33748597
172	0xbe1de7df	-0.15420483
173	0x3d93b1cd	0.07211647
174	0xbd8b472c	-0.06800684
175	0x3e6b3bda	0.2297205
176	0xbe02aeab	-0.12761943
177	0xbe190270	-0.14942336
178	0x3db6dfd0	0.089294076
179	0x3ea95a26	0.3307659
180	0x3dd5ccc2	0.10439445
181	0x3eb7053e	0.35746187
182	0x3ec18106	0.3779375
183	0xbe8f69b8	-0.28010345
184	0xbe9312d2	-0.28725296
185	0xbe1a0286	-0.15040025
186	0x3e8dfa22	0.277299
187	0x3ecd184e	0.40057606
188	0xbe81be00	-0.2534027
189	0x3d1ea781	0.038733963
190	0x3e2dd7c1	0.16976835
191	0x3cf6e710	0.030139476
192	0xbef01bf9	-0.4689634
193	0xbebb90e7	-0.3663399
194	0xbdca8ffb	-0.09890743
195	0xbed2d0b0	-0.4117484
196	0xbe454cd1	-0.19267584
197	0xbd233cd6	-0.03985294
198	0x3dc858c3	0.09782555
199	0xbe9c4a9d	-0.30525675
200	0xbe759a49	-0.23984636
201	0x3ceb2ff3	0.028709387
202	0xbeb18651	-0.34672788
203	0x3ea96ae9	0.33089378
204	0xbda8f78a	-0.08250339
205	0x3e1cd08f	0.15313934
206	0x3d681307	0.05665877
207	0x3e4c9774	0.1997965
208	0x3d812698	0.06306189
209	0xbdbb5545	-0.09147123
210	0x3ebde707	0.37090322
211	0x3e73cd79	0.2380885
212	0x3ec3dd2c	0.38254678
213	0x3e10e707	0.1415063
214	0xbdaec2df	-0.085332625
215	0x3e007a71	0.12546708
216	0x3ec4dba0	0.3844881
217	0xbe769c5c	-0.24083084
218	0xbe10278c	-0.14077586
219	0x3eb95597	0.36198112
220	0x3e0515c9	0.12996592
221	0x3d6252b0	0.05525464
222	0xbdf00a57	-0.11720722
223	0xbeb5ad36	-0.35483712
224	0xbd8c6ab7	-0.06856292
225	0x3e05cd28	0.13066542
226	0x3c93ba44	0.018033154
227	0x3d6aeeeb	0.057356756
228	0xbe71c0bd	-0.2360868
229	0xbe8a1acc	-0.2697357
230	0xbdb6dd87	-0.08928972
231	0xbec0f197	-0.37684318
232	0xbee27120	-0.44226933
233	0xbee9b5fc	-0.45646656
234	0xbe93db0c	-0.28878057
235	0x3dfad2f0	0.122472644
236	0xbe99aeb7	-0.3001611
237	0xbe166043	-0.14685158
238	0x3eceeaee	0.40413612
239	0x3daf6e54	0.08565965
240	0xbc43c87f	-0.011949657
241	0x3eb5d3a9	0.35513046
242	0x3ec468f2	0.38361317
243	0xbecf0bd1	-0.40438703
244	0xbeaf2504	-0.34207928
245	0xbe645757	-0.22298943
246	0x3ec64a58	0.38728595
247	0xbebbe89b	-0.367009
248	0xbe45c3b2	-0.19312933
249	0x3e2723e7	0.1632229
250	0xbeada2dc	-0.33913314
251	0xbe80c331	-0.2514892
252	0x3e40c2eb	0.18824355
253	0x3e704c24	0.23466545
254	0xbe467cbd	-0.19383521
255	0xbe342438	-0.17591941

weight_hh_l0 f4 [15, 5]
0	0x3e9132fc	0.2835921
1	0xbe4c6f01	-0.1996422
2	0xbd703140	-0.05864072
3	0x3ecb9ef4	0.3976971
4	0xbe33b102	-0.17547992
5	0xbe89dd6a	-0.26926738
6	0x3d114450	0.03546554
7	0x3dcf4848	0.101212084
8	0xbe5e93c3	-0.21736054
9	0xbe157112	-0.14593914
10	0xbe2cc160	-0.16870642
11	0x3ec440c4	0.38330662
12	0x3ec45a78	0.38350272
13	0x3e99edd2	0.30064255
14	0x3ebdf92a	0.3710416
15	0x3e6b8dbc	0.23003286
16	0x3e497854	0.19674808
17	0x3df97038	0.12179607
18	0x3e9d33f8	0.30703712
19	0x3d3541a8	0.044252068
20	0x3ebce57c	0.36893833
21	0x3e3bb078	0.18329036
22	0x3ea50146	0.32227534
23	0x3ebc24be	0.36746782
24	0x3ebe88a6	0.3721363
25	0x3e90f8fa	0.28314954
26	0x3e46d440	0.19416904
27	0x3e617174	0.22015935
28	0x3e6eec80	0.23332405
29	0xbe809730	-0.25115347
30	0xbd88ba50	-0.06676161
31	0x3eba3402	0.36367804
32	0x3ed48c26	0.41513175
33	0xbe4d544c	-0.20051688
34	0xbe15ebcc	-0.1464073
35	0x3e39f19c	0.18158573
36	0x3e4d9eb4	0.20080072
37	0x3ebee59c	0.37284553
38	0x3e68d444	0.22737223
39	0x3de49638	0.111614645
40	0xbecfdac4	-0.40596592
41	0xbe329404	-0.17439276
42	0x3e0db788	0.13839543
43	0x3e6a70b4	0.22894555
44	0xbec65a76	-0.3874089
45	0xbe39843e	-0.18116853
46	0xbea3da4a	-0.3200248
47	0x3e002cb8	0.12517059
48	0xbe00fcba	-0.12596408
49	0x3e09e034	0.13464433
50	0xbe454488	-0.19264424
51	0xbd9e0670	-0.077160716
52	0xbdfb5890	-0.12272751
53	0xbe7b7b14	-0.2455867
54	0xbe731df2	-0.23741892
55	0x3ddcdbb8	0.107840955
56	0x3e697a50	0.22800565
57	0x3ee062c6	0.43825358
58	0xbc4c06c0	-0.012452781
59	0x3edfc4a0	0.437047
60	0xbe838784	-0.25689328
61	0x3e697ff8	0.22802722
62	0xbeb21a5e	-0.34785742
63	0x3e1341f4	0.14380628
64	0x3eb6fe88	0.35741067
65	0xbe9764dc	-0.29569137
66	0xbd2063f8	-0.039157838
67	0x3e6f1234	0.23346788
68	0xbe4b136b	-0.19831626
69	0xbd101a60	-0.035181403
70	0x3eb19e20	0.34690952
71	0x3e921538	0.28531814
72	0x3df8b3f8	0.12143701
73	0xbea1a38a	-0.31570083
74	0xbbcb8700	-0.0062111616

bias_ih_l0 f4 [15]
0	0xbcccec6b	-0.025015077
1	0x3d56179e	0.052268617
2	0xbd8a7b86	-0.067618415
3	0xbe108ed8	-0.1411699
4	0xbe8100c4	-0.25195897
5	0x3e2a60c8	0.16638482
6	0x3e37b888	0.17941487
7	0x3e323c26	0.17405757
8	0x3e36a8bf	0.17837809
9	0x3e1e5a84	0.15464216
10	0x3d60df93	0.054900717
11	0x3e48c52d	0.19606467
12	0xbe8a31a3	-0.26990995
13	0xbe8c5efb	-0.27416214
14	0x3da92459	0.08258886

bias_hh_l0 f4 [15]
0	0xbe70d313	-0.23518018
1	0x3d708b98	0.058726877
2	0x3e92f2ff	0.28701016
3	0x3da0f446	0.078590915
4	0xbda6e373	-0.08148851
5	0x3eabce12	0.33555657
6	0xbec1d19c	-0.37855232
7	0x3eb072c8	0.3446257
8	0xbe874944	-0.26423085
9	0xbe91e7b9	-0.28497103
10	0xbe861273	-0.2618595
11	0x3deab2c9	0.11459882
12	0xbe99f204	-0.30067456
13	0xbe253593	-0.16133718
14	0x3e94d5e2	0.2906943

weight f4 [8, 150]
0	0x3c893fec	0.016754113
1	0x3ba7abcb	0.005116915
2	0x3d025cae	0.031826667
3	0xbbf8ef8a	-0.0075969147
4	0xbd923888	-0.07139689
5	0xbc728224	-0.014801536
6	0x3c621d00	0.013800859
7	0x3ce6895b	0.028141668
8	0xbc722432	-0.014779137
9	0x3ca86f9e	0.020561036
10	0xbc51e26a	-0.012810329
11	0x3c92e809	0.017932909
12	0xbc60afb0	-0.013713762
13	0xbadee71d	-0.0017006133
14	0x3c1cc9b9	0.009569579
15	0xbd6649fd	-0.056222904
16	0xbc86a06f	-0.016433923
17	0x3cab170f	0.020885019
18	0x3ca8675e	0.020557102
19	0x3be78561	0.0070654606
20	0x3d9dbede	0.07702421
21	0xbb84098d	-0.004029459
22	0x3b9d6639	0.0048034457
23	0xbcfd995c	-0.030956917
24	0x3b34a7b1	0.0027565772
25	0x3caeebe9	0.021352725
26	0xbc9993ee	-0.018747296
27	0x3b80c668	0.003929902
28	0x3afc0252	0.0019226766
29	0xbd16a7f8	-0.03678128
30	0xbc3a555e	-0.011372892
31	0xbc114afb	-0.008867974
32	0x3c254870	0.010088071
33	0xbca3b31a	-0.019982863
34	0x3b69e1e7	0.0035687627
35	0x3b9081fd	0.004410027
36	0x3c3a6481	0.011376501
37	0x3c4482d0	0.011994079
38	0xbcbf0cd2	-0.023321543
39	0xbd0a3d9f	-0.033750173
40	0xbc5cb738	-0.013471417
41	0xbc40ad79	-0.011760109
42	0x3d0defd9	0.034652565
43	0xbc284319	-0.010269904
44	0xbc8413e5	-0.016122768
45	0x3ca50445	0.020143637
46	0x3c0d8f70	0.008640155
47	0x3cc9374d	0.024562502
48	0xbc652b68	-0.0139874
49	0x3b9dfdd1	0.004821517
50	0xbc55387f	-0.013013958
51	0x3b3a45a4	0.0028422857
52	0xbd0adeef	-0.033904012
53	0xbc408b4e	-0.011751963
54	0xbd818723	-0.063246034
55	0xbcb7c223	-0.022431439
56	0x3b79674f	0.0038055961
57	0x3cd65492	0.026163373
58	0x3cb845ef	0.022494284
59	0xbdb34291	-0.08752931
60	0x3b9563b7	0.004559006
61	0x3b7ef49e	0.0038903127
62	0xbca81e65	-0.020522306
63	0xbc85e673	-0.016345238
64	0xbd92126f	-0.07132422
65	0xbc5f0d04	-0.013613943
66	0xbc0e5efc	-0.008689638
67	0xbcaa3bc1	-0.020780446
68	0xbca8c700	-0.020602703
69	0xbd2c2d5d	-0.04203545
70	0x3b612977	0.003435699
71	0x3bb83e4d	0.005622661
72	0xbbf4e2a4	-0.0074733067
73	0xbd10ee3c	-0.035383448
74	0x3d3539ee	0.0442447
75	0xbbb55596	-0.0055338843
76	0x3c1ff87a	0.009763831
77	0x3c7318e4	0.014837477
78	0xbbb93599	-0.0056521413
79	0x3ccb598a	0.024822969
80	0xbb954309	-0.0045551104
81	0x3c55d286	0.013050681
82	0xbc8658dd	-0.016399795
83	0xbce16076	-0.027511816
84	0x3d969916	0.073534176
85	0x3cbc2dfc	0.022971146
86	0xbc4b2dda	-0.012401069
87	0x3cacde2b	0.021102032
88	0xbc1ff47a	-0.009762878
89	0x3d96de08	0.07366568
90	0xbc70be36	-0.014693787
91	0xbbb81dd8	-0.005618792
92	0xbb9e5d5a	-0.0048329057
93	0xbab81427	-0.0014044092
94	0x3d4d0427	0.050052788
95	0xbc0dd163	-0.008655879
96	0x3cb42fce	0.021995451
97	0xbca770e5	-0.020439574
98	0xbbcd6275	-0.0062678405
99	0xbd8933c0	-0.06699324
100	0x3b069d52	0.0020540548
101	0x3cd8a822	0.02644736
102	0x3cc45068	0.023964122
103	0x3c29122f	0.010319277
104	0xbb276089	-0.0025539717
105	0xbbbeeeb3	-0.005826795
106	0x3a5ab136	0.00083424465
107	0xbc9c5833	-0.019085025
108	0x3c3d281a	0.0115452055
109	0xbd947b21	-0.072500475
110	0xbce3c462	-0.027803604
111	0x3bdea7e3	0.006794916
112	0xbcdb435c	-0.026765518
113	0x3bb7f056	0.005613367
114	0xbd9648f2	-0.07338132
115	0xbada9d2c	-0.0016678921
116	0x3a0e256e	0.00054224476
117	0x3b6b3aa7	0.0035893114
118	0xbc14e55e	-0.0090878885
119	0xbd379f3e	-0.0448296
120	0x3cba431a	0.022737075
121	0xba25131c	-0.0006297098
122	0xbbb46335	-0.0055049905
123	0xbce8117f	-0.028328655
124	0xbdebbfea	-0.11511214
125	0x3a50493c	0.0007945483
126	0xbb56cf9e	-0.0032777558
127	0x3ce8bddc	0.028410845
128	0xbd160636	-0.036627017
129	0xbdc07dc8	-0.09398991
130	0xbb818b26	-0.0039533554
131	0xbca7996e	-0.020458903
132	0xbb5b3a26	-0.0033451407
133	0xbcaac0fb	-0.020843973
134	0x3d66a8ef	0.05631345
135	0x3bda459c	0.00666113
136	0xbc9a1750	-0.018809944
137	0x3bc09ef3	0.005878323
138	0x3c63057b	0.013856287
139	0x3dc11b64	0.094290525
140	0xba77aa4a	-0.00094476773
141	0xbc5b8664	-0.01339874
142	0x3b67a699	0.0035347103
143	0xbc94ce13	-0.01816467
144	0x3de4ed73	0.11178102
145	0xbc3aa4fc	-0.011391874
146	0x3c66e35c	0.014092293
147	0xbb1f3d8d	-0.0024298162
148	0xbbe2706b	-0.006910374
149	0x3d0b11ba	0.033952452
150	0xbc05a97a	-0.008158082
151	0x3ce2eddd	0.027701313
152	0x3c84dfc9	0.01621999
153	0x3d4ffe68	0.05077973
154	0x3d1f0620	0.0388242
155	0xbd4c8a3c	-0.049936518
156	0xbc114e6c	-0.008868795
157	0xbcddbcea	-0.02706762
158	0xbdb3faf2	-0.087880984
159	0x3d04053b	0.03223155
160	0xbc9d5aa3	-0.019208258
161	0xbc5b170a	-0.013372192
162	0x3c592103	0.0132524995
163	0x3c56aeff	0.013103246
164	0xbce321dd	-0.027726108
165	0xbd018cdd	-0.03162848
166	0xbc7d9cbf	-0.015479266
167	0xbc93174c	-0.017955445
168	0x3c3b301e	0.011425046
169	0xbd03cdde	-0.032178752
170	0x3d7d3177	0.06181475
171	0x3cc643a4	0.024202175
172	0xbc8db0ec	-0.017296277
173	0xbd1654a6	-0.03670182
174	0xbd3975ad	-0.04527824
175	0x3ba065aa	0.004894932
176	0x3d37e8ba	0.04489968
177	0xbc7b4650	-0.015336588
178	0xbcaf541e	-0.021402415
179	0xbdab9169	-0.08377344
180	0x3d490ad1	0.04908258
181	0x3c0c6f30	0.008571431
182	0xbc835ed4	-0.016036429
183	0xbcf960e7	-0.030441714
184	0xbd9f32f1	-0.07773388
185	0x3b21de38	0.0024699103
186	0x3ce64650	0.0281097
187	0x3d97dbd0	0.07414973
188	0xbd0babc1	-0.034099344
189	0xbbda5a71	-0.0066636135
190	0xbceb4225	-0.028718064
191	0x3ba4a8c4	0.0050250012
192	0x396ee5ce	0.00022783058
193	0xbcfc0989	-0.030766265
194	0xbca718e3	-0.02039761
195	0x3c353ecc	0.011062335
196	0x3d1fde53	0.039030384
197	0x3a09d0c6	0.0005257245
198	0x3899bc2e	7.33066e-05
199	0x3bdfe3b3	0.006832564
200	0xbb6c8a16	-0.0036093048
201	0xbceed5ba	-0.029154647
202	0x3df81af7	0.12114518
203	0x3b9991a7	0.0046865526
204	0xbc908637	-0.017642124
205	0xbccc295c	-0.024922065
206	0x3d0bb055	0.03410371
207	0x3cc4c550	0.024019867
208	0xbd7e724c	-0.06212072
209	0x3d3a0e76	0.045423947
210	0x3d1554d2	0.036457844
211	0xbd1d10c2	-0.03834606
212	0xbd8e2c6e	-0.06942068
213	0xbd2a8505	-0.041630764
214	0xbd9db7b2	-0.07701053
215	0x3c92b3bc	0.01790797
216	0x3b34dea8	0.0027598534
217	0x3d29b451	0.04143173
218	0x3cc62847	0.024189128
219	0xbdf2ad32	-0.11849441
220	0xbd52ce57	-0.051466312
221	0xbd5c3291	-0.05375916
222	0x3d3c4ff9	0.045974705
223	0xbd819e6b	-0.06329044
224	0xbe12e648	-0.14345658
225	0xbc9dd603	-0.019267088
226	0x3c2c9a7a	0.010534877
227	0xbc465497	-0.012105129
228	0x3b18f9de	0.0023342292
229	0xbe010c4f	-0.12602352
230	0xbc6edd98	-0.014579199
231	0x3d1d7c3e	0.038448565
232	0xbc177556	-0.009244284
233	0x3d07981a	0.03310404
234	0xbd9946d9	-0.07484216
235	0xbd588042	-0.05285669
236	0xbd226078	-0.03964278
237	0x3cb6270a	0.022235412
238	0xbcf37274	-0.029717661
239	0xbd460a16	-0.048349462
240	0xbc1d184e	-0.009588314
241	0x3ccbb20c	0.024865173
242	0x3d2295be	0.039693587
243	0xbbaaa200	-0.0052073
244	0xbbfb6567	-0.007672
245	0x3ccd3b8a	0.025052804
246	0x3da83ea4	0.08215073
247	0x3cbe85f7	0.023257239
248	0xbd1f58df	-0.038903113
249	0xbc9eb299	-0.019372271
250	0x3d4815f6	0.04884907
251	0xbc3acf65	-0.011401986
252	0x3d0dba43	0.03460146
253	0xbd760bbf	-0.060069796
254	0x3cb7e9c3	0.022450333
255	0xbd8cd949	-0.06877381

bias f4 [8]
0	0xbca528ca	-0.020161051
1	0x3c93b0b3	0.018028593
2	0x3a1a5b47	0.0005888235
3	0xbd758879	-0.059944604
4	0xbd89118d	-0.06692801
5	0x3bb046aa	0.0053795176
6	0xbcf4f3fe	-0.0299015
7	0x3dcfc724	0.10145405

weight f4 [1, 24]
0	0x3cfea2be	0.03108346
1	0xbdf81a19	-0.12114353
2	0x3d536242	0.051607378
3	0xbe1d0467	-0.1533371
4	0x3c3c584e	0.011495663
5	0x3bc0a2e0	0.005878791
6	0x3ea4875f	0.3213453
7	0x3d6ae9d8	0.057351917
8	0xbe2d5a64	-0.16929013
9	0x3d164ff0	0.036697328
10	0xbe07f497	-0.13276897
11	0xbc80fb46	-0.015744817
12	0x3e000fb0	0.12505984
13	0x3c0b8b31	0.008517073
14	0x3cb43f15	0.022002736
15	0xbbc8029d	-0.006103827
16	0x3df3e5c1	0.119090565
17	0x3de5f23d	0.11227844
18	0x3ed0c5cc	0.40775907
19	0x3d83d1ec	0.06436524
20	0x3e3d13a3	0.18464522
21	0x3d3c091b	0.04590712
22	0xbc95df89	-0.018295066
23	0x3c0f9e8f	0.008765831
