model_files/LSTNET/lstnet_model_hor_24_win_35_skip_1.pt (torch, 36780 bytes, 13 tensors)

weight f4 [30, 1, 6, 8]
000000 e2 21 3a 3d c3 49 2f 3d b7 21 69 bd d9 e3 12 3d
       0.04544247 0.042794954 -0.05691692 0.035861824
000010 8b f9 80 be 12 9d d6 3c e3 6e 8d 3d 3a 77 d1 bb
       -0.25190386 0.026197944 0.069059156 -0.0063923867
000020 6c d1 10 3d bc 84 e3 bb 83 aa 41 3d e4 e2 05 be
       0.03535597 -0.0069433134 0.047281753 -0.13074833
000030 10 4d 0f bd f2 fd c4 bd 9c 7f 32 bc 0f 81 84 3d
       -0.034985602 -0.09618749 -0.010894682 0.064699285
000040 0f 4a e3 bc 4d 76 89 bc d5 e2 ae 3d 10 41 b1 bd
       -0.027745275 -0.016780043 0.085393585 -0.08654988
000050 81 d3 22 be 8d 5a a3 bc bf f3 02 3e 71 3a 6a 3d
       -0.15900995 -0.019940639 0.12788294 0.05718464
000060 bd d4 75 bc 38 23 a9 3d 89 98 0b 3e 29 65 22 be
       -0.015004334 0.082586706 0.13632406 -0.15858902
000070 de 18 41 bd d3 97 4b be 14 a2 fa bd 6b 8b 0f 3d
       -0.047142856 -0.19882135 -0.12237945 0.03504507
000080 10 67 cb bd 69 47 c0 bd 7e 11 24 3e 8f 41 99 3c
       -0.09931767 -0.093886204 0.16022298 0.018708019
000090 a2 df 78 3d f2 98 76 bd 04 14 86 bd ec 01 8a 3d
       0.060760148 -0.060204454 -0.065467864 0.06738648
0000a0 15 fd cf 3b 6f 75 d4 3d 35 1f 02 be be aa e1 3b
       0.0063473084 0.10373961 -0.12707217 0.006886809
0000b0 4f 9d 99 3b 89 51 82 bd 3d ed 06 be c8 2b 00 bd
       0.004687942 -0.06363208 -0.13176437 -0.031291753
0000c0 bb b9 8f bd c0 2a 8a 3c d2 3f 03 3e b1 94 9d bd
       -0.07017847 0.016866088 0.12817314 -0.07694376
0000d0 4c ab 47 3d 34 27 18 bd bc fd f5 3d 00 0b 74 ba
       0.048747346 -0.037146762 0.120112866 -0.00093095005
0000e0 ae 34 dc bd 84 3f fa bd 74 4a a5 3d 18 18 b4 3c
       -0.10752235 -0.12219146 0.080708414 0.021984145
0000f0 16 d7 00 3e e0 cd 3e 3c 00 a6 53 3a 8a d5 2a bd
       0.12582049 0.011645764 0.0008073747 -0.041707553
000100 57 f1 fc bd 80 62 27 bc 00 82 86 bd f4 ea f0 3d
       -0.123507194 -0.010216355 -0.06567764 0.11763564
000110 b8 26 62 bd 8e cc be 3d 90 1d 10 3c 1c d0 e9 bd
       -0.055212706 0.093163595 0.008796111 -0.11416647
000120 20 d0 c9 bd 80 81 ff 3c 8c ca f8 bd d8 29 db 3c
       -0.0985415 0.03118968 -0.12148008 0.026753351
000130 ee 67 ac bd 32 c7 bf 3d f0 fc 66 3d 98 b6 70 bd
       -0.084182605 0.09364165 0.056393564 -0.058767885
000140 1f e5 91 bd 00 ce 58 3d 5a 11 44 bd b0 b3 85 bd
       -0.071237795 0.052930832 -0.04786811 -0.06528413
000150 52 88 5c bd fa c2 07 3e 00 0e 31 bd d0 cc 80 3d
       -0.053840943 0.13257971 -0.043226242 0.06289065
000160 fe 2a 7a bd 32 8e c5 3d b4 10 9f 3d cd de f9 bd
       -0.061076157 0.09646262 0.07766858 -0.12200699
000170 78 42 01 be 1c e3 bd 3d a6 ad 09 3e b0 19 1c 3d
       -0.12623012 0.09271833 0.13445148 0.038110435
000180 6f 0c 0d be d6 62 95 bc 30 30 e9 3c a2 b1 01 3e
       -0.13774274 -0.018235605 0.02846536 0.12665418
000190 a4 5c 9f bd 9a 3c 82 bd fe 0b 55 b8 24 30 ae 3d
       -0.07781342 -0.06359215 -5.0794326e-05 0.08505276
0001a0 ed ed ff 3d 90 c9 90 3d cf ff b9 bd 6d 18 a7 3d
       0.124965526 0.07069695 -0.09081995 0.08158956
0001b0 ce e3 ae 3d a6 bd 19 3d fd 2b d3 bd 94 59 b0 3d
       0.08539544 0.03753438 -0.103111245 0.08610836
0001c0 56 da 72 bd ad 5b 8f bd a7 09 dc bd f4 4a 40 3d
       -0.059290253 -0.06999908 -0.107440285 0.04694648
0001d0 d5 3b 01 3d d9 a2 eb 3d 99 60 b5 3d 4a 98 1f 3d
       0.0315512 0.1150567 0.08856315 0.038963594
0001e0 b4 b9 b8 bc 31 a0 33 bd 0c 18 dd bd 51 4b ea 3c
       -0.022549488 -0.043853942 -0.10795602 0.028600367
0001f0 a7 47 8e bb ff 08 92 bd 79 e6 a4 bd da 19 a6 3c
       -0.0043420377 -0.07130622 -0.08051772 0.020275999
000200 e8 6f 7b bd 29 6d b1 bd 51 9a 44 3d ba 84 89 bb
       -0.06138602 -0.08663399 0.04799873 -0.0041967304
000210 40 5a 60 bd 62 dc db bc 1b ef d5 3d 85 44 9a bd
       -0.05477357 -0.026838485 0.104459964 -0.075326
000220 55 0c 00 be 96 45 c8 3d 66 69 bd bd 2b 5e 00 be
       -0.12504704 0.097788975 -0.09248619 -0.12535922
000230 c5 65 a3 3d 4e 54 1b 3d 2f db 8e 3d 79 49 60 3d
       0.079783954 0.037922196 0.069754 0.05475757
000240 04 84 03 be 54 d1 0f 3d ae 8b 68 3d 1e 16 12 3c
       -0.12843329 0.03511174 0.056773834 0.008916406
000250 91 71 10 3e 58 1a 1c 3c 64 8b b1 bd ca 37 2f bc
       0.14105822 0.009527765 -0.08669165 -0.0106944535
000260 cb 35 9d bc 04 6a e2 bd 9e 81 ce bd 54 5c 0a bd
       -0.01919069 -0.11055377 -0.10083316 -0.033779457
000270 17 17 bc 3c 2c c9 e8 bd 22 79 bd bd f9 f7 d7 3c
       0.022960229 -0.113664955 -0.0925162 0.02636336
000280 e7 fd c7 3d c3 60 77 3d 6c fd 44 bd fd 09 fd 3d
       0.09765225 0.060395014 -0.048093244 0.12355421
000290 86 2a dc bd 7c 31 03 3e b5 98 bc bd 36 fb 0d bd
       -0.10750298 0.12811846 -0.09208814 -0.0346634
0002a0 a7 b8 ec bd 44 c0 cc bd 84 ea 6f 3b 60 fb c3 bd
       -0.11558657 -0.09997609 0.0036608288 -0.0956943
0002b0 23 f4 5b 3d 18 be 08 be d1 ad 9b bd 8b 05 c6 bd
       0.053699624 -0.13353765 -0.07601512 -0.09669026
0002c0 cc cb 6c 3a 5d 60 0a bd e8 b7 5b bd d4 95 58 3b
       0.00090330536 -0.033783305 -0.053642184 0.003304829
0002d0 86 21 78 bd 36 22 e1 3d 0a 56 e1 3c 77 73 99 3c
       -0.060578845 0.10992853 0.027506847 0.018731816
0002e0 65 c2 c8 3d 94 8e ff 3d 50 de 38 3d 3c f3 af bd
       0.09802703 0.124783665 0.04513389 -0.08591315
0002f0 16 bf c9 3d 8a 79 83 3d 9e 6f 27 bd f0 94 6a 3d
       0.098509 0.06419666 -0.04087793 0.057270944
000300 03 3a fd 3d a5 5f 1c 3d 11 6f c4 3d bf c7 fa 3d
       0.123645805 0.03817715 0.09591497 0.1224513
000310 aa 3d 3d be 4c 0a 9f bd 3c 5e 85 3c ee 73 6b ba
       -0.18480554 -0.07765636 0.016280286 -0.00089818134
000320 a1 ca 52 3d 0a 97 11 bd 51 fa 32 3e e7 4d 65 3d
       0.051462773 -0.035544433 0.174783 0.055982497
000330 01 ae 54 be 2b d5 db 3b 3e e7 1f 3d bf 11 19 bd
       -0.20769502 0.006708761 0.03903889 -0.03737044
000340 d3 aa 99 bd 79 7d a3 bd 3e cb cb 3d 62 89 da bd
       -0.07503285 -0.079829164 0.09950875 -0.10670735
000350 cc fe 2c bd ca c1 7d bc 7e 4f 0a 3e d0 87 95 bb
       -0.04223518 -0.015488097 0.13506886 -0.0045633093
000360 67 9a bb bd 13 2d 0d 3e b7 c2 28 bd 7e 7f 1c 3d
       -0.09160309 0.13786726 -0.04120132 0.038207524
000370 33 b2 de bd 46 95 a0 3d ae 3c f0 3d 80 e4 47 3d
       -0.108738326 0.07840972 0.11730324 0.0488019
000380 59 11 60 bc 56 24 08 3e 02 3d 87 3d 37 c9 00 3e
       -0.013676011 0.13295111 0.06603433 0.12576757
000390 40 e6 e1 3d 95 7f f9 3d 76 eb 00 3e 22 9b 25 3e
       0.11030245 0.121825375 0.12589821 0.1617246
0003a0 85 d5 ca 3d 45 00 c7 3d ab ae f3 3d 46 20 91 bc
       0.09904007 0.09716848 0.1189855 -0.017715584
0003b0 5a 09 41 3e 04 6a 8b 3c 45 ab 9b bd 89 0f 30 3e
       0.18851224 0.017018326 -0.076010264 0.17193426
0003c0 c8 6c c5 3d d0 f7 29 3c 40 2a af 3c d0 ce 8a 3c
       0.09639889 0.0103740245 0.021382451 0.016944319
0003d0 61 c3 ef bd a0 48 49 3d 20 50 99 3c c8 d3 fb 3c
       -0.117071874 0.049141526 0.018714964 0.030740634
0003e0 74 7e b2 bc 0c 1b 64 3d d4 0d 08 3e 02 58 ab bd
       -0.021788813 0.055689856 0.13286525 -0.083663955
0003f0 20 d8 ba 3c 82 f3 5d bd a0 e5 8f bc 70 a4 4a bd
       0.022808135 -0.054187305 -0.017565548 -0.049473226

bias f4 [30]
000000 4d f4 a5 bd 98 9a 46 3d 30 66 8f 3d 4f 92 61 bd
       -0.08103237 0.048487276 0.070019126 -0.05507117
000010 9a c6 e5 38 e0 5e 30 3c fe 81 38 bd 98 6e 97 3c
       0.00010956563 0.010764807 -0.045045845 0.018485352
000020 cb d8 2a 3d 3c b0 67 3d 34 da cf bd 4a c3 c3 bd
       0.041710656 0.056564555 -0.10149041 -0.09558733
000030 2e 04 ff bd 73 ae 0b bc a0 7d 5b 3d 40 2f c3 bb
       -0.12451969 -0.008525479 0.053586602 -0.0059565604
000040 18 d5 84 bc 6c ad 09 be 33 b2 20 be 82 0a 58 3c
       -0.016214892 -0.13445061 -0.15692978 0.013186099
000050 e2 ff c5 3d c0 f6 2b 3e 6d 19 93 bd 89 09 df 3d
       0.096679464 0.16793346 -0.07182584 0.108904906
000060 ce cd c9 bd b2 82 87 bd b4 55 0d 3e 8a 14 10 3e
       -0.09853707 -0.06616725 0.13802224 0.14070335
000070 c9 7d f9 bd 5c d0 f3 bc
       -0.12182195 -0.02976244

weight_ih_l0 f4 [90, 30]
000000 fd ea 49 bd d0 12 9a bc e0 53 dc 3b f1 36 d7 bd
       -0.049296368 -0.018807799 0.006723866 -0.10508526
000010 79 c0 e0 3d b0 c2 75 3c 56 15 26 be 6a 0a 2a 3e
       0.10974211 0.01500003 -0.16219077 0.16605535
000020 d0 1c dd bc 88 71 65 bd 34 95 0c 3d f1 02 6f 3c
       -0.026991278 -0.056016475 0.03432198 0.014588104
000030 76 d5 0f 3e d7 31 6a 3d 0c 66 ee 3d 6a 91 30 be
       0.14046273 0.057176437 0.11640558 -0.17242971
000040 ec fe 0c bd f7 d0 c1 bd 38 c6 f5 bd 69 df fa bd
       -0.0344228 -0.09463685 -0.12000698 -0.12249643
000050 8d 06 1d 3e fc 4f ba 3d 58 5e 06 be 19 5f e1 bd
       0.1533453 0.09097287 -0.13121927 -0.110044666
000060 46 9e e3 bd fe 0a ed bd b9 7c 32 be a0 02 8b bc
       -0.11114173 -0.11574362 -0.1743039 -0.016969025
000070 9e 7a 22 3e f0 2d 35 3d 33 3b b5 3c de 36 92 bd
       0.15867087 0.044233263 0.022122955 -0.07139371
000080 62 c9 00 be 6a 95 1b 3e d6 04 3b be 3a 8d 2c 3e
       -0.12576821 0.15193716 -0.18263564 0.16850749
000090 38 fa 0e bd b6 ef 29 3e 7f e0 07 3d 8a 00 34 3e
       -0.034906596 0.16595349 0.03317308 0.1757833
0000a0 0a d9 1a be 63 d0 2b 3e 40 52 5d bc a7 08 a2 bc
       -0.15121856 0.16778712 -0.013508379 -0.019779516
0000b0 74 42 1f 3d 60 8b 17 3c 7e 25 e4 bd 99 04 35 3d
       0.038881734 0.009249538 -0.111399636 0.044193838
0000c0 93 43 3e be ad 55 ba 3d c5 f5 0b be d7 a9 26 3e
       -0.18580465 0.090983726 -0.13667972 0.16275726
0000d0 cc de 30 be 77 55 90 bc 48 fa 11 3d 5f 06 0d be
       -0.1727249 -0.017618878 0.035639077 -0.13771962
0000e0 d8 ec 9d 3d 45 76 0a be d3 b5 28 be f4 01 7f 3d
       0.0771119 -0.13521679 -0.1647561 0.062257722
0000f0 d8 66 af bd 18 fa 27 3e 81 a6 b9 3d 54 04 5e 3c
       -0.08564538 0.16403997 0.09064961 0.013550837
000100 33 ed 0c be a8 ba df 3d 79 92 06 be bd fd 1f be
       -0.1376236 0.10924274 -0.13141812 -0.15624137
000110 a8 c5 ec 3c 20 ba 2e be 48 99 ad 3d 9b 14 35 be
       0.028902844 -0.17063189 0.08476502 -0.17683642
000120 50 c6 e4 3d 12 7c 24 be a1 c3 0f be c8 c9 e2 bc
       0.111706376 -0.16062954 -0.1403947 -0.027684107
000130 e8 07 48 bd 3a a6 03 3e 3a 6b 6c 3d a7 61 83 bc
       -0.048835665 0.12856379 0.057719447 -0.016037775
000140 5d da b4 3d 7f 8c f4 bd 8c 0b 2a 3e d4 25 b8 3d
       0.08830712 -0.1194086 0.16605967 0.0899159
000150 e6 22 ff bd 23 a7 b9 3b 30 a0 b6 3c 20 73 05 bc
       -0.12457828 0.005665676 0.02229318 -0.008145124
000160 d8 fa ed 3d c6 68 7b bd b1 57 aa 3c 70 f1 7a bc
       0.1162011 -0.061379217 0.020793768 -0.015316352
000170 17 07 9b 3d e7 5f ff bd 1b d0 b2 bb 74 07 d3 3d
       0.07569712 -0.12469464 -0.005456937 0.10304156
000180 36 06 c7 bd 80 6b 94 bb f7 13 f3 bd 06 15 2d 3e
       -0.097179815 -0.0045294166 -0.11869042 0.16902551
000190 3c 30 1a be b4 b0 de 3c dc da e1 bd 8a d8 96 bd
       -0.15057462 0.027183868 -0.11028072 -0.0736552
0001a0 78 56 23 bd e6 82 35 3e 69 67 17 be e3 56 9d 3d
       -0.039877385 0.17725715 -0.14785542 0.07682588
0001b0 35 43 94 3d ee ff 16 3e 5b 9d d8 bd 3e 28 1c 3d
       0.07239381 0.14746067 -0.10576888 0.038124315
0001c0 70 3c 4d bd 0a f2 c8 3d d8 dd c7 3d da d6 58 bd
       -0.050106466 0.0981179 0.0975911 -0.052939273
0001d0 ac 16 b5 3d 27 3b 15 be a6 3c b8 bd 88 17 cd 3c
       0.08842215 -0.14573346 -0.08995943 0.025035635
0001e0 61 35 ce 3d a7 af 20 be 64 e2 11 bc 3f 17 c5 3d
       0.10068775 -0.15692006 -0.008904073 0.096235745
0001f0 84 a3 0f 3d 44 1c 23 3d 1c 89 5b bd e4 34 23 3e
       0.03506805 0.039821878 -0.053597555 0.15938145
000200 70 25 48 bd 08 33 48 bd 5c 84 0b 3e da 68 0a be
       -0.04886383 -0.048876792 0.1362471 -0.1351656
000210 8c 2e e6 bd 20 b9 f7 3d 78 8f 3d bd 6c a6 8c 3d
       -0.11239347 0.12095857 -0.0462794 0.0686768
000220 34 a3 00 3d 5c 60 03 be 93 ee cc ba 9a 41 cd 3d
       0.031405643 -0.12829727 -0.0015635066 0.10022278
000230 f3 90 69 bd 75 6c 87 3c 48 62 d5 bc ba d9 2e 3e
       -0.057023 0.016531209 -0.02604784 0.17075244
000240 18 9d f4 3d 54 e2 2c 3e 38 d3 a9 3d ac 25 23 be
       0.11944026 0.16883212 0.0829224 -0.1593234
000250 21 25 0d 3e d8 4f 29 bd a0 ab 3c bc ea 23 a0 bd
       0.13783695 -0.04133591 -0.011515528 -0.0781935
000260 a2 45 ac 3d b8 28 03 3e 56 c9 5e 3d dc 68 3a bd
       0.08411719 0.12808502 0.054391228 -0.045510158
000270 e2 1e 2a be 60 23 1f 3d 73 ee ac 3d d0 f5 7c bc
       -0.16613343 0.038852096 0.08443918 -0.015439466
000280 b6 e8 70 bd e5 fb 12 3e 98 fb db bc ac bb d4 bc
       -0.05881568 0.14353903 -0.026853368 -0.025968395
000290 1d 26 24 be 4c 9b 98 3d fc d8 9b 3d a4 c6 34 3e
       -0.16030164 0.074514955 0.07609746 0.176539
0002a0 d1 d4 1c be 73 b2 28 be 98 61 a5 3d 03 db 2c 3e
       -0.15315558 -0.16474323 0.08075255 0.16880421
0002b0 be 8f 0f 3e f3 df 78 3d a8 a1 f5 3d c3 40 06 be
       0.14019677 0.06076045 0.11993724 -0.13110642
0002c0 34 bb 11 3e 40 56 98 3d 19 3b 26 be 5c d2 12 bd
       0.14231569 0.07438326 -0.16233481 -0.035845146
0002d0 94 29 08 3e 94 cc af 3d 48 ee 5b bd d6 9f 00 3d
       0.13297111 0.08583942 -0.05369404 0.03140243
0002e0 a9 99 f3 3d fe 4e 20 3e bd 63 a1 bc d8 37 22 3e
       0.11894543 0.15655133 -0.01970088 0.15841615
0002f0 ea 04 91 3d c8 2e 32 3e 09 d7 1a be 2a 41 f2 bd
       0.070810154 0.17400658 -0.15121092 -0.11828835
000300 7f 0f 8a bd bf 1b 4f b9 70 1d 3b 3d ac 34 17 3d
       -0.06741237 -0.00019751395 0.04568237 0.036915466
000310 04 1f 26 be 79 37 87 3d 88 f6 bb 3d 09 fb d7 bd
       -0.16222769 0.066023774 0.091778815 -0.10545928
000320 40 06 13 bd 14 1f e8 bd 4e 8d 13 be 9d 81 0e 3e
       -0.035894632 -0.11334053 -0.14409372 0.13916631
000330 74 16 17 be 86 0f 50 bd aa 67 c4 bd 00 82 a0 39
       -0.14754659 -0.050796054 -0.09590085 0.00030614436
000340 f3 6d 03 3e 04 7d a1 3d e7 d0 1f be 38 16 2f 3e
       0.12834911 0.07885173 -0.15607034 0.1709832
000350 61 39 30 be a2 ae a4 3d 12 1b 0d bc f9 8d 94 bd
       -0.17209388 0.08041121 -0.008612411 -0.07253642
000360 25 48 00 be b8 9d 3a 3e 34 66 10 3e 70 1c d8 bc
       -0.12527521 0.18224227 0.14101487 -0.026380748
000370 88 7c e4 bc b5 ab 34 3d 1c 84 37 bd 87 0c 1b be
       -0.027891412 0.044109065 -0.044803724 -0.15141498
000380 4a 04 85 bd b8 75 e1 bc d0 0e df 3c 9e 32 04 be
       -0.06494959 -0.027521953 0.027228743 -0.12909934
000390 52 0b 14 3e 43 42 25 be a0 ec 0e 3e f5 28 3a be
       0.14457443 -0.16138558 0.13957453 -0.18179686
0003a0 83 ee ad bd 5a 7a 24 3d ac 7b d5 3d 15 1b 3c bd
       -0.08492758 0.040155746 0.10423979 -0.045924265
0003b0 74 4a b5 3d 68 cb bb 3d 7d f6 d6 bc e0 9c b5 3d
       0.088520914 0.09169656 -0.026240582 0.08867812
0003c0 04 37 d5 bd 48 54 a3 3c 40 2d 6a 3c 88 d1 43 3d
       -0.10410884 0.01993765 0.014293015 0.047807246
0003d0 14 2f f0 3d 43 88 12 be e0 26 01 3e 00 1b 3a bd
       0.117277294 -0.14309792 0.12612486 -0.045435905
0003e0 2d 06 d2 bd 4a 32 38 3e a8 d7 1d bd 05 46 83 bd
       -0.10255084 0.17987934 -0.038535744 -0.064098395
0003f0 95 8e 36 be e4 08 f9 3d 48 5e 12 3e b2 32 81 bd
       -0.17827828 0.12159899 0.14293778 -0.063084975

weight_hh_l0 f4 [90, 30]
000000 26 95 28 3e c0 f6 fb bd a0 b3 79 bc 2d 60 b5 3d
       0.16463146 -0.12302923 -0.01524058 0.08856235
000010 0d 66 ff bd db b0 0a bc 83 da e5 bd 08 84 41 3c
       -0.124706365 -0.008465017 -0.112233184 0.011811264
000020 2d b0 67 3c 87 d1 1d bd 00 53 38 3e 65 32 97 3d
       0.014141125 -0.0385299 0.18000412 0.07382659
000030 b6 52 2a 3e 33 18 dc bd 16 0b f9 3c 1a c4 1d be
       0.16633114 -0.10746803 0.030400794 -0.15406838
000040 25 7e 9c bd d1 3d 8c 3d c7 c1 ff bd 92 9a 94 bd
       -0.07641248 0.06847728 -0.12488132 -0.072560444
000050 5e cf 11 be d8 8c 23 be b8 32 df bd 25 37 02 be
       -0.1423926 -0.15971696 -0.10898346 -0.12716348
000060 bb 89 91 3c 67 33 cb 3d 3a 4d e1 3c 16 cc 20 bd
       0.01776587 0.099219136 0.027502645 -0.03925713
000070 d5 92 f5 3c 8d 62 00 3d 4b ca 3d 3e 79 8f 34 bd
       0.029977242 0.031343985 0.185342 -0.04408214
000080 79 a1 1e be c1 78 9b 3d a5 05 be 3d 53 de ce bd
       -0.15491284 0.07591391 0.0927842 -0.10100999
000090 da f7 19 3e 2c a0 ad bd 3f d9 f6 3c 55 7d f9 3b
       0.15035954 -0.08477816 0.030132888 0.0076138177
0000a0 75 3d 00 3e 95 50 dc 3c 61 a2 86 bd 22 c0 1c 3e
       0.12523444 0.026893893 -0.0657394 0.15307668
0000b0 c4 58 ca 3d b5 7e 98 3c 20 51 34 3c 37 c8 ff 3d
       0.09880212 0.018615106 0.01100567 0.1248936
0000c0 97 ae 7a bd ab 06 82 3d 3b 58 c4 3d 03 75 7c bd
       -0.061201658 0.06348928 0.09587141 -0.06163503
0000d0 84 b2 43 3e 28 33 fb bd 3e 4d c7 bc a0 d9 ce 3d
       0.19111067 -0.12265617 -0.024328824 0.101001024
0000e0 e8 28 51 3d 26 2e ac bd a5 b3 b1 bd 24 c7 64 3b
       0.051064402 -0.084072396 -0.086768426 0.0034908736
0000f0 85 e7 2d be d3 cb 26 be 97 43 69 3d 99 79 e8 bd
       -0.16982849 -0.1628869 0.056949224 -0.11351318
000100 54 15 95 bb 25 59 0b 3e 85 8a c0 3d 39 b2 00 bb
       -0.0045496617 0.13608225 0.094014205 -0.001963748
000110 17 bf cc 3d 65 bd 3a be c0 88 40 3b a1 5e 26 be
       0.09997385 -0.18236311 0.0029378384 -0.16247036
000120 40 e3 58 3d d4 ec 65 3d 0e 5e 05 3e e8 41 21 3e
       0.052951097 0.05613406 0.1302416 0.15747797
000130 31 4d 8f bd 13 00 f9 3d f6 28 9b bd 81 90 09 bd
       -0.06997145 0.12158217 -0.07576172 -0.033585075
000140 9e a2 1c 3e cd ae 92 3c 60 f4 57 3d 2a 02 92 3d
       0.15296409 0.017905617 0.05272329 0.07129319
000150 8d dd 13 be 35 96 22 be 7d 31 a3 3d db ee 80 bd
       -0.14439984 -0.15877612 0.079684235 -0.06295558
000160 08 8d 0c 3d 5a 50 ef 3d c1 c5 00 bd 76 17 e3 bd
       0.034314185 0.11685248 -0.031438593 -0.11088459
000170 24 f0 3a be 88 6a ca bc e6 40 12 be ba bf c5 bd
       -0.18255669 -0.024709001 -0.1428257 -0.096557096
000180 83 52 74 3d 27 85 09 be 1f 40 cd bc 56 f7 e1 bd
       0.059649 -0.134297 -0.02505499 -0.11033504
000190 21 5c e1 bd 64 54 81 3c 8f 22 c2 3c 82 a5 ff bd
       -0.110039 0.01578731 0.02369812 -0.1248274
0001a0 5e f6 dc bd b6 1c 0c bd 90 27 86 3d 7f af f0 3b
       -0.10789178 -0.03420707 0.06550515 0.0073451395
0001b0 11 ca a4 3d 77 56 1f 3e ea b2 55 bd 7c 72 b5 bc
       0.080463536 0.15560327 -0.05217258 -0.022149317
0001c0 34 29 b1 3d 88 9a 00 be 53 29 01 3d ed b2 19 be
       0.08650437 -0.12558949 0.03153355 -0.15009661
0001d0 2a 32 da bd 3f 2c 18 3d 6b 2b 14 bc 87 e4 ac bd
       -0.10654099 0.03715157 -0.009043555 -0.08442026
0001e0 c0 60 26 bc 8b 6a d8 bc 28 a8 e2 3d 45 8b cb bd
       -0.010154903 -0.026417991 0.110672295 -0.09938673
0001f0 68 27 0a be c6 4e 52 bd f1 ae 05 be 8b e7 20 3e
       -0.13491595 -0.051344655 -0.13055016 0.15713327
000200 26 87 e8 3d 5a 90 80 3d 14 f2 3f bd 32 9b f2 3d
       0.113539025 0.06277533 -0.046861723 0.118460074
000210 77 b3 e1 bd 46 d0 ca 3d 1c 79 f9 bd 9d ba 88 bd
       -0.11020558 0.09903006 -0.12181303 -0.06676219
000220 e8 fd 8e 3c f9 8b 8d bd a5 8b 05 be f8 56 b3 bd
       0.017455056 -0.06911463 -0.13041551 -0.08756822
000230 a2 28 53 3d 74 49 ff 3d eb 2d e4 bd 65 33 cf bd
       0.051552422 0.12465182 -0.11141571 -0.101172246
000240 8f 1c 6d 3d 64 93 27 be 36 26 1b be f2 fc 3f bc
       0.057888564 -0.16364819 -0.15151295 -0.011718022
000250 7a 7f ed bd 83 7d 0a 3e 0f eb 89 3d cb a1 89 bd
       -0.1159658 0.13524441 0.06734287 -0.06720313
000260 84 04 35 3d 36 4e 34 be 84 c2 da 3d 3f cb f1 3d
       0.04419376 -0.1760796 0.10681632 0.11806344
000270 31 67 f1 3c e9 3d 01 3e 10 a4 a7 3d 3a c6 33 be
       0.02946815 0.12621273 0.08185589 -0.17556086
000280 a4 15 09 3e 6d 42 21 be e8 5d 16 be a7 fb e3 3c
       0.13387161 -0.15747996 -0.1468426 0.027829958
000290 b7 9a 1d 3e a8 1a 1b 3d 49 b8 da bd 5e b6 00 3d
       0.1539105 0.03786722 -0.10679681 0.03142392
0002a0 06 a2 1f 3e 75 13 b9 3d ab 08 a6 3c 59 09 02 be
       0.15589151 0.09036914 0.020267805 -0.12698878
0002b0 e1 50 e7 bd f5 96 1d 3e 38 34 9d 3d fe e4 00 3d
       -0.11294723 0.15389617 0.076759756 0.031468384
0002c0 a4 e4 0a be 03 fc d0 3d e2 33 75 bd 8d 98 24 3e
       -0.13563782 0.102043174 -0.059863932 0.16073819
0002d0 45 84 d3 3c 9b f9 49 bd 7d 54 98 3d 85 95 9b bd
       0.025819907 -0.049310308 0.0743799 -0.07596878
0002e0 18 fa 39 be 06 a3 d0 bc 63 11 0f bd 0a f0 30 3d
       -0.1816181 -0.02546836 -0.03492869 0.04319767
0002f0 5b f7 e0 bc 58 f7 37 3e be 7d 07 be bc 54 80 bc
       -0.027461698 0.17965448 -0.1323156 -0.015665404
000300 23 54 59 bd 48 a6 ec 3d f6 64 c6 3d 5a 78 35 3e
       -0.053058755 0.11555153 0.096872255 0.17721692
000310 9f 57 de 3d 4c 4c a3 bd 80 af fd 3d bd e9 4b bd
       0.10856556 -0.07973537 0.123869896 -0.049783457
000320 92 b5 0e 3e 2b 20 ab 3d 4b ab fa bd 05 8c c9 bd
       0.13936451 0.08355745 -0.12239703 -0.0984116
000330 21 5f 17 be 10 c2 84 3d 8b ad fe 3d 51 5f ba bd
       -0.14782383 0.06482327 0.124354444 -0.091002114
000340 a5 a9 13 3d 04 b5 40 bd ec 48 99 3d 53 97 e8 bd
       0.036050458 -0.04704763 0.07484612 -0.11356988
000350 09 84 0f bc 5c 61 d2 bd 44 a4 c6 3d 34 7a 2c bd
       -0.008759507 -0.10272476 0.096993 -0.04210873
000360 0b 3b 13 3d f8 33 33 3e a3 85 0d 3e 54 b0 1a be
       0.03594498 0.17500293 0.1382051 -0.15106326
000370 5c 71 4b 3d fc 79 10 3e 43 a3 fa bd 8e d5 00 be
       0.049668655 0.14109033 -0.12238171 -0.12581465
000380 7a d8 a6 bd 38 85 17 3e a4 9a 20 bc a3 d9 3d 3e
       -0.081467584 0.14796913 -0.009802494 0.18540053
000390 7e 3a ff bd dc ba 15 3e df 13 22 3e 8c d5 09 be
       -0.124623284 0.14622062 0.15827893 -0.13460368
0003a0 01 41 10 3d ca eb 84 3d 78 63 4a bd da 13 5e bd
       0.035218243 0.06490286 -0.049411267 -0.05421815
0003b0 79 4c a1 bd 19 ad 09 be e9 e6 ca bd c4 22 36 be
       -0.07875914 -0.13444938 -0.09907324 -0.177867
0003c0 b1 5c b7 bd 8c 39 dc 3d ce 52 38 3e a0 38 a2 3d
       -0.08953226 0.10753164 0.18000337 0.079209566
0003d0 01 6b 9c bd e2 2f 06 3e 05 bd 07 be b0 99 96 3c
       -0.07637597 0.13104203 -0.13255699 0.01838383
0003e0 0c 91 1e bd d0 39 1c bd dd 1c 81 bd 90 77 ee 3d
       -0.038712546 -0.03814107 -0.06304333 0.116438985
0003f0 64 5a a3 3d c0 68 2a be f0 3d 7f 3c 5e f7 0a be
       0.07976225 -0.16641521 0.015578732 -0.13570926

bias_ih_l0 f4 [90]
000000 7f d2 fb 3d 88 5d fb 3c 44 85 0c 3e a9 e3 45 3e
       0.12296008 0.030684248 0.13722712 0.19325127
000010 e8 50 09 3e b0 3d fe bd be 09 14 3d d8 97 17 bc
       0.1340977 -0.1241411 0.036142103 -0.009252511
000020 b2 5f 2a be 96 08 71 3d c7 46 11 3e 8d 9e 25 3e
       -0.16638067 0.05884608 0.14187156 0.16173764
000030 fe 89 1a bd 7d 9b 14 3e 72 a6 28 be 65 7e 88 3b
       -0.037729256 0.14512439 -0.16469744 0.004165458
000040 fe e2 ea bd 2a 2f df bd a0 2f 83 bd b1 32 96 bd
       -0.114690766 -0.10897668 -0.06405568 -0.07333887
000050 64 93 0e be 3f 13 84 bc 78 e8 df 3d 72 33 aa bc
       -0.13923413 -0.016122459 0.10933012 -0.020776484
000060 09 46 06 be c0 c8 e4 3d d5 e3 68 3d 37 62 ae bd
       -0.13112654 0.111711025 0.056857903 -0.08514827
000070 5c 17 09 be cb 0b 04 be 0c 7a 9a 3d 78 76 2a bd
       -0.13387817 -0.12895124 0.0754281 -0.041616887
000080 55 6c e5 bd ec 4d 3f 3e 93 3a ab bd 6e 09 d4 3c
       -0.11202303 0.18682069 -0.083607815 0.025883403
000090 fc f1 12 3e 43 f7 c9 3d 9d 69 8a bd d6 fd 37 3e
       0.14350122 0.098616146 -0.067584254 0.17967924
0000a0 8b af dd bd 00 a4 02 3e 17 09 e3 bd 8d a1 7d bc
       -0.10824498 0.12757874 -0.11085718 -0.015480411
0000b0 e0 30 9b bc 7b 60 16 be 43 af e4 3b 4f a9 c6 3d
       -0.018944204 -0.14685242 0.0069789006 0.09700262
0000c0 81 84 ee bd 9d b3 fb 3c 39 aa 27 be 19 23 db 3d
       -0.11646367 0.030725295 -0.16373529 0.10700054
0000d0 5a 23 1b 3e d0 66 57 3e 19 e3 c8 3d c6 c4 ba 3d
       0.15150204 0.21035314 0.098089404 0.09119563
0000e0 09 f9 6e bc 01 d5 7d be fc 41 7b bc 10 3c 43 3e
       -0.014585742 -0.24788286 -0.015335556 0.19065881
0000f0 83 7d 4e 3d 72 54 44 3e e5 42 1d be 23 50 3e bd
       0.050412666 0.19172838 -0.1535755 -0.046463143
000100 e7 e5 61 3e f4 2f 57 be 85 fe 41 3c 8e 1c fa 3b
       0.22060357 -0.21014386 0.011840467 0.0076327985
000110 54 d2 20 be f7 18 15 39 99 a1 e5 bd 97 28 ea bd
       -0.15705234 0.00014219047 -0.11212463 -0.11433523
000120 59 7d 64 be a0 5a 94 3d a4 26 d1 3d 3f aa 49 3e
       -0.22313441 0.07243848 0.10212448 0.1969385
000130 ce 64 50 3d 4c 24 d9 bc fa 9e ec bd 6c f7 c5 3c
       0.050877385 -0.026506566 -0.1155376 0.024165832
000140 92 23 4c 3d 71 7c 9f bc 19 50 2f be 8d 39 f4 3d
       0.04983861 -0.019468518 -0.17120399 0.119250394
000150 3a 30 2f be b0 70 54 3d e7 58 e2 bd 78 be 18 3e
       -0.1710824 0.05186528 -0.11052113 0.14916408
000160 52 6a 1a be a7 35 89 bd
       -0.1507962 -0.066996865

bias_hh_l0 f4 [90]
000000 2e d7 e8 bd a9 d9 56 bd 34 8c 52 3d a5 65 ec bd
       -0.11369167 -0.05245367 0.05140324 -0.11542825
000010 29 59 d1 bd 57 f4 17 be 87 d9 19 bd 70 38 ef 3d
       -0.10222084 -0.14839302 -0.037560966 0.116806865
000020 37 5e 38 be 16 09 c3 3d c9 80 fa 3d d4 e7 c7 3d
       -0.1800469 0.095232174 0.12231595 0.097610146
000030 93 32 32 3e e3 cd 20 be 79 c7 fa 3d 82 63 6c bd
       0.17402105 -0.1570354 0.12245078 -0.057712086
000040 ea 93 26 bd 2a df 0f 3d 69 ef 37 be ca 11 ea bd
       -0.040668406 0.035124935 -0.17962421 -0.11429174
000050 60 00 23 3e 34 6a 6e bd 34 9c 49 3d 0f 44 85 3d
       0.15918112 -0.058206752 0.049221233 0.06507122
000060 f8 d0 51 bb cd 0c 35 be 3d 22 0d 3e 90 eb 4f be
       -0.0032015424 -0.17680664 0.13782592 -0.20304704
000070 0c 41 a9 bd 05 f1 1f 3e b9 4b e7 bc 19 4f 66 3e
       -0.0826436 0.15619285 -0.02823435 0.22491111
000080 e2 4a 2f 3d e7 bf cf 3d b0 aa 04 3e 13 9c 1a be
       0.042796023 0.10144024 0.12955737 -0.150986
000090 26 34 c4 3b 6e a2 16 be 23 08 3d be 3f 47 a6 3d
       0.005987662 -0.147104 -0.18460135 0.08119058
0000a0 3b 79 fc bd cc 5e ea bd 2d e1 eb 3d 27 6f 28 3c
       -0.123278104 -0.11443862 0.11517558 0.010280407
0000b0 ea 38 91 bd 9f e8 09 be 67 cf ae 3d 2f ff b1 3d
       -0.070909336 -0.13467644 0.085356526 0.086912505
0000c0 74 eb 52 be e6 11 c5 bd 75 21 be bd 67 a9 08 be
       -0.2059763 -0.096225545 -0.09283725 -0.13345872
0000d0 ee 1d 93 3d 2c a3 50 3e 46 1f 41 3c c4 c2 27 be
       0.07183443 0.20374745 0.011787241 -0.16382891
0000e0 55 20 f6 bd 4a 2c a4 3c 4c 70 98 bd 48 fa b3 bd
       -0.120178856 0.02004065 -0.07443294 -0.08787972
0000f0 4e d1 cd 3c 22 3f c4 bd a7 18 0e 3e d0 c4 d6 3c
       0.025124218 -0.09582354 0.13876592 0.026216894
000100 31 44 aa 3c 0a 33 ab 3d 53 45 03 be 83 93 df 3d
       0.02078447 0.08359344 -0.12819414 0.109168075
000110 3f 97 c7 bd e5 ee 24 3d 8f 0c 10 be 82 07 f9 3d
       -0.09745645 0.04026689 -0.1406729 0.12159635
000120 55 31 66 3d c5 0d 02 bc 19 b4 4e 3d f4 e5 92 bd
       0.05619939 -0.007937853 0.050464723 -0.07172766
000130 d9 12 28 3e be 94 00 bd ef 1e 15 3e 91 35 44 be
       0.1641344 -0.03139185 0.14562581 -0.19161059
000140 ac 26 13 3d de 1c 53 bd 17 65 35 3d 20 72 42 3e
       0.035925552 -0.0515412 0.04428586 0.18988848
000150 a9 c1 06 3e 00 a4 97 3d a2 3c a5 3d 17 16 b2 bc
       0.13159813 0.074043274 0.080682054 -0.021739049
000160 7a 44 08 3e ba 3e 30 3e
       0.13307372 0.17211428

weight_ih_l0 f4 [3, 30]
000000 87 f6 53 3f 14 27 72 3f 64 79 be 3e 88 95 33 3f
       0.82798046 0.9459088 0.3720199 0.7015004
000010 34 1f c1 be 5e 35 39 3f a1 19 85 3e 3e 4b 2f 3f
       -0.3771912 0.72347057 0.25996116 0.68474185
000020 f3 a5 a9 3e fa 1d 45 bf 18 fd ce be b3 82 24 3e
       0.33134422 -0.76998866 -0.4042747 0.16065483
000030 30 0d eb bd 19 bb 9a 3e 0e 17 14 bf d4 50 26 bf
       -0.11477125 0.3022087 -0.5784768 -0.64967084
000040 6c ec 44 bf d0 83 6c bf 2f b8 4f 3f e9 c8 2a bf
       -0.7692325 -0.9238863 0.81140417 -0.66712815
000050 eb 52 22 3f 7c 9f 7b 3f ac a5 29 bf 13 70 96 be
       0.6340777 0.9829023 -0.6626842 -0.2938238
000060 76 c7 41 bf b4 3b 47 3f 72 7e 24 bf 3a 2d 7c 3f
       -0.7569498 0.77825475 -0.6425544 0.9850651
000070 c7 d0 31 3d 60 fb c5 be a3 32 5c 3e 80 b0 0d bd
       0.043411996 -0.38668346 0.21503691 -0.03459215
000080 5b fd 34 bf cf f6 7b 3f af 65 83 3e e8 a2 7c bf
       -0.7069909 0.98423475 0.25663516 -0.98686075
000090 b1 b1 0e 3f 00 7e be 3d f4 8e 46 bf 42 f2 73 bf
       0.55739886 0.09301376 -0.7756188 -0.9529153
0000a0 e8 9d 5a bf 39 a3 0f bf 82 b4 4f 3f 0e a8 80 3f
       -0.85397196 -0.56108433 0.8113481 1.0051286
0000b0 5e c1 2b bf ba 72 62 3f f8 04 4d 3f e2 2f bf be
       -0.6709193 0.8845631 0.80085707 -0.3734122
0000c0 aa 18 71 bf 33 4f 00 3e a7 30 42 bf e1 36 72 bf
       -0.9417826 0.12530212 -0.7585549 -0.9461499
0000d0 d0 e2 c6 bd 5d b7 58 3c a6 0e 49 3f 13 07 1d bf
       -0.0971123 0.013227311 0.78537977 -0.6133892
0000e0 08 a6 4b be 8c 92 37 3f f9 48 7d bf da 2f 1f 3f
       -0.19887555 0.7170799 -0.9893947 0.6218239
0000f0 cd 1b 3e bf 70 5e ad 3e ca bc 01 3f f5 9a 47 be
       -0.7426117 0.33861113 0.50678694 -0.19492705
000100 d2 2e b1 be 90 d9 cf be c1 c2 03 bf 56 d4 3a bf
       -0.34606034 -0.40595675 -0.51469046 -0.7298025
000110 55 4d 7f 3d c6 13 7d bf 9a c0 54 bf f4 86 6a bd
       0.06232961 -0.98858297 -0.83106387 -0.057257608
000120 d8 3a 29 be b6 b4 aa 3e 70 30 14 3e 38 8c 0d 3e
       -0.16526353 0.33340997 0.14471602 0.1382302
000130 c0 ad 39 be b1 1e 33 bf f6 7c 2e be dc 9d 78 3f
       -0.18132687 -0.69968706 -0.17039856 0.97115874
000140 1c 3a f7 3e 9f 59 a3 3e a6 43 7c bf a8 59 60 3e
       0.4828652 0.31904313 -0.98540723 0.21909201
000150 3e 65 6a bf 53 b5 25 3f 48 73 e2 be 48 a4 b0 3e
       -0.91560733 0.64729804 -0.44228578 0.34500337
000160 b8 58 76 3f 74 c1 bd be
       0.96229124 -0.37061656

weight_hh_l0 f4 [3, 1]
000000 ae 9c ef be 34 9e 63 3f 05 47 53 bf
       -0.46799225 0.88913274 -0.8253024

bias_ih_l0 f4 [3]
000000 02 2a 39 3e d3 34 fa be d2 61 40 3e
       0.18082431 -0.48868427 0.18787315

bias_hh_l0 f4 [3]
000000 bc 6b 0d bf 2a 2a c7 bb e0 bf 20 3f
       -0.55242515 -0.0060780244 0.6279278

weight f4 [8, 31]
000000 72 69 df bd 92 9e 11 3e 0b a6 94 3d ae b3 62 3c
       -0.10908784 0.14220646 0.07258233 0.013836784
000010 b8 74 8a 3d ab be 3f bd 59 f7 6e bd ad 95 1a 3d
       0.067605436 -0.046812695 -0.058341358 0.0377404
000020 25 b6 8d bd 5e 21 df 3c 6b 13 c8 3c b3 c3 2a 3d
       -0.06919507 0.02723759 0.024423322 0.04169054
000030 c7 2b 5c bb 34 ce 37 3d 57 d5 4b 3d 0d 2d 0e bc
       -0.003359543 0.044874385 0.049764004 -0.008677733
000040 d2 d3 f7 3c 52 aa 99 bd 0b 45 8d 3d ad 5a e4 bd
       0.030252371 -0.07503189 0.068979345 -0.111501075
000050 c8 cf bc bc aa d1 36 bd ab f8 74 3d e6 8a f3 3c
       -0.023048297 -0.044633545 0.05980746 0.029729318
000060 7f 99 69 bd 69 bd 19 3d a9 2f 83 bc 53 6a 00 3d
       -0.05703115 0.03753415 -0.016013937 0.0313514
000070 ca 2c fd 3c fb d8 d8 3d 5e 61 ba 3d 66 29 f7 bd
       0.030905146 0.10588261 0.091006026 -0.12068443
000080 02 f0 89 3d 4e b0 3e 3e d7 2e e9 bd 84 4d 2a 3e
       0.06735231 0.18621942 -0.11385887 0.16631132
000090 94 48 33 3d 8a 69 db 3d 32 74 9e bd 2b c0 32 be
       0.043770388 0.10713489 -0.07737006 -0.17456119
0000a0 b3 de ce bd ff 6a cb 3d 37 98 d9 bd 38 5e b3 bd
       -0.1010107 0.09932517 -0.10624736 -0.08758205
0000b0 3f d4 47 3d c1 f3 28 3e ce 43 32 3e b6 db 00 be
       0.048786398 0.16499235 0.17408678 -0.12583813
0000c0 75 92 2d bd 5e 58 9b bd e4 25 e8 bc 7c 3a f4 bd
       -0.042376 -0.07585214 -0.02833838 -0.119252175
0000d0 bd fc 1e be 03 72 14 be c2 a8 50 3e c2 93 05 3c
       -0.155261 -0.14496617 0.20376876 0.008152904
0000e0 6d 76 5b 3d a1 e3 48 bd 1e 2e 15 be 78 c6 ee bd
       0.053579737 -0.04904521 -0.14568374 -0.11658949
0000f0 48 11 23 3d 05 ed 1f 3d b5 de cb 3b 3f c2 a0 bb
       0.039811403 0.0390444 0.006221617 -0.0049059684
000100 47 52 91 ba 8a 09 de 3b ea 29 80 bb a4 ec 9a 3b
       -0.0011087143 0.0067760395 -0.0039112465 0.004727917
000110 6b 6a cb bb 01 65 08 3c 9e 85 09 3c 9c ed 85 3b
       -0.0062077544 0.008324862 0.008393673 0.004087163
000120 39 7a c5 3b 69 c3 8a 3b 65 9b 04 3c e9 6e bf bb
       0.006026533 0.0042347205 0.00809369 -0.005842079
000130 07 c8 83 bb 89 65 7e bb 4c 2c e4 3b 9c 94 bb 3b
       -0.004021648 -0.0038817844 0.0069632884 0.0057245027
000140 80 a5 d1 3b 98 17 d1 3b aa b9 c8 ba 95 6f 8a 3b
       0.006397903 0.0063809864 -0.0015314121 0.0042247274
000150 06 68 9b 3b af d9 8c bb 61 1c 3c 3b 82 bc df bb
       0.004742625 -0.004298411 0.0028703439 -0.006827892
000160 a6 0e cb 3b e2 b7 ec b8 29 ca 53 ba 8b ac 84 bb
       0.0061968146 -0.00011287608 -0.00080791354 -0.004048889
000170 3b 9b b8 bb b2 97 26 3b 07 29 1f bb f6 10 01 b9
       -0.0056337393 0.0025420007 -0.0024285929 -0.00012308717
000180 75 df 45 3b 66 28 3f bb 98 74 d7 3a 7d 99 28 bb
       0.0030193005 -0.0029168366 0.0016437946 -0.0025726252
000190 77 e3 0c 3b d1 66 4d 3b 8c bc 1f 3b 2f 16 03 bc
       0.0021497884 0.00313418 0.0024373857 -0.008000894
0001a0 72 31 06 3b 28 54 33 3b 14 6b 2b bb 5e b9 20 bb
       0.002047625 0.0027363393 -0.0026156353 -0.002452455
0001b0 8f 6f 2f bb da 52 34 3b fd 6c 3e 3b 70 ce 06 3b
       -0.0026769375 0.0027515204 0.0029056661 0.0020569824
0001c0 4c 2c 38 3b c3 05 ce 39 2b ea fc 3a 8a 2f 0e 3b
       0.0028102575 0.00039295675 0.0019295862 0.0021695816
0001d0 84 6e 48 ba 1c 08 38 3b 69 a1 46 bb b3 d6 3e 3b
       -0.00076458626 0.0028081005 -0.003030861 0.002911967
0001e0 d0 e1 68 3a ec 1c 2a 39 93 dc de ba 01 65 03 bb
       0.00088837463 0.00016223238 -0.0017002992 -0.0020049217
0001f0 ff 6a 52 3d 3a 1f 26 bd 2a 8f ff bb 6d 4f 0a 3d
       0.05137157 -0.040557124 -0.007799049 0.033767153
000200 19 2e 8c 3d 0e ab 25 3d c4 08 be 3c 85 d1 3c 3d
       0.0684473 0.040446334 0.02319754 0.04609825
000210 81 ab 97 bd 44 47 1e bd 91 bd c1 bd 4d 44 a0 3c
       -0.07405759 -0.038642183 -0.09459985 0.019563818
000220 ab 86 38 bd 04 63 8a bd ad a6 47 3d 19 43 15 3d
       -0.045050304 -0.06757167 0.04874294 0.036440942
000230 19 74 00 3d 46 2a 9d 3d cf 49 40 3d 01 b6 a6 bd
       0.03136072 0.07674079 0.04694539 -0.08140183
000240 86 8b 19 3d 63 33 bb bc ac 43 a5 3b 56 5c 91 3d
       0.037486576 -0.022851652 0.0050434675 0.0709769
000250 c5 f0 c6 3c 02 7f e8 bc 54 5a 58 3c cb 06 62 3d
       0.02428473 -0.028380875 0.01320513 0.05518226
000260 1b 00 b5 bc 33 3d 84 bb b8 b0 f8 bc b2 9d 52 bd
       -0.022094777 -0.004035616 -0.030357704 -0.05141992
000270 d5 0f e0 bc c9 96 d6 3d 00 0a 5a 3d 67 2a 9a bc
       -0.0273513 0.10477979 0.053232193 -0.018819047
000280 83 2e ed 3b e2 3b 2a 3c eb 90 13 3d 74 12 9b bd
       0.0072382106 0.010390254 0.036026876 -0.07571879
000290 fd 5d 94 3d 29 86 fe 3c 6a 66 d9 3c cc 4d 41 3d
       0.07244489 0.031069832 0.026538093 0.047193334
0002a0 61 6b 32 bb 4e e7 71 bd 74 d1 7e bb 41 f7 90 bd
       -0.0027224647 -0.05905848 -0.0038882168 -0.0707841
0002b0 41 e1 ad bd 1b 71 6a bd ab 6c 99 3d f9 ab 50 3b
       -0.084902294 -0.057236772 0.0749143 0.0031840785
0002c0 44 54 67 3b e6 02 43 3d 48 d1 99 3d ce 49 13 3d
       0.003529803 0.047610186 0.0751062 0.035959058
0002d0 e8 3a 88 3d 2c c5 75 bd ee eb 08 3d 43 a2 6e bb
       0.066518605 -0.06000249 0.033428125 -0.0036412633
0002e0 14 8e 1d bd a2 a6 08 bd a4 9e 59 3c 5e 5c 41 bc
       -0.038465574 -0.03336204 0.013282452 -0.011801807
0002f0 f1 27 e8 3b 7c fc 40 3c 53 dd 28 bc 2b 16 16 3c
       0.0070848395 0.011778947 -0.010306674 0.009160559
000300 d6 86 36 bc 47 ad 40 3c 6e 1c e3 3b b6 04 d4 3b
       -0.011140546 0.011760063 0.0069308793 0.006470288
000310 c1 71 92 3b 1e 02 3d 3c 4b 30 60 3c f1 f5 f4 bb
       0.004469127 0.011536149 0.013683389 -0.0074756076
000320 94 b3 83 bc 11 53 0f bc cd 3b 2b 3c bc cf 15 3c
       -0.01607684 -0.008747832 0.010451269 0.009143766
000330 c7 e7 d3 3b 9f a0 52 3c f2 76 51 39 22 e2 01 3c
       0.006466839 0.012855678 0.00019976104 0.007927449
000340 14 d6 04 3c 4d 63 cb bb 2d 44 8d bb 17 25 09 bc
       0.008107681 -0.006206906 -0.0043111057 -0.008370659
000350 bd 83 ea 3b af 2f 5a 3b 91 0c e6 3a ca 3b 2d ba
       0.0071568177 0.0033292582 0.0017551353 -0.00066083355
000360 43 54 b8 bb 5f 33 a3 bd 0d 30 a6 bc 4a 2e f4 3d
       -0.005625279 -0.07968783 -0.020286584 0.119228914
000370 44 29 2a be 65 01 2a 3d e7 21 31 3d a8 a1 56 bd
       -0.16617304 0.041505236 0.043245222 -0.05240026
000380 62 da 76 3d 5a f7 70 bc 11 a0 15 bd 89 4e c0 bd
       0.06026686 -0.014707411 -0.036529604 -0.093899794
000390 99 51 52 bd 15 06 2d bc ec 1e 2c 3d a1 d7 36 bd
       -0.05134735 -0.010560532 0.042021677 -0.044639233
0003a0 60 c4 10 bd 32 2d 46 3d 1f 30 82 bd 02 12 ea 3b
       -0.035343528 0.048382945 -0.063568346 0.00714326
0003b0 82 8d 1b be e9 07 a7 bc 21 d2 7f 3c 42 e8 ca bd
       -0.151907 -0.020389514 0.0156140635 -0.09907581
0003c0 69 2d 52 bd 38 61 03 3d 49 1e 22 bd c2 f7 7c 3b
       -0.051312838 0.032075137 -0.039579663 0.0038599824
0003d0 a7 5f 84 bd 29 d7 c5 bc 0e b8 a7 3b 67 79 a0 bd
       -0.06463557 -0.024150448 0.0051183766 -0.07835656

bias f4 [8]
000000 97 f3 06 3c ed e6 5e 3d 07 3d 5f ba 6c 22 8e bd
       0.008236787 0.054419447 -0.00085158687 -0.06940159
000010 83 95 1b 3d 89 98 e7 bd 9b c9 d6 3d 1f a7 05 3e
       0.037984382 -0.11308391 0.10487672 0.13052033

weight f4 [1, 24]
000000 78 b8 03 3e 8f 1b b6 3d 86 c2 a3 bd 9a 51 18 3e
       0.12863338 0.08891975 -0.07996087 0.14874879
000010 38 22 90 3c 96 ca 19 bc 20 a0 e2 bd 1c 14 21 be
       0.017594442 -0.009386679 -0.11065698 -0.15730327
000020 4f bb 43 ba e8 b7 ad bd 5b 0e 88 3e 9f e1 90 3e
       -0.0007466571 -0.08482343 0.26573452 0.28297135
000030 1a d4 a5 3c a5 c7 b9 3c 15 a6 ea 3b 8b 3a 1b be
       0.02024274 0.022678206 0.007160912 -0.15159051
000040 31 65 97 bd 46 39 84 3d 05 39 3d 3e 15 e4 91 3d
       -0.073923476 0.064562365 0.18478782 0.07123581
000050 1e 27 a6 bc fe 0e 8f 3b 07 5a 03 3e d1 f7 80 3e
       -0.020282324 0.004365801 0.12827311 0.2518907
