model_files/LSTNET/lstnet_model_hor_3_win_35.pt (torch, 41275 bytes, 13 tensors)

weight f4 [30, 1, 6, 8]
000000 4f 69 3a 3d 36 11 df 3d 00 96 18 be fb 15 d6 bd
       0.045510586 0.108919546 -0.1490097 -0.10453411
000010 63 c3 0e 3e 30 34 bf 3d ec 25 21 be 98 06 b8 bc
       0.13941722 0.09336126 -0.15737122 -0.022464082
000020 d1 25 03 be 02 2b 45 bd bc d0 85 3c a1 0e 92 3d
       -0.12807395 -0.04813672 0.016334884 0.071316965
000030 e4 3e 06 3e ec 5c dc 3d c2 e0 91 bd 65 91 cd 3a
       0.13109928 0.10759911 -0.07122947 0.001568359
000040 80 df d2 bd 0f af d7 bc 17 21 2a bd 78 d4 ae bd
       -0.102965355 -0.026328592 -0.041535463 -0.08536619
000050 9d 47 e0 bd 20 82 3b 3d 8c ed bd 3c bd 16 ec 3d
       -0.10951159 0.045778394 0.02318456 0.115277745
000060 13 c6 9e bd 45 a1 ae bd 90 41 02 3e dc 14 0f be
       -0.077526234 -0.085268535 0.12720323 -0.13972801
000070 7b 74 d1 bd 6c df fb 3d 4e 19 a7 bd e1 b2 46 bd
       -0.10227295 0.12298474 -0.08159123 -0.048510436
000080 47 4f 1e bd 1b 00 52 bd bb 6b bb bd d3 a9 3a bd
       -0.038649824 -0.05126963 -0.09151407 -0.045572113
000090 61 25 9b bc 1d 48 a2 3d a2 59 e7 3d 7b b7 7a 3d
       -0.018938722 0.07923911 0.11296393 0.061210137
0000a0 af 9a c2 3d 3b ce ae 3d d7 39 d3 bd 27 91 9e bd
       0.0950216 0.08535429 -0.103137664 -0.07742529
0000b0 9d f7 17 be 49 91 b4 3d 66 2a 03 bc 84 b7 f5 bd
       -0.1484055 0.088167734 -0.008005714 -0.119978935
0000c0 4e 8b f9 3d 65 56 01 3d 25 bb 66 bd 3f d4 b6 3d
       0.121847734 0.031576533 -0.05633082 0.089272015
0000d0 6b d9 dd bd 74 a6 0c be d7 21 12 be ca cc 14 3d
       -0.10832485 -0.13735372 -0.14270721 0.036328115
0000e0 40 ca 71 3d b3 61 b6 bd 23 71 ab bd 0e b9 06 3e
       0.05903077 -0.089053534 -0.083711885 0.1315653
0000f0 8d 6b 5a 3d 5a c0 c2 3d a5 04 31 39 2f 3b 15 be
       0.053325225 0.095093444 0.00016881766 -0.14573358
000100 2e 42 0e be a0 46 1f 3d fa ac d2 3d a4 ce e9 3d
       -0.13892433 0.038885713 0.10286899 0.11416367
000110 70 d9 c6 bd 71 eb 17 be 65 c1 21 3d af 2a 96 3d
       -0.09709442 -0.14835908 0.039491076 0.0733236
000120 7e 19 01 be 0a 4c 8e 3d 59 e8 95 bd 44 fa 1b bd
       -0.12607381 0.06948097 -0.073197074 -0.03808047
000130 7a 1c 19 be 2c 92 0e be ed 59 83 3d ec 39 98 3d
       -0.14952269 -0.13922948 0.06413636 0.07432923
000140 fd ce aa bd a2 98 83 bd ae 13 43 3d 7b 86 fd bd
       -0.08340261 -0.06425597 0.04762619 -0.12379166
000150 b0 95 86 3d 5d 96 ac 3d 33 56 e7 3c db d4 0c 3e
       0.065715194 0.08427117 0.028239345 0.13753073
000160 3b da 2f 3d 39 09 4c bd 43 a9 b5 3d 2b 19 76 bd
       0.04293273 -0.049813483 0.08870175 -0.060082596
000170 ec 75 09 3d 6f df 87 bd 54 55 07 3e 09 bc 1a 3d
       0.033559725 -0.066344135 0.13216144 0.03777698
000180 4a 29 ab 3d 44 e1 af bd d4 b2 a2 bc 2d cd dc 3c
       0.08357485 -0.08587888 -0.019860663 0.026953304
000190 46 6f d6 3d cf 3f c1 3e e3 96 a5 3d ed 19 22 be
       0.104704425 0.37743995 0.0808542 -0.15830202
0001a0 d9 43 ad 3d 43 f1 f3 3d 38 39 22 be 19 08 4a 3d
       0.084602065 0.119112514 -0.1584214 0.04932413
0001b0 48 63 eb 3d 83 5c b9 3e 12 7c fa 3d d7 f9 29 be
       0.11493546 0.36203393 0.12230696 -0.16599213
0001c0 04 d5 02 3e 54 25 ee bd 85 5d 3f be a9 58 d5 3d
       0.12776572 -0.116282135 -0.18688019 0.10417301
0001d0 18 72 9e bc a3 23 21 3e 93 4d d9 3d 64 d3 0a be
       -0.019341514 0.1573625 0.10610499 -0.13557202
0001e0 f3 55 8d bd 47 96 9d bd 20 82 c3 bc 87 83 35 bd
       -0.06901159 -0.07694679 -0.02386576 -0.044314887
0001f0 2b d4 a1 be b3 65 50 3e 6e ed b2 3a b8 e0 96 3d
       -0.31607184 0.20351295 0.0013651082 0.073670805
000200 be 81 36 3e 92 7b 29 3c 4b c4 af bd 50 71 e6 bd
       0.1782293 0.010344403 -0.08582362 -0.112520814
000210 f2 fd c1 be 4d 06 25 be 61 2e 44 bc fe 51 c7 3d
       -0.37889057 -0.16115685 -0.011973948 0.09732436
000220 7f 9c be 3d 1a 6b 83 3b 5c 1d 55 be cc 3a b7 3d
       0.09307193 0.0040105702 -0.20811981 0.089467615
000230 82 bc 01 bf 0d 26 95 be fb 53 9c bc c1 0d 10 bc
       -0.50678265 -0.29130593 -0.019083014 -0.008792342
000240 7f 6b d6 bd ec 20 21 3e 65 2b 22 bd 6c 5e 33 bd
       -0.10469722 0.15735215 -0.039592165 -0.04379122
000250 67 d5 c6 3e af 82 c9 bc 66 74 0e be a7 2c ca bc
       0.38834688 -0.024598448 -0.1391159 -0.024679495
000260 dd 70 1d 3d d9 c9 06 3e d2 72 72 bd 02 92 87 3d
       0.038437713 0.13162936 -0.059191532 0.06619646
000270 16 7c 6a 3e ba 29 19 3e 06 6f ca bd 63 42 d4 bb
       0.22898898 0.14957324 -0.09884457 -0.0064776405
000280 73 ec 36 3e b7 f2 bd 3d ad d5 13 be 09 64 18 bc
       0.17863636 0.0927481 -0.1443698 -0.009301194
000290 3d 52 d8 3d 71 ac bf 3e 7d f9 4f 3d 55 cb 58 bd
       0.10562561 0.3743625 0.05077504 -0.052928288
0002a0 09 b4 1c 3e 62 0c eb 3d 12 7a 98 be 01 bd 94 bd
       0.15303053 0.11476971 -0.29780632 -0.07262612
0002b0 1f 59 e2 be c3 74 10 be ea 90 0d be e2 fe 20 be
       -0.4420862 -0.14107041 -0.13824812 -0.1572223
0002c0 2e 48 48 3d 28 d2 0f be ae 6e bf be fd 7a 36 be
       0.04889696 -0.14045012 -0.3738913 -0.17820354
0002d0 e4 4a bb 3b 10 65 a7 be 18 3c 9f 3c 89 0c 81 3c
       0.005715715 -0.32694292 0.019437835 0.015753048
0002e0 d4 ac 49 3d 86 bb 34 bd 09 4a 72 be 30 29 c6 bd
       0.049237087 -0.04412415 -0.23661055 -0.09675825
0002f0 cc 0b 43 be 7d 39 bd be 40 3d 8b 3c d4 7b 3f 3c
       -0.19047469 -0.36957923 0.01699698 0.011687238
000300 d3 7b fe bc e2 88 d3 3d 7a f5 88 3c e7 cf f8 3d
       -0.031064903 0.10328843 0.016718615 0.12149029
000310 cc 99 9b 3c ac e6 e9 bd 45 9d 38 bd a4 66 c8 bd
       0.018994235 -0.1142095 -0.04507186 -0.09785202
000320 35 45 c6 bd 5b 6f ec 3d 17 9f 19 bd ea fe 0b bd
       -0.09681169 0.11544677 -0.037505236 -0.034178652
000330 58 5b 74 3d fb 5c c4 3d 71 94 e8 3c 48 95 b1 bd
       0.059657425 0.09588047 0.028391095 -0.08671051
000340 76 b5 01 3e 2a d9 86 3d 7c 2c 15 bc 83 51 15 be
       0.12666878 0.065843895 -0.009104844 -0.14581876
000350 7f 41 c2 bd c0 2f 04 3b 08 1f 24 3d 4c f8 5f 3d
       -0.09485149 0.0020170063 0.040068656 0.054680154
000360 f3 ff cd bd e2 ec b6 bd c3 70 eb bd 5e dd a1 3b
       -0.10058584 -0.089319006 -0.11496117 0.004939719
000370 69 9a f3 bd 09 0f 8d 3d b3 9b b6 bd 9e 05 2b 3c
       -0.11894686 0.06887633 -0.08916416 0.010438351
000380 14 fd bc bd e1 26 c7 bb 83 1f 24 bd 79 c0 60 3d
       -0.09227958 -0.006077633 -0.040069114 0.054871056
000390 a7 32 11 be 03 42 48 bc d2 aa 09 be 1c cf f9 bd
       -0.14179479 -0.01222277 -0.13444069 -0.12197706
0003a0 81 02 03 bd 96 10 80 bd 2a b8 7b 3d 0c e2 80 bd
       -0.03198481 -0.062531635 0.06145493 -0.06293115
0003b0 a6 b2 15 3e 93 e8 a1 3d b9 7c ca bd c8 66 0f be
       0.1461893 0.07905688 -0.0988707 -0.14004052
0003c0 51 32 0d 3d 0b a0 a6 3d ff 06 8e bc 1f 35 bb bd
       0.034471814 0.081359945 -0.01733732 -0.091409914
0003d0 b6 95 0a be 92 58 a5 3d 62 3f ae bd 02 76 0d be
       -0.13533673 0.08073534 -0.08508183 -0.13814548
0003e0 37 49 05 be db 4c 47 3d 73 c2 a5 3d ab 9d 91 bd
       -0.1301621 0.04865728 0.08093729 -0.07110151
0003f0 92 62 f3 bc d2 4e 80 3d bc cb 7f bd 7f 2d d4 bd
       -0.029710088 0.06265034 -0.062450156 -0.1036024

bias f4 [30]
000000 7c 71 fe bd ad 61 c4 3d 69 f3 b0 3d 4a 2e fb bd
       -0.12423989 0.09588943 0.08640177 -0.12264688
000010 db 58 b7 3d 23 76 08 be 7c 0c 08 be 37 94 ae 3c
       0.08952495 -0.13326316 -0.13286012 0.021310909
000020 ae a1 6a 3b 10 00 e0 3c 23 8d 86 bd 1f a5 a0 bc
       0.0035801935 0.02734378 -0.065698884 -0.019609986
000030 a9 6e 7a bd b8 f0 9f bc 95 82 58 bd b8 58 e2 3c
       -0.06114069 -0.019523963 -0.052858908 0.027630195
000040 73 01 c7 bd 9a 03 cb 3d cb 1a 87 bb be 4e 51 bd
       -0.09717073 0.09912796 -0.004123067 -0.051100485
000050 12 8d ed bd 9b 53 8f bc 40 02 28 bb be 46 c5 bd
       -0.11599173 -0.01749592 -0.0025636107 -0.096326336
000060 a8 ae 8e 3d a7 cc 5f bb d0 b6 fb 3d a6 9d 7a bd
       0.06966907 -0.0034149082 0.12290728 -0.0611855
000070 d3 a3 31 3e dc 77 5d 3d
       0.1734765 0.054069385

weight_ih_l0 f4 [90, 30]
000000 bc 14 1e 3d ed 43 05 be 0f 43 80 bc 70 6f 1d 3e
       0.038593993 -0.13014193 -0.015656976 0.15374541
000010 46 2d 16 be ac ae 36 3e 70 33 0b 3e 54 e7 2e 3e
       -0.14665708 0.1784007 0.1359384 0.17080432
000020 13 6a d5 3d 8a 9d 06 3e b1 7f d8 bd e0 16 23 3d
       0.10420623 0.13146034 -0.1057123 0.039816737
000030 40 68 86 bc 16 a1 e9 3d 46 2a 32 3e 00 52 38 3e
       -0.016407132 0.11407678 0.17398939 0.1800003
000040 80 e6 91 bb b0 4e d9 3c d0 e4 d7 bd 84 48 e9 3d
       -0.0044525266 0.026526779 -0.105416894 0.113907844
000050 92 a6 04 3e 38 79 ab 3d 82 2c 24 3e a0 cc c7 3c
       0.12954167 0.0837273 0.16032603 0.024389565
000060 34 16 0b bd fd 2f b1 bd 0c 65 45 3d 55 c8 e2 bd
       -0.03395672 -0.08651731 0.04819207 -0.110733666
000070 1d 42 a5 bd a4 de 60 3d 3f df 84 bc 0b 20 c6 bd
       -0.08069251 0.054899827 -0.016219733 -0.096740805
000080 89 c6 4d bd 28 c0 1b be 15 37 3f 3d a9 ef 26 be
       -0.050238166 -0.1521002 0.04668339 -0.1630236
000090 ee 76 1a 3e 80 48 96 bc 22 34 0e be 20 a7 ea bb
       0.1508443 -0.018345118 -0.13887075 -0.007161036
0000a0 c4 ae d2 3d 3c 1e c7 bd 8d d5 b1 bd d0 f5 aa bd
       0.1028724 -0.097225636 -0.0868331 -0.08347666
0000b0 02 b1 03 be 34 b5 06 3d b5 5b aa bd 5b 7f ef bd
       -0.12860492 0.032887653 -0.08318273 -0.11694213
0000c0 ac 01 8b bd 44 1c c2 bd a8 fe 93 bc 42 ea d2 bd
       -0.06787428 -0.094780475 -0.018065766 -0.102985874
0000d0 1e 3d 28 be 2b 16 85 bd fc 92 20 bd 74 b8 3c 3e
       -0.16429564 -0.06498369 -0.039202675 0.18429738
0000e0 00 5a 23 3a 12 be 6f bd 56 eb 36 be 09 2f 03 be
       0.00062313676 -0.058530875 -0.17863211 -0.12810911
0000f0 e8 d0 04 be 82 1c 2e be cf 3f 07 be 88 f2 c9 3d
       -0.12970316 -0.17003062 -0.13207935 0.09860712
000100 b0 e1 67 bd 0e be 0a 3e d4 44 31 3e 98 d4 33 be
       -0.056611717 0.13549063 0.17311412 -0.17561567
000110 84 95 81 3d c8 d0 0e be 37 70 92 3c 2c a3 18 be
       0.06327346 -0.13946831 0.017875774 -0.14905995
000120 a2 1c ac 3d a8 50 4b 3d 0f da 48 bd 40 46 6a 3c
       0.08403899 0.049637467 -0.049036082 0.0142989755
000130 8e f7 fc bd ac 53 12 3e e8 31 b8 3d 2c e4 d5 3d
       -0.12351905 0.14289731 0.08993894 0.10443911
000140 f0 d0 00 3c 6c 48 bb 3d 80 fa c3 3d 96 a9 0f be
       0.007862315 0.09144673 0.095692635 -0.14029536
000150 e8 c4 00 be 55 c9 32 3e 97 93 e9 bd 84 2a f6 bd
       -0.12575114 0.17459615 -0.11405104 -0.12019828
000160 34 dd 12 3e 7e f0 22 3e 29 da 1c be 5d 54 ee 3d
       0.14342195 0.15912053 -0.15317596 0.11637185
000170 33 b9 14 be fc 5c 0b 3e 2a ae f6 bd 49 f2 71 bd
       -0.14523773 0.1360969 -0.12044938 -0.05906895
000180 32 5d 14 3e b6 20 43 bc 30 bc b1 bd 08 fb 74 bd
       0.14488676 -0.011909654 -0.08678472 -0.059809715
000190 68 00 9c 3d 70 9d bc 3d bc f4 fb 3c 78 f2 1f 3e
       0.07617265 0.09209716 0.030756347 0.15619838
0001a0 09 e7 38 be 0f a7 28 be ac a3 41 3d 14 e2 e6 3d
       -0.18056883 -0.16469978 0.04727523 0.1127359
0001b0 e0 62 f5 3c 70 ed 65 bd c2 ee 0e bd 8a 0e 52 bd
       0.029954374 -0.05613464 -0.034895666 -0.051283397
0001c0 28 d7 2d 3e c0 02 c2 3d d0 5c 00 3c d7 78 2b be
       0.16976607 0.09473181 0.007834628 -0.16745315
0001d0 30 d9 f6 3d b7 fa 96 bd e9 d8 d6 3d a1 c8 9e bd
       0.12053144 -0.07372039 0.10490591 -0.07753111
0001e0 60 bb 20 3d fc d2 b4 3d 2e 67 f6 bc 8e 96 01 be
       0.039241195 0.088293046 -0.030078497 -0.12655088
0001f0 2c b6 b5 3d 60 81 a7 bc d0 fd 13 bd 70 d6 35 3e
       0.08872637 -0.020447433 -0.036130726 0.17757583
000200 d0 5c 93 bd 24 3a 0c 3e 20 b2 70 bc ac 91 16 3d
       -0.07195437 0.13694054 -0.014690906 0.036760017
000210 32 11 8a 3d ca ca 49 3d bf f3 f0 bd be 7d 2b be
       0.06741561 0.04926566 -0.11765241 -0.16747186
000220 34 29 bc 3d 50 aa 19 3e fc 5e 16 be 25 1d f7 bd
       0.09187546 0.15006375 -0.14684671 -0.12066106
000230 f6 56 8d bd 1c d6 2a 3e 23 4d 0b be 50 90 17 be
       -0.06901352 0.16683239 -0.13603644 -0.14801145
000240 70 26 c1 bc a1 42 2e be e0 47 82 3b 4c d6 39 3d
       -0.023577899 -0.17017604 0.0039758533 0.045370385
000250 f6 4a 25 3e 55 f9 17 be 6d cd 12 3e 24 39 1a 3b
       0.16141877 -0.14841206 0.14336176 0.0023532594
000260 c3 ad 21 3e f7 07 de bd 33 ed 6a 3d 1f 1a 2e 3d
       0.15788941 -0.10841363 0.057355117 0.04250538
000270 38 79 4b bd e8 43 dc 3d 4d c7 86 bd b0 d5 51 bd
       -0.04967615 0.107551396 -0.06580982 -0.05122918
000280 16 3e 35 bd 53 26 c3 3d b5 a7 cd 3d 81 4c 5e 3c
       -0.044248663 0.09528794 0.10041753 0.013568045
000290 e4 14 86 3c 20 ed 4a bc 06 8e 0f bc 21 e3 dd bd
       0.016367383 -0.012385637 -0.008761888 -0.10834337
0002a0 f7 b7 2d 3d 19 e6 00 be 74 62 2b 3d 4a 0b 2e be
       0.04241177 -0.12587775 0.04184194 -0.16996494
0002b0 2e 6f 1e be 3d ec 27 be fe 40 f9 bd f0 57 00 3e
       -0.15472099 -0.16398712 -0.121705994 0.12533545
0002c0 00 d7 9b bb 84 5f 22 bd d5 36 0c bd ae d1 44 be
       -0.0047558546 -0.039641872 -0.03423198 -0.19220611
0002d0 2d 4d fd bb 87 0b 03 3d 3c 6e c0 3c 3c f8 61 bd
       -0.0077301473 0.031993415 0.023490064 -0.055168375
0002e0 19 5f b7 bd f0 7c 6f bc 32 dd 02 3e a8 25 8a bc
       -0.08953685 -0.01461719 0.12779692 -0.016863659
0002f0 c8 5c 2a bd 78 6b 88 bc b4 57 5b 3d 93 44 83 3d
       -0.04159239 -0.016652808 0.053550437 0.06409564
000300 61 a4 8f 3d 33 3c cc bb 95 38 40 bd 85 fa 06 be
       0.07013775 -0.0062327622 -0.04692896 -0.13181503
000310 8d a5 2e 3e 70 d7 e0 bc 12 ea f6 3d 42 50 39 be
       0.1705534 -0.027446479 0.12056364 -0.18097022
000320 28 b4 21 be 50 06 1f 3e 20 1f 3c 3c 68 f3 e8 3c
       -0.1579138 0.15529752 0.01148203 0.028436378
000330 4d a7 8b bd 34 ac bc 3c 80 4f ab 3d 90 f4 3f bc
       -0.068190195 0.023031332 0.08364773 -0.011716023
000340 9c c4 a4 3d 4a 6c f3 bd 98 88 ce 3d 62 38 03 3e
       0.08045313 -0.11885889 0.10084647 0.12814477
000350 e1 89 a1 3c c4 06 43 3d b7 9d 35 be cc 6d b8 bd
       0.019719066 0.047613874 -0.17735945 -0.09005317
000360 44 c5 25 3e 60 d5 5e bc 2f bc df bd 7c db 7b 3d
       0.16188532 -0.013600677 -0.10924565 0.061488613
000370 3a f9 db bd 14 13 f8 3d 2e 86 11 be e5 53 b7 bd
       -0.107408956 0.12113014 -0.14211342 -0.089515485
000380 fe 08 08 be 44 e5 2e be 5a 3c 2b be ee 6c 91 bd
       -0.1328468 -0.17079645 -0.16722241 -0.07100855
000390 0a 75 18 be 5c fb ea 3d b9 5e 34 be 07 22 d4 bd
       -0.14888397 0.11473724 -0.17614259 -0.10358053
0003a0 f8 ee e9 3c 87 d0 f1 bd 80 ef f5 ba c4 32 a2 bd
       0.028556332 -0.118073516 -0.0018763393 -0.07919839
0003b0 48 4f 94 bd 1c f5 a9 3d 10 93 e7 3d a5 88 e1 bd
       -0.07241684 0.08298704 0.11307347 -0.11012391
0003c0 2c 5c 2e bd 52 8b 80 3d 6d 0a 04 3e 30 36 ac 3c
       -0.04256837 0.06276573 0.12894602 0.021021932
0003d0 78 3f a0 3c ee 3a 27 3e 16 5a 0a 3e bc a7 ef 3d
       0.019561514 0.16331074 0.13510928 0.11701915
0003e0 df e8 b7 3d b4 dd 2c 3e 3c 10 0f 3e a0 4a d5 3d
       0.089799635 0.16881448 0.13971037 0.10414624
0003f0 12 f7 0e 3e e0 73 bc bd af 2a 20 3e 32 4c 3a 3e
       0.13961437 -0.09201789 0.15641282 0.18193129

weight_hh_l0 f4 [90, 30]
000000 9a 32 3e 3d bd 42 7c be 9b fc 95 3d 8c 07 9b bd
       0.046434976 -0.24634834 0.07323571 -0.07569799
000010 5a b4 35 bc 32 8f 43 3d 48 4e 43 3d 3c 0b 7d be
       -0.011090362 0.047743984 0.047682077 -0.24711317
000020 97 22 f3 bb ab 52 16 3e 8e 2a 10 3d 3b 15 2f 3e
       -0.007419895 0.14679973 0.035196833 0.17097943
000030 8b 3c 79 be 15 04 a2 3d 80 10 6d be 8a de 38 be
       -0.24339502 0.07910935 -0.23150826 -0.18053642
000040 5e 76 52 3e ae 7f 9f bd 2d 8d 35 be d7 b8 8c 3a
       0.20552966 -0.07788025 -0.17729636 0.0010736239
000050 f2 5e 8b 3d 9b 71 cd 3d 25 4c 91 bd 1e 28 40 be
       0.06805219 0.10031434 -0.070946015 -0.18765303
000060 a3 e7 c1 3a c8 e2 05 3e b9 fc a7 bd e3 d6 33 be
       0.0014793765 0.13074791 -0.082025 -0.17562442
000070 1a 78 ff 3c ca 53 fe 3d 1a c1 4b 3b 31 c1 a6 bd
       0.031185199 0.12418325 0.003109044 -0.08142317
000080 35 5e 2e bc 9e 74 87 3e 23 dc a1 bd d1 9c a3 bd
       -0.010642578 0.2645616 -0.07903316 -0.07988895
000090 86 c5 aa 3d f0 33 72 3e 73 cb e0 bc a0 13 82 3d
       0.08338456 0.23652625 -0.027440762 0.063513994
0000a0 a0 82 35 3e 9e 9d 63 be 38 a5 28 3e 83 7a bb 3d
       0.1772561 -0.22228095 0.16469276 0.09154227
0000b0 ac 92 a0 bc d4 f2 41 3e d5 3e 4d 3d c7 9e df 3d
       -0.019601189 0.18940288 0.05010875 0.10918956
0000c0 24 c8 c9 bd ae 4a 5f 3c a7 ad d2 bc 04 6f cc bc
       -0.09852627 0.013628645 -0.02571757 -0.02495528
0000d0 19 3a 2c be 70 4b 82 bd 26 14 b8 bb 63 0b 46 be
       -0.16819037 -0.06362045 -0.0056176363 -0.19340281
0000e0 c7 77 b3 bc bc 35 54 3e 65 c2 ba bd 21 90 ac ba
       -0.0219077 0.20723623 -0.09119109 -0.0013165512
0000f0 45 c2 2a bc 01 29 48 3d 8e 90 48 be 4a ed b3 b9
       -0.010422294 0.04886723 -0.19586393 -0.00034318335
000100 69 cf ca 3d 9d ab 08 3e 72 18 00 3e bf 69 45 3d
       0.099028416 0.13346715 0.12509325 0.04819655
000110 66 25 f8 bd 96 a4 3d 3d a3 05 f9 bd 63 7d 2a 3d
       -0.12116508 0.04629954 -0.12159278 0.041623484
000120 b6 25 16 3e 9a 41 b1 3d 5d b6 46 3e 79 76 32 bd
       0.14662823 0.08655091 0.19405504 -0.043570016
000130 09 46 1d bd ad 2d 4a 3e 59 0f 6e 3c 2b a6 63 3e
       -0.03839687 0.19743986 0.014530026 0.22231357
000140 d4 55 0f 3c df c4 fc 3d b0 a5 68 3c 60 ac 53 bd
       0.00874849 0.12342238 0.014199659 -0.05167806
000150 c7 2a 4f 3d f7 2a c4 bc 37 b4 12 3e f2 5e b3 bd
       0.050577905 -0.023946268 0.14326559 -0.08758344
000160 6b c7 ec bd 4c ac 24 be 1d 20 da 3d ee ac 3d 3c
       -0.115614735 -0.16081351 0.10650656 0.011576874
000170 ad 99 7e bd 2e d8 12 bd 39 18 53 be 89 77 0b be
       -0.062158275 -0.035850696 -0.20614709 -0.13619818
000180 bb 15 3c 3d 83 37 23 3e 32 04 2b bc 87 3a 1a be
       0.04591916 0.15939145 -0.010438012 -0.15061389
000190 0f cf be bc 8e 15 24 3e fe 2d c1 bd 6b d6 56 3e
       -0.023292093 0.16023847 -0.094326004 0.20980231
0001a0 6e d3 88 bd c1 cf bb bd a4 fe 86 3c cf 1a 00 be
       -0.06680952 -0.09170485 0.016478844 -0.12510227
0001b0 27 14 c1 bd 9f 21 12 3e 01 38 2d be 9d 8a c5 3d
       -0.09427672 0.14270638 -0.16915895 0.09645579
0001c0 89 bc 0a 3e 7b 4e 96 3d 6b a3 80 bc 9a b2 0f 3e
       0.13548483 0.07339188 -0.015702924 0.14032975
0001d0 2d e3 0c be 0e 0c f4 3d e3 08 38 bd 1d af 51 3e
       -0.13758536 0.11916362 -0.04493035 0.20476957
0001e0 c4 cc 2b 3d ec 3f bd bd cf 9a 86 3e 9c 9a b8 bd
       0.041943327 -0.09240708 0.26289985 -0.090138644
0001f0 7a d2 a5 3b 92 a8 c0 bc 4c 16 11 bd 73 d5 95 bd
       0.005060491 -0.02351788 -0.035421655 -0.07316103
000200 6a db 63 bd af 5c aa 3c e9 3a d4 bd 74 4e 27 3e
       -0.05562917 0.020796148 -0.10362799 0.16338521
000210 b5 a8 de 3b af 12 64 bc 3e 54 e9 3c 7b 18 42 bd
       0.006795014 -0.01392047 0.028482553 -0.047386628
000220 90 ea 0b 3c 55 45 16 bd 67 85 40 be 72 4d af bd
       0.008539811 -0.036687214 -0.18800889 -0.085596934
000230 29 90 91 be af 7b 20 be 82 84 82 3e 25 7c 86 be
       -0.28430298 -0.15672182 0.2549172 -0.2626659
000240 8a 33 50 bc 12 4d 4c bd 08 b0 b8 3d 3c eb 13 3e
       -0.0127076 -0.049878187 0.0901795 0.14445204
000250 12 d8 52 be 60 d1 97 3e fe d3 70 3c 39 18 98 3d
       -0.20590237 0.29651928 0.01469898 0.07426495
000260 1b e1 2a be b7 e5 fd bc 5b 3e 16 be 9a f4 26 3e
       -0.16687433 -0.030993326 -0.14672224 0.16304246
000270 c6 a5 e4 3d 54 1f 55 3c 9d d9 14 3e 32 ef 19 be
       0.11164431 0.0130079575 0.14536138 -0.15032652
000280 d0 d0 dd bd b9 ce 0a bc 2e 67 2c bd 81 6a ae bd
       -0.108308434 -0.008472138 -0.042090587 -0.08516408
000290 78 01 33 3e 35 2d 2d bc ab 3f ce bb cd 8b 12 3e
       0.17481029 -0.01056986 -0.006294211 0.14311142
0002a0 a1 56 8c 3c 56 e6 d3 3d 5e 62 a3 3d 6b a0 54 3e
       0.017131152 0.103466675 0.079777464 0.2076432
0002b0 03 50 0a 3d 16 cf e8 3d 0b 04 dc 3d 4c fe 97 3d
       0.03376771 0.113676235 0.10742959 0.0742155
0002c0 f8 84 33 3e d5 33 66 be 6b 8c 18 3e 79 cd 43 3e
       0.17531192 -0.2248071 0.14897315 0.1912135
0002d0 b6 25 f4 bd 46 7f 8a be 04 f2 09 3e 65 1f b3 bd
       -0.11921255 -0.27050227 0.13471228 -0.087462224
0002e0 bc d3 40 3d f0 4e 44 bc 13 51 b3 3c 50 d1 df bd
       0.047076926 -0.011981711 0.021889245 -0.10928595
0002f0 00 8a e8 bc 9f 7b f1 bc 5c b3 f5 3d 5d e3 c1 3d
       -0.028386116 -0.029477892 0.11997101 0.09467194
000300 8c 38 4b bd e2 a8 43 3e e8 90 7c 3d 58 9a ea 3c
       -0.049614474 0.19107392 0.06166163 0.02863805
000310 79 4f 97 3e 2b 05 66 be 46 14 51 be 66 4b 37 be
       0.2955282 -0.22462909 -0.2041789 -0.17899856
000320 0d 25 a7 3d 49 b3 18 be 61 ea 01 be f0 dd 5b be
       0.08161364 -0.14912142 -0.12687065 -0.21471381
000330 b5 39 d4 bd ec 50 73 3e d6 79 95 be 39 70 56 be
       -0.10362569 0.23761338 -0.29194516 -0.20941247
000340 a1 55 90 be d8 39 11 3e b4 23 0f be 00 65 f1 bd
       -0.2819033 0.14182222 -0.13978463 -0.11786842
000350 36 bb 8a bc 81 cb f9 bd fb db a1 3d cc 49 c4 bd
       -0.016934972 -0.121970184 0.07903286 -0.09584388
000360 29 93 45 bd 58 ea 83 3b bb 21 a7 3d 81 6b 2b 3e
       -0.048236046 0.0040257387 0.081607305 0.16740228
000370 88 81 0e 3d a4 5d cc 3c 44 cc 48 be ce 49 69 3d
       0.0347915 0.024946995 -0.19609171 0.05695515
000380 ca 06 a9 bd 8d 37 a9 3d 6b 06 9a 3d d9 45 4f 3d
       -0.08253248 0.082625486 0.075207554 0.05060372
000390 07 23 cb 3d 84 70 06 be 1c 3e b2 bd 16 b5 1d be
       0.0991879 -0.13128859 -0.08703253 -0.1540111
0003a0 1b 9d bf bd fa ab 88 3c ff fb de 3d 91 97 07 be
       -0.09356137 0.016683567 0.10887908 -0.13241412
0003b0 d9 dc 1f bc f0 0d 06 be e8 43 56 be b6 2e 2b be
       -0.009757244 -0.13091254 -0.20924342 -0.16717038
0003c0 6c cb 13 be 39 09 12 3d db ab 29 be a1 b9 a6 bd
       -0.14433068 0.035653327 -0.16569464 -0.08140875
0003d0 96 62 2b be 22 32 bb bd be 17 72 bd 51 ec 51 3e
       -0.16736826 -0.091404215 -0.059104674 0.20500304
0003e0 0e 92 2c be 0c 41 ee bc a3 82 2d be a2 6c 86 3c
       -0.1685259 -0.029083751 -0.16944365 0.016409222
0003f0 b0 50 83 3e fc 18 91 3e 79 30 81 3e 44 df 6b 3d
       0.25647497 0.28339374 0.25232294 0.05758597

bias_ih_l0 f4 [90]
000000 67 fc 52 be c6 d6 95 bd 78 68 5b 3d fe 81 0d be
       -0.20604096 -0.073163554 0.053566426 -0.1381912
000010 18 d1 14 be ef 9f 19 3e 69 34 86 bd 9b 6c fc 3d
       -0.14532888 0.15002416 -0.06552965 0.12325402
000020 4e dc 3e bd 6d 03 e5 3d 21 dd cd bd 31 50 c1 bc
       -0.046596818 0.11182294 -0.100519426 -0.023597809
000030 94 a0 e4 3d 5e aa 56 3e 7d fe a6 3d 3c 6f bc bc
       0.1116344 0.20963427 0.081540085 -0.02300226
000040 74 fb 32 3c 34 28 1a 3e 00 fc 4c 3d 3e a8 15 be
       0.010924209 0.15054399 0.050045013 -0.1461496
000050 a7 75 28 3e 41 5b 1e 3e 85 c9 70 be 53 d8 63 3d
       0.16451131 0.15464498 -0.23514374 0.055626225
000060 f1 a5 9c be d8 60 43 bd 17 2a 69 be 38 7c cb bd
       -0.30595353 -0.04769978 -0.22769962 -0.09935802
000070 b9 09 27 bd 67 50 ce 3c 7f 02 89 3d f3 62 d5 3c
       -0.040780757 0.025184823 0.06689929 0.02604816
000080 e5 e1 40 3d 51 98 24 3e 9b d5 73 3e 6a 7d 3c 3e
       0.04709043 0.16073729 0.23811953 0.18407217
000090 76 5e f8 3d c0 ab b0 3d 06 0b 7e 3d ed bd 5c 3d
       0.12127392 0.08626509 0.06202223 0.053892065
0000a0 57 e9 90 3d a8 ee eb bd ee af 44 3c 49 74 7e be
       0.07075756 -0.115201294 0.0120048355 -0.24849047
0000b0 d8 99 f5 3c 75 df 3f bd 99 d5 17 bd 98 4d ad bd
       0.029980585 -0.046843965 -0.037068937 -0.084620655
0000c0 d1 9f 88 bc 66 df 6c 3d 1b 39 d4 bd 7c dc 0d 3e
       -0.016677769 0.057830237 -0.103624545 0.1385364
0000d0 20 7d 30 bd 8d ef b1 3d a1 cf e0 3d e0 2c da bd
       -0.04308808 0.08688269 0.10977102 -0.106530905
0000e0 03 63 f8 bc ca a7 46 be 94 8b cd bc 3c ff bd 3d
       -0.03032065 -0.19399944 -0.02509097 0.09277198
0000f0 3b de e3 bd d5 55 41 3d 27 c4 9d be be 47 00 3d
       -0.111263715 0.047200996 -0.30813715 0.03131842
000100 49 1e d3 bd f9 04 2d bd 16 c2 9b bd a7 9f a6 bd
       -0.10308511 -0.04224107 -0.07605378 -0.0813592
000110 dd 1f d9 bd eb 7a 78 be 7c 12 1b 3e 03 fd 95 3d
       -0.106017806 -0.2426564 0.1514377 0.07323649
000120 8d b1 a2 bc 3c 3d ce 3d 48 dc 59 3e 18 85 d4 bd
       -0.019860053 0.10070273 0.21275437 -0.10376948
000130 90 80 ac bd 2e fd 51 be b6 7a a2 3c 18 49 7b bd
       -0.08422959 -0.20506737 0.019833904 -0.061349005
000140 ec 53 78 3d dd d9 b7 3d 41 e0 94 3d ad 2d 4f bd
       0.06062691 0.08977101 0.072693355 -0.05058067
000150 ed 99 1c bd 19 60 e9 3d e1 0a 72 3c 28 4c c6 3b
       -0.038232733 0.11395282 0.014773102 0.006051559
000160 4f 0a dc 3a 40 51 20 bd
       0.001678774 -0.039139986

bias_hh_l0 f4 [90]
000000 33 eb 01 be e8 e5 a5 37 2e c6 13 bd ff 58 4a 3c
       -0.12687378 1.9776591e-05 -0.03607767 0.01235032
000010 80 17 5b bd e9 9d 13 be c8 fe 42 be 58 2e 0c be
       -0.05348921 -0.14415707 -0.19042504 -0.13689554
000020 20 85 4a ba 9d 3a 55 be 28 c2 95 bb a8 aa 34 be
       -0.00077255256 -0.2082314 -0.0045702644 -0.17643225
000030 4e 64 42 be c9 35 a6 bd 1a e0 fe bc 2a 87 8d 3d
       -0.18983576 -0.081157275 -0.03111272 0.06910546
000040 bc 99 37 bd fa a6 a9 3d d6 aa ce bd f2 74 20 be
       -0.044824347 0.082838014 -0.10091178 -0.15669611
000050 9d 09 48 3e 94 83 b5 3d c2 41 75 be 53 9f f0 3d
       0.19534917 0.08862987 -0.23950866 0.11749139
000060 59 c6 5a be 65 37 ba be 9b 37 79 bd 49 fd 03 be
       -0.21364726 -0.36370388 -0.060844045 -0.1288959
000070 c4 07 63 3c 0b 74 7c 3d dd 10 4b 3e 59 10 13 3e
       0.013856832 0.061634105 0.19830652 0.14361705
000080 6f ac c2 bc f9 95 94 3d a7 34 30 bd 0e 89 f5 bd
       -0.023763863 0.072551675 -0.043018963 -0.11989032
000090 bb d5 a2 3d 54 b0 81 3d b8 a7 23 be ff 62 96 bd
       0.07950922 0.0633246 -0.15981948 -0.07343101
0000a0 62 5d 03 3e 0f 01 1c be 62 ca 73 bd 4a a6 ab 3c
       0.12828591 -0.15234779 -0.05951918 0.020953316
0000b0 33 0c 17 3e 30 1d 5c be 76 64 e8 3d 77 09 aa 3c
       0.14750747 -0.21495509 0.113472864 0.020756466
0000c0 d6 5e 14 3d a6 75 af bc 42 f4 e7 bb 70 44 1b bd
       0.036223255 -0.021418404 -0.0070786783 -0.037907064
0000d0 0a 5b a2 bd ea b1 91 bd 41 52 b4 3d bb 31 b8 bd
       -0.079275206 -0.071140125 0.08804751 -0.0899386
0000e0 db 2a 21 be 4a d5 ef bc 10 e4 10 be 13 a0 10 be
       -0.15739004 -0.029276509 -0.14149499 -0.14123563
0000f0 7f c3 ad 3d 80 3e 52 3d 11 78 98 bc 63 7c 66 3e
       0.084845535 0.051329136 -0.01861194 0.22508387
000100 9a 0b 08 be 6a 7e db bd b9 cb c7 bd 8b f7 c0 3d
       -0.13285676 -0.10717471 -0.09755654 0.09422215
000110 e9 06 64 be 90 3b 25 3d 5e 90 f8 3d 22 a8 a1 3d
       -0.22268261 0.040340006 0.12136911 0.07893397
000120 6d 66 69 3d 65 57 39 be f7 0e 84 3e 10 b9 28 3e
       0.056982446 -0.18099745 0.25792667 0.16476846
000130 2c 0e 0e 3e 13 7c 8d be a2 8f dc 3d 0d df 5c 3c
       0.13872594 -0.27633724 0.10769583 0.013480914
000140 b5 64 10 be 62 1a 6f 3c 3e d1 85 bd 66 68 7b bd
       -0.14100917 0.0145936925 -0.065340504 -0.06137886
000150 63 68 2c bd 6b a7 d3 3b d5 f4 ac 3d b3 6b c6 3d
       -0.04209174 0.0064591668 0.084451355 0.09688511
000160 26 92 5a bd 0a c4 58 3e
       -0.053362034 0.21168533

weight_ih_l0 f4 [15, 30]
000000 22 3d 3d be 91 4c 1a be c4 dd e4 be ea ba ad 3e
       -0.18480352 -0.1506827 -0.44700444 0.33931667
000010 b7 4d 6c 3e e2 0d ac 3e 12 34 99 be 42 26 ab 3e
       0.23076521 0.33604342 -0.2992254 0.33427626
000020 0a c7 c6 3e 8e 70 81 3e 94 c1 d7 3d 12 0f e4 be
       0.3882373 0.25281185 0.10534969 -0.44542748
000030 ee 0b 34 be 7b 90 83 bd d6 ec b1 3e 54 f1 cb bd
       -0.17582676 -0.06424042 0.34751004 -0.09958139
000040 20 18 6d 3d 86 77 87 3e 87 59 4d 3e be af e3 3e
       0.057884336 0.26458377 0.20053683 0.44470018
000050 50 14 9c be 14 30 76 3e 1e ce b5 be 5e c5 c7 3e
       -0.30484247 0.24041778 -0.35508817 0.39017767
000060 7e 80 8e 3e 1e 22 4e 3d e0 af 9f bc 24 37 34 3e
       0.27832407 0.050325505 -0.019493043 0.1759916
000070 0a 67 bc ba ff 84 05 be 31 fc c0 be f7 3e ea 3d
       -0.001437397 -0.13039015 -0.37692407 0.11437791
000080 ab 39 ab 3e f1 bd 06 be 5b 73 b4 be b2 f0 5c 3e
       0.33442435 -0.13158394 -0.3524426 0.21576193
000090 d4 30 e3 be c2 d8 bb 3d d7 e7 67 3d e8 ea 21 3e
       -0.4437319 0.09172203 0.056617584 0.15812266
0000a0 62 4b 9b bc 82 ab 1d be 23 dc e4 be 6b aa 34 be
       -0.018956844 -0.15397456 -0.446992 -0.17643134
0000b0 78 b5 fb bc 70 d4 9a 3c cb 51 2e 3d 00 d6 b8 3e
       -0.03072618 0.018900126 0.042558473 0.3610077
0000c0 d1 f8 8c be 16 b7 a5 be 70 f8 1e 3e 66 c9 2b 3e
       -0.27533582 -0.32366246 0.15524459 0.16776046
0000d0 8a 56 04 be b4 b6 d0 3e d0 79 0f 3d 5b d2 74 3d
       -0.12923637 0.4076439 0.03502828 0.059770923
0000e0 bc 10 13 be 70 ad ba bc 9f 1a ac bd 61 80 8b 3e
       -0.14361852 -0.02278778 -0.08403515 0.27246383
0000f0 f0 21 0c 3e 88 db b4 3e cf 90 9d be 98 59 7c bc
       0.13684821 0.3532374 -0.30774543 -0.01540222
000100 80 58 62 3e 6f 8b 9c 3e 4c 2a 0c be c8 2e 83 3e
       0.22104073 0.3057513 -0.1368801 0.2562163
000110 ee 7d 93 3e 18 06 e7 bd ca b5 81 3e 18 56 e0 be
       0.28807014 -0.11280459 0.25334007 -0.43815684
000120 35 da 9b 3e 45 22 5c bd d9 f3 c9 3e 24 13 a5 3e
       0.30439916 -0.05374362 0.39443853 0.32241166
000130 24 57 df be 6a 34 b0 be dc fd c6 3e 28 84 27 3e
       -0.4362117 -0.3441499 0.38865554 0.16359007
000140 d2 dd 82 3e 72 35 8b 3e 2a 44 3b be a0 f5 75 3e
       0.2555986 0.27189213 -0.18287721 0.2401948
000150 45 0b af be 1e 99 13 3e ad 6e 76 be 68 b4 b1 3e
       -0.34188285 0.14413878 -0.24065657 0.34707952
000160 28 33 20 3e 5f 2d be 3d 43 1f 83 bd 55 ca f3 bc
       0.15644515 0.092859976 -0.06402447 -0.029759565
000170 d3 bf a3 3e 7f 0b d8 3e a3 be cc 3d 27 2a 9d bc
       0.31982288 0.4219627 0.099972986 -0.019185139
000180 8a 11 de 3e 94 68 64 3e 91 28 8a 3c 80 6c 70 bc
       0.43372756 0.22305518 0.016865047 -0.014674306
000190 66 ff e0 3e b8 5e 9e 3e 02 13 e1 3e 21 c1 e0 3d
       0.43944854 0.3093164 0.43959814 0.109743364
0001a0 f1 85 ee bd 78 0b 64 3e bc dd 9c be 80 f9 a7 3e
       -0.11646641 0.2227 -0.3063792 0.3280754
0001b0 0b f9 ca bd ee 62 b6 be 00 0b 4a bb ad c0 bd 3e
       -0.099107824 -0.35622352 -0.003082931 0.37061062
0001c0 40 44 56 3e dc 15 0e 3e d0 e6 e6 bd 73 14 92 be
       0.20924473 0.13875526 -0.11274493 -0.28531227
0001d0 e0 2f 56 3e b0 31 60 be ae c2 9a be 6c d0 d2 3e
       0.209167 -0.21893954 -0.30226654 0.41174638
0001e0 df 6d 3f 3e c7 c1 16 be 92 60 e2 be 4f 0d 9a 3e
       0.18694256 -0.14722358 -0.44214302 0.3008828
0001f0 64 6d 8c 3e dc c8 b7 be 45 4a aa be 42 9c 19 be
       0.27427208 -0.3589543 -0.33259788 -0.15001014
000200 7e 23 be be 4a d0 1f be fd c2 a0 3e fc 04 fa bd
       -0.37136453 -0.156068 0.31398764 -0.12207982
000210 31 0a ff 3d b7 28 e2 3d 90 9a 91 be e1 c7 a9 be
       0.12453116 0.11042922 -0.28438234 -0.33160308
000220 a5 ce 7e be 00 b3 f2 bb b0 0a 49 3d 14 77 8d 3e
       -0.24883516 -0.0074065924 0.049082458 0.27629912
000230 f6 0e 97 3e 77 57 1c bd d2 6b 88 be 78 92 66 3e
       0.29503602 -0.03816935 -0.2664476 0.22516811
000240 6c 8b 05 be 31 4b 2c 3e 68 45 90 3d b8 7f 61 bd
       -0.13041466 0.16825558 0.07044488 -0.055053443
000250 0c 10 ba bd 11 72 5a bd 21 61 72 3d 87 e3 be 3d
       -0.09085092 -0.05333144 0.05917466 0.09320741
000260 c5 18 c0 be de 72 1f 3e c9 cd 67 be 75 eb 2d bd
       -0.37518898 0.15571162 -0.22637095 -0.042460877
000270 61 ff c2 be 83 38 3e 3e e4 ed be 3c b6 a2 ac 3e
       -0.38085464 0.18576245 0.023306794 0.3371789
000280 45 4e db 3e 43 3c 62 be b4 9e c5 be c6 79 a7 bc
       0.42833152 -0.220933 -0.38597643 -0.020443808
000290 d5 07 6a 3e 50 6d e2 bd 69 d9 af be 28 51 6d 3e
       0.2285455 -0.11056006 -0.34345558 0.2317549
0002a0 5d 3d c1 be 20 31 e1 3d 3c 6b a1 be e2 e6 5c 3d
       -0.3774213 0.10995698 -0.31527126 0.053931125
0002b0 30 8d 28 3e 98 b0 99 3e 7e b6 8d be 78 27 a5 bd
       0.16460109 0.30017543 -0.27678293 -0.08064169
0002c0 3c 41 e0 bd 84 34 81 3e 1e eb 92 be 4f df b1 be
       -0.109499425 0.2523538 -0.28695005 -0.34740683
0002d0 5b 90 d9 3e 81 ac 34 3c 1c 79 cb 3e 07 95 04 3e
       0.42492947 0.011027456 0.39740837 0.12947474
0002e0 61 2b 8e bd dd 3a 51 be 00 9f 00 3e 99 9b ee bd
       -0.069418676 -0.20432611 0.12560654 -0.11650772
0002f0 7c 74 77 3d 57 43 a4 be 0f 04 11 ba 47 95 79 3d
       0.060413823 -0.32082626 -0.0005531916 0.060933378
000300 df 5a 8c 3e 31 4a ab be d1 57 43 be e0 de c5 bd
       0.2741308 -0.3345504 -0.19076468 -0.09661651
000310 a0 c2 9d 3e 78 30 18 be fd bc 88 be 08 4e e2 3d
       0.3081255 -0.1486224 -0.26706687 0.110500395
000320 fa bc 94 be d6 b0 86 3e b4 80 cf bd 28 f8 ca 3e
       -0.29050428 0.2630679 -0.1013197 0.39642453
000330 34 8b 1c be b3 b5 ae bb 08 4b 9b be 14 ec 61 be
       -0.15287477 -0.005331719 -0.30330682 -0.22062713
000340 71 09 d8 be 59 4e 3b be 13 77 af 3e 6c 04 8e 3e
       -0.42194703 -0.18291606 0.34270534 0.2773775
000350 61 9c 3a be 11 41 6a be 9c b0 f3 3d 24 b5 97 3e
       -0.18223716 -0.22876383 0.1189892 0.29630387
000360 7c e2 40 3e 94 87 a6 3e 68 e6 3d 3e b2 ab c1 3e
       0.18836397 0.32525313 0.18544924 0.37826306
000370 95 67 4e 3e 37 fc 2e 3e c7 af bd be 75 e7 e1 be
       0.20156701 0.170884 -0.3704817 -0.441219
000380 15 c7 29 3d c5 8d 60 be 26 ae 72 3e e0 95 8e bd
       0.041449625 -0.21929081 0.23699245 -0.0696218
000390 b7 1a 23 be 8c 07 d0 3e 83 e8 16 3e 34 13 a3 be
       -0.1592816 0.40630758 0.14737134 -0.31850588
0003a0 d1 73 d0 be 56 91 da be 2c 2d 5e 3e c8 0d a2 3e
       -0.4071336 -0.42689008 0.21696919 0.3165114
0003b0 e0 86 cf bd 18 1e 23 3e 2d b8 35 be 1e 08 54 be
       -0.10133147 0.15929449 -0.17746039 -0.20706221
0003c0 3f 4e 09 3e 77 e0 19 3e 1d 42 46 3e 33 a0 d0 3e
       0.13408755 0.15027033 0.19361158 0.40747222
0003d0 0f 39 9e 3e 46 f8 a0 bc 60 c9 70 3d 9d ad 8e 3e
       0.30902907 -0.019649636 0.058785796 0.2786683
0003e0 8e 9b 2d 3e 40 7e 2c be 0c bb 22 bc 20 12 df 3d
       0.1695387 -0.16845036 -0.009932291 0.10892129
0003f0 eb 93 cd 3e 21 17 c3 3d 38 ac 05 be 68 7a 0b 3e
       0.40151915 0.09525896 -0.13053977 0.13620913

weight_hh_l0 f4 [15, 5]
000000 ea 4c a0 3e cf 7d 9a be 3a 59 07 be 80 31 8b 3e
       0.3130868 -0.3017411 -0.13217631 0.27186203
000010 7e ac 84 3e dc f9 bd bd 48 b4 2b bd 56 17 c6 be
       0.2591285 -0.092761725 -0.041919976 -0.3868968
000020 85 f7 b7 be 22 25 99 be 04 04 76 be 78 fa b2 3d
       -0.3593103 -0.29911143 -0.2402497 0.087391794
000030 10 31 4e 3d b0 31 1c be 50 2d da 3e a0 e3 b7 bc
       0.05033976 -0.1525333 0.42612696 -0.022447407
000040 b8 06 a3 be 60 1e 71 3e ba 4c ad 3e a0 f4 71 3c
       -0.31841063 0.23546743 0.338476 0.014767796
000050 98 46 a7 3d 44 de a5 be 50 74 a4 3d 50 c5 91 3e
       0.081677616 -0.32396138 0.08029997 0.2847085
000060 5d 18 67 be d3 9b ce be 19 5c b3 be e4 1f 6d 3e
       -0.22567888 -0.4035326 -0.35031202 0.23156697
000070 da 23 af be ce 7c dd be d4 9d ad 3e 1e 0c 83 3e
       -0.3420704 -0.4325928 0.33909476 0.25595182
000080 c0 e5 9d bc 98 fb 30 3e 10 f2 60 3e 82 4b a8 be
       -0.019274592 0.17283475 0.2196734 -0.32870108
000090 7c 6f 8e 3e a0 02 c7 bd d0 1e a7 3d f6 a3 4e be
       0.2781943 -0.097172976 0.08160174 -0.20179734
0000a0 a7 f1 51 be 54 f2 c5 3e 8f eb 4f be 50 6f 78 3e
       -0.2050234 0.38661444 -0.20304702 0.24261212
0000b0 98 38 67 3e a3 84 9a be 20 88 9d 3d 98 42 d7 be
       0.22580183 -0.3017932 0.076919794 -0.42042994
0000c0 54 05 a3 3e cc 3e ad 3e 38 b6 0e bd a0 31 7a 3d
       0.31840003 0.33836973 -0.034841746 0.061082482
0000d0 e8 32 dd 3d a0 34 96 3d 76 d1 b0 3e 0c e2 3b be
       0.10800725 0.07334256 0.34534806 -0.18347949
0000e0 e0 7c 50 bc 0c bb 40 be 9c b4 1d 3e b0 5a d1 3e
       -0.012725085 -0.18821353 0.15400928 0.40889502
0000f0 a6 c3 b7 3e fc 76 cf 3e c6 74 8a 3e 79 e9 cd be
       0.35891455 0.40520465 0.27042216 -0.40217188
000100 60 d8 9d 3d dc 3d 7f be 08 17 66 3e 1e 41 9b be
       0.07707286 -0.24925941 0.22469723 -0.30323118
000110 14 01 a0 bd 6a d9 cb 3e e0 8e d9 3e 44 e0 bf be
       -0.07812706 0.3981431 0.42491817 -0.3747579
000120 0e ec 8c 3e 74 aa 4e 3e d1 ac 93 be
       0.27523845 0.2018221 -0.28842786

bias_ih_l0 f4 [15]
000000 2c 0c 3b 3e 65 2e 98 be e9 3f 8e 3d c5 96 82 3e
       0.18266362 -0.29722896 0.06945784 0.25505653
000010 40 fc bf be 26 6d 41 be 66 06 a0 3d 5e 61 b2 3e
       -0.3749714 -0.18889293 0.078137204 0.3483991
000020 3d db a3 be 98 60 db be ca e8 3d 3e b2 62 47 be
       -0.32003203 -0.42847133 0.18545833 -0.19471243
000030 ef 4f 9f 3e b8 b5 b2 3d 57 73 fb bd
       0.31115672 0.08726066 -0.12277859

bias_hh_l0 f4 [15]
000000 2e 78 9e bd 94 6e f3 3e 13 d1 a4 3d 9d d3 ad be
       -0.07737766 0.47545302 0.0804769 -0.3395051
000010 c8 4e 65 3d 94 d9 e5 3e a2 16 7c be 37 86 2a be
       0.055983335 0.4489256 -0.24618009 -0.16652761
000020 d9 98 b8 be 76 77 b3 bd 00 af 2b 3d 4b 34 f3 3e
       -0.36054114 -0.0876302 0.04191494 0.47500834
000030 00 0a 98 3e a1 09 2a 3e 1e 0d a8 3e
       0.2969513 0.16605236 0.32822508

weight f4 [8, 150]
000000 5f b2 24 bb f3 0f c7 ba 99 a4 a2 ba 8d c0 b5 bb
       -0.0025130732 -0.0015187248 -0.0012408673 -0.0055466355
000010 a0 7b 46 ba 3d 00 07 bc 6f 05 a7 bc 42 be 1e bb
       -0.0007571522 -0.008239803 -0.020388333 -0.002422229
000020 21 3b 4c bc a5 bc 5e 39 d5 e0 96 3d d8 91 22 bb
       -0.012465269 0.00021241845 0.07367102 -0.0024806168
000030 eb c1 ad 3c fb 81 03 bb b2 b2 08 3b 1a c7 ac 3b
       0.021210631 -0.0020066488 0.0020858464 0.005272758
000040 ff e6 8a bb 22 92 92 bb 6f a1 73 3c 3a f1 d3 3b
       -0.0042389627 -0.004472987 0.014870032 0.0064679654
000050 43 b1 28 3c f5 47 88 3b bd ac 90 bd 7e 5c 85 3c
       0.010296169 0.0041589686 -0.07064197 0.016279455
000060 76 6f 3f bb 6b 2d b4 bb e4 d5 dd 3a 77 99 8f 3c
       -0.0029210723 -0.0054985783 0.0016924706 0.017529232
000070 33 c8 56 bc a1 29 3c 3c 12 ad 64 bc ca 92 42 bb
       -0.013109255 0.0114845345 -0.013957279 -0.0029689544
000080 50 94 66 b9 0a 2d 7f bb 8a b7 bd 3a dd 82 91 bb
       -0.0002198976 -0.0038936757 0.0014474255 -0.004440649
000090 3a 7c 6e bb 96 c0 d8 3b 0a 87 8f bc b0 9f bf bc
       -0.0036389963 0.006614755 -0.017520446 -0.023391575
0000a0 84 ab 64 3b aa 17 7a 3c f1 6a bf ba 4a 5e 46 3a
       0.003489227 0.015264431 -0.0014604015 0.0007567151
0000b0 cb 73 99 bc 82 b0 8e 3b 0b 6b 87 b9 27 7d 95 39
       -0.018731972 0.0043545375 -0.0002582896 0.0002851274
0000c0 94 7a ca bc d9 fa 9e 3c 27 bc 5d 3c 6f 66 6a 3b
       -0.024716653 0.019406723 0.013533629 0.0035766622
0000d0 92 43 3e 3c 93 2f e1 ba b9 72 0a bc 84 95 c1 3c
       0.01161279 -0.0017180316 -0.008450204 0.023630865
0000e0 d3 03 ce 3c 5c 59 d9 3b 47 96 98 ba 80 c2 bb bd
       0.025148308 0.006632967 -0.0011641466 -0.09167957
0000f0 65 ff 97 bb ac 37 42 bc 9e 13 23 3c 41 70 5d bb
       -0.0046385997 -0.0118540935 0.009953408 -0.0033788832
000100 a0 78 d9 3c 40 1f 52 bc 62 cc aa bb fa 46 23 bc
       0.026546776 -0.012824833 -0.0052123526 -0.009965653
000110 80 24 a2 3b fe 19 60 3d 5f 9c 84 bb bb 95 bb 3b
       0.004948199 0.054712288 -0.004046961 0.0057246364
000120 88 30 8d 3b 66 bd 20 bc 15 3b c8 3c 7f 62 04 3c
       0.004308764 -0.009810781 0.024442235 0.008080124
000130 13 6e 6b 3b d7 ad 1b 3c ea 5f cc bb 18 87 8e bd
       0.0035923764 0.009501896 -0.00623702 -0.06959361
000140 04 a8 aa 3b 67 42 c0 3a 39 8b ac ba 2a 13 bd bb
       0.0052080173 0.0014668227 -0.001316405 -0.005770107
000150 ea 5c 99 3c 87 76 81 bc 3e 4c 13 3c 93 47 da 3b
       0.018721063 -0.015803589 0.0089903455 0.0066613643
000160 fd c1 7f bc 68 e6 2b 3d cc 8b 56 bb 25 dc 75 3b
       -0.015610215 0.04196778 -0.0032737134 0.003751525
000170 0a 98 67 3b 5c 59 0d bb cd 16 ff 3b ed e7 1d 3c
       0.0035338425 -0.0021568155 0.0077847005 0.009637815
000180 98 ce f7 3b 95 c6 d7 bb 7c e1 e1 3b 1d dd ca bc
       0.0075624697 -0.006584952 0.006893335 -0.024763638
000190 fd e5 7c bb 21 3c 77 3a 69 0c c5 3b 2c a7 23 bc
       -0.0038589232 0.0009431262 0.0060134423 -0.009988587
0001a0 e0 10 34 bc fb 68 80 bc f8 75 34 3c e3 b5 80 3b
       -0.010990351 -0.015675059 0.011014454 0.0039279326
0001b0 c0 96 94 bc d1 27 69 3b e9 5c 8f bb 26 a7 6a 3c
       -0.01813829 0.003557671 -0.0043750894 0.014322078
0001c0 cf 69 64 39 c2 e4 a6 bc cb fc ba bc 23 94 a4 3c
       0.00021783191 -0.020372752 -0.02282562 0.020090168
0001d0 86 73 14 3c b2 48 41 3b c8 93 c9 3a 27 6a a1 bd
       0.009060746 0.0029492793 0.0015379125 -0.07881575
0001e0 cc 2f 28 bc f3 a6 56 bb 68 4e 34 b7 71 38 36 bc
       -0.010265302 -0.0032753318 -1.0747091e-05 -0.011121855
0001f0 0d ff 15 3d f1 bd 17 bc 6a 38 53 bc dd 97 e8 3b
       0.03662019 -0.009261594 -0.012891868 0.0070981816
000200 04 13 05 3b 53 6c 58 3d d9 5d 78 bc 20 2e 1f bb
       0.0020305524 0.05283768 -0.015159094 -0.0024288967
000210 96 8c 6e 3c 2a 70 a6 bb ff bf 36 3d bb f8 d1 3c
       0.0145598855 -0.005079289 0.044616695 0.0256313
000220 e4 3e 23 3c 74 7d 5e 3c 38 ac a6 3c 6c c2 70 bd
       0.009963725 0.013579715 0.020345792 -0.058779165
000230 10 50 31 bc 42 84 4e bb c7 f2 e8 3a 90 24 45 37
       -0.010822311 -0.0031511937 0.0017772549 1.1750628e-05
000240 a0 c8 b6 3c a8 6d fb 3a 3a d9 72 3b 6a 71 80 bb
       0.022312462 0.001918246 0.0037055747 -0.00391977
000250 03 90 1c 3d 2f 41 82 3d ff a9 db bb f3 28 62 3c
       0.038223278 0.06360089 -0.0067036147 0.013803708
000260 05 59 a7 bc f2 1e ba 3c ed c4 b7 bc 73 98 4b bd
       -0.02042819 0.022719834 -0.022432769 -0.049705934
000270 ec 3b 3f bd ba 2b 8b 3c dc 0a 30 bd a2 52 4c bd
       -0.046688005 0.016988624 -0.042979106 -0.049883492
000280 56 8a 93 3c 3d d2 d4 3b d9 d3 02 bd 90 4b 60 bc
       0.0180103 0.006494789 -0.031940315 -0.0136898905
000290 0f 64 1a 3d ed d3 d2 3c 1a ce 0c bd e3 e7 3d bc
       0.03769308 0.02573582 -0.03437624 -0.011590931
0002a0 42 0b fd 3b 81 17 fa 3b eb b1 8d bc 1a d6 78 bb
       0.0077222893 0.0076321964 -0.017296752 -0.0037969411
0002b0 42 fc 15 3d 81 fa 24 3d 5c dc 5e 3c 23 fd 85 bc
       0.036617525 0.04027796 0.013602342 -0.016356057
0002c0 22 46 95 39 d2 10 fa bb 7e f2 2a bc 37 8f de 3c
       0.00028471748 -0.0076313997 -0.010433791 0.0271679
0002d0 75 65 ee ba 92 95 93 bb b1 ce af 3c 05 d2 e2 3c
       -0.0018188196 -0.004503914 0.021460863 0.027688036
0002e0 61 9f 40 3c a9 51 cb 3b 3c 1b ea 3b e5 80 e6 3b
       0.011756749 0.006204803 0.00714436 0.0070344084
0002f0 27 d3 33 3c 5c 41 14 bd 26 27 b4 3b 31 f3 d8 bc
       0.010975636 -0.036195144 0.005497831 -0.02648315
000300 ff c0 af bb 03 70 4e 3b 4e 0a 80 3c d1 db 90 bc
       -0.005363583 0.003149987 0.015629914 -0.017682942
000310 ec 26 43 bc 35 64 5c 3c 42 24 27 3c 50 8f 63 3d
       -0.011911135 0.013451626 0.010201516 0.055556595
000320 bc e4 14 bb e6 28 39 bc 32 0e dd 3b 12 31 a9 3b
       -0.0022719344 -0.011301255 0.006746077 0.0051633203
000330 37 74 3f bb 7f 85 d0 3c e5 27 4c bc b4 2c 3c bc
       -0.0029213557 0.02545428 -0.0124606835 -0.011485267
000340 38 60 20 bc 12 f9 a5 3a 09 1a 02 3d a1 c8 3a 3c
       -0.009788565 0.001266273 0.03176311 0.011400373
000350 d2 c2 52 3b 74 44 c5 bb af ff 18 bd b7 95 5a bc
       0.003215958 -0.006020123 -0.037353214 -0.013341359
000360 af 45 97 3b 72 50 90 3c 3a c6 89 bc a8 a2 4b 3d
       0.004616461 0.017616484 -0.016818155 0.049715668
000370 11 e0 90 bb e2 5e fd bb 17 49 29 3c e2 ba cf bc
       -0.004421242 -0.007732258 0.010332367 -0.025357667
000380 09 5e d6 3b d7 d6 6e bb 38 06 4a 3c c4 e7 b4 bc
       0.0065419716 -0.0036443972 0.012330584 -0.02208317
000390 3d 22 69 3c ed 50 d2 bc 48 ee 94 bc cd 3f 1f 3c
       0.014229354 -0.025673354 -0.018180028 0.009719801
0003a0 45 01 83 3c 7e 94 c3 bc 2b 67 e0 3c 3e 98 e7 3c
       0.015991816 -0.023874518 0.027392944 0.028270837
0003b0 1f 8b c7 3c a9 fd bb 3b 5f f7 93 bc 9f 06 ba bc
       0.02435833 0.0057370258 -0.018062292 -0.022708235
0003c0 3f 21 86 bc 49 0e 39 3c 2b 94 4f bc c8 6d ca 3b
       -0.016373275 0.01129491 -0.012669603 0.0061776377
0003d0 4a 5a 2d 3c 3e 19 8c 3c b9 39 9f 3b e8 36 ae 39
       0.010580609 0.01710188 0.004859176 0.00033228775
0003e0 1e 8a 15 3b ab 70 14 bd 6d 82 6a bb 9e e3 45 bc
       0.002281792 -0.03624026 -0.0035783306 -0.012078194
0003f0 4c ce 93 3c 7d de 14 3c 33 2e 55 3c 5f c9 ee bc
       0.018042706 0.009086248 0.013011503 -0.029148756

bias f4 [8]
000000 0b 7a 7a 3d 80 0e 4d bc e7 dd b8 3d 16 5e a3 3d
       0.061151545 -0.012515664 0.090266995 0.0797693
000010 ad df da 3c 17 97 1b bd 72 7f e9 3d 88 76 d4 3c
       0.026717985 -0.037985887 0.114012614 0.025935426

weight f4 [1, 24]
000000 bc 71 78 bc 8c 05 49 3d 5f 22 dc 3e d1 f0 89 bd
       -0.015163835 0.049077556 0.42994973 -0.06735385
000010 87 b6 48 3d 26 11 5b 3d 30 0e 9e bd f0 33 71 3d
       0.049002197 0.05348315 -0.0771755 0.058887422
000020 40 94 e6 ba 99 b2 9c 3d 1b 2e 44 be 75 ce 3f be
       -0.0017591789 0.07651252 -0.19158213 -0.18731101
000030 a5 7a 90 3d af 8f 38 3e e3 37 29 3e 7d da 73 3e
       0.070546426 0.18023561 0.16525225 0.23813815
000040 3f 4b 81 3d cc 99 17 be 57 fc 8c 3d 6c e3 e1 bd
       0.0631318 -0.14804763 0.068840675 -0.110297054
000050 ab 5c bf 3d 04 b1 32 bd 69 0e df 3d fd 6e 09 3e
       0.09343847 -0.043625847 0.108914204 0.13421245
