model_files/LSTNET/lstnet_model_hor_12_win_35_skip_12.pt (torch, 39355 bytes, 13 tensors)

weight f4 [30, 1, 6, 8]
00000000: 73f9 0f3e c15e a53d cb7f c0bd 2ee4 123d
00000010: 2d01 2c3d beda 1cbe f4ec 0f3d 491f 7abd
00000020: 58ae 75bd 9dc4 c9bd fd1f b63d 52c2 c03d
00000030: 563e 8fbd 6e79 dc3d fe82 e63c 94c4 fcbd
00000040: ad42 c6bd 5040 1a3e 6378 27be 02f9 ff3c
00000050: c035 093e 3599 e8bd 93e1 df3c a9e3 793d
00000060: 70da 013c cc19 273e 32c7 97bc 69ff 06be
00000070: 78c5 6b3d 9ab3 14bd 8a6a a13d a1dc c6bd
00000080: d6d2 013e dff1 c2bd c249 c0bc 9ab4 18ba
00000090: 4f74 013e d056 f8bd 23c6 61bd cd69 043e
000000a0: 22f3 3ebb 0228 053e 6375 c7bd 2389 783d
000000b0: cd5a c43c c630 88bd bcc5 6fbd 61ef cfbc
000000c0: 04ec d2bd a0c6 b2bd 8439 b83d 9081 f4bd
000000d0: d213 813d ac54 6d3d ba34 a43d 8463 0abe
000000e0: 0e1a a23d a0b9 47bc d0dd 49bd 40ba 633b
000000f0: 713a 8ebd 706c df3d 6052 2abd 6033 0c3d
00000100: 369d 0d3e fb86 adbd 625e 83bd 179c adbd
00000110: 3005 513d e5f2 bfbd da22 92bd 84a0 d2bc
00000120: aead f5bd a89d c43d ca1a d13d ac7d dc3d
00000130: 688c c43c 125e 103e b0f2 63bc 56ab c7bd
00000140: 8085 f4bb a058 61bc 6852 b6bc fa1a f8bd
00000150: d2b1 15bd 34bd 03be 0070 dd3c c2e9 9bbd
00000160: 8881 743d 40bb 713b 5861 c9bd 8877 b2bd
00000170: 2fb6 b5bd 34e9 ff3d cf4b 06be a422 99bd
00000180: e026 d3bd 9237 9fbc abac ccbc 8fe9 4f3d
00000190: 63a8 c83e 41f7 403e 5314 b0bd ea6a dfbd
000001a0: 8108 633d a7cb 4e3d 1ec2 87be e947 d7bd
000001b0: 0baf bf3d 773c 113e a95b 143e 20f6 46bd
000001c0: b20f b2bb bfc0 cbbc e927 90be d578 edbd
000001d0: 5835 d2bc 9248 ae3e 4b8a 4bbc 1c1a 10be
000001e0: 9869 333d ff7f 8e3d 71c2 f2bd 588f e33b
000001f0: ecbb 6fbe 7a22 f739 9d5b d3bd 9727 f13d
00000200: 0afe 333d 35d2 583c 5f0a 68be 69e4 de3c
00000210: a7c8 9dbe 687c 743d f23c 233d 6743 f73c
00000220: eeb8 1abd 99ee e7bd 0950 95be 3eea 0ebe
00000230: 39d9 8dbe d533 86be 4f83 073e 2e36 f53d
00000240: efd6 2c3d 1e75 a63c 9a48 10be 82bf 1abe
00000250: 0d7b 65bd e804 06be c87b 8f3d e609 d63d
00000260: de5e f8bb dde9 bdbd ba08 21bc 5c1e 4d3d
00000270: 2340 fc3b 612f 033e 07f9 063d cbe9 00be
00000280: 1836 c03d cba1 0ebe a48d 083d 70b9 1b3d
00000290: e9f8 b4bd 0d71 e93c 5a97 05be befa 8fbd
000002a0: 8a0d 533d fd37 033d 95c2 fabc 6c8b 823d
000002b0: 53eb 97bd 120a b13b 22a7 d63d 9d21 953c
000002c0: feee 5ebd 005f 073d 2649 763d e2bd ae3d
000002d0: 3439 8f3d 74a9 413d 7b59 debd af07 71bd
000002e0: 2709 ca3c 5e37 cf3d 699d 8fbc d4d8 893c
000002f0: 0e54 08be 25b9 d4bc 6b15 1e3d eb15 bbbc
00000300: 0436 1bbe 5a30 b9bd d353 873d db44 a8bd
00000310: 304e d03d 5825 20be 713b 40bd 51e2 c5bd
00000320: 5d51 bbbd d9b2 133c 5185 aebd ede9 1ebe
00000330: 69f1 1f3d c469 77be b3d4 963d 21e0 493d
00000340: 71f3 b7bd 94f1 ab3a 8851 9bbd dd7b 653c
00000350: ae25 733d b3c0 00bd dfae e0bd d7ec cd3d
00000360: 3aab 34bc 3e04 723d c64b edbc 0e9a 883c
00000370: cec2 343e ac57 fdbd e64e 783d 8dfd febc
00000380: 6558 843d f5e3 893d 66ef 633d 08f8 2ebe
00000390: 99d9 623e d9eb fb3d 3431 253d 38fb 073d
000003a0: d184 53bd 6bb4 45bd 9664 0ebd d377 a03d
000003b0: fe95 393e fd68 373e e91f 28be 7258 b23d
000003c0: 865a 51bd 80a3 43bc 8a5c f4bd d0b9 d33d
000003d0: 6443 113e bc1f 9e3d 7cf6 3cbd df0c fabd
000003e0: ee08 853d b067 af3d ac23 01be 28e9 a23d
000003f0: 8c4e a8bd 0252 a9bd f7d7 12be 160d 873d
0.14060001 0.080747135 -0.093993746 0.03586214 0.04199331 -0.15317819 0.035138085 -0.061064992
-0.05998072 -0.09851954 0.0889282 0.09412064 -0.069943115 0.107653484 0.028138634 -0.12342182
-0.09680686 0.15063596 -0.16354518 0.031246666 0.1339941 -0.11357347 0.027329242 0.06100813
0.007925615 0.16318434 -0.0185276 -0.13183369 0.057561368 -0.036304094 0.07881649 -0.097100504
0.12678084 -0.095187895 -0.02347267 -0.00058252516 0.12642024 -0.12125933 -0.0551206 0.12930985
-0.0029136618 0.13003543 -0.097391866 0.06067766 0.023969078 -0.06649928 -0.058538184 -0.0253827
-0.10298923 -0.08729291 0.08995345 -0.119387746 0.063026085 0.057942078 0.08017869 -0.13514525
0.07915126 -0.012190253 -0.049283803 0.0034748465 -0.069447406 0.10909355 -0.041582465 0.034228683
0.13829502 -0.08473011 -0.064144865 -0.084770374 0.051030338 -0.093725 -0.07135554 -0.025711305
-0.119960174 0.09600383 0.10210188 0.107661575 0.023992732 0.14098385 -0.013912842 -0.097494766
-0.0074622035 -0.01375404 -0.022256091 -0.1211452 -0.036546536 -0.12865144 0.027030945 -0.07612945
0.059693843 0.0036885291 -0.0983302 -0.08714205 -0.088726394 0.12495652 -0.13114856 -0.0747731
-0.10310149 -0.019435678 -0.024984678 0.05075985 0.3919097 0.1884432 -0.085976265 -0.10909064
0.05542803 0.050487187 -0.26515287 -0.10511763 0.09359559 0.14183222 0.1448809 -0.048574567
-0.005434 -0.024872182 -0.2815545 -0.115953125 -0.025660202 0.34039742 -0.012423108 -0.1407246
0.043801874 0.06958007 -0.11853493 0.006944578 -0.2341153 0.00047137198 -0.10320208 0.11775129
0.043943442 0.013233711 -0.22660206 0.027208524 -0.30817148 0.059688956 0.039853044 0.030183507
-0.03777402 -0.11324806 -0.29162624 -0.13956544 -0.2770479 -0.2621142 0.13233684 0.119732246
0.042197164 0.020319518 -0.14090195 -0.15112117 -0.056025553 -0.13087809 0.07006031 0.10451107
-0.0075796684 -0.092731215 -0.009828741 0.05007778 0.0076980754 0.12811042 0.032952335 -0.12589185
0.093853176 -0.13928907 0.033338204 0.038018644 -0.08836538 0.02849629 -0.13046017 -0.07030247
0.051526584 0.032035816 -0.030610362 0.06374249 -0.074179314 0.005402812 0.10481097 0.018204505
-0.05442714 0.033049583 0.060128354 0.08532311 0.069933325 0.047280744 -0.10856911 -0.05884522
0.024662567 0.10117982 -0.017531114 0.016827025 -0.13313314 -0.02596719 0.038594645 -0.0228376
-0.15157324 -0.090424255 0.06607785 -0.08216258 0.10171163 -0.15639246 -0.046931688 -0.09662307
-0.09146378 0.009014809 -0.08521522 -0.15518923 0.039048586 -0.2416144 0.07364788 0.04928601
-0.0898198 0.001311826 -0.0758391 0.014006582 0.059362106 -0.031433772 -0.10970854 0.10054939
-0.011027152 0.059086077 -0.028966796 0.016675021 0.17652437 -0.12370238 0.06062212 -0.031126762
0.064621724 0.067329325 0.05564823 -0.17086804 0.2215332 0.12300844 0.040330127 0.033198565
-0.051640335 -0.048267763 -0.034763895 0.07835355 0.18123624 0.17911144 -0.16418423 0.08708276
-0.05111172 -0.011940837 -0.11931713 0.10338175 0.14185864 0.077208966 -0.046133503 -0.12209486
0.06495844 0.08564699 -0.12611264 0.07954627 -0.082181066 -0.08267595 -0.14340197 0.06594293

bias f4 [30]
00000000: a53b d9bd 805a 5f3d 40b9 2fbe 5f14 9c3c
00000010: 25df 383d bab0 053e dfe3 22bd debc 1fbd
00000020: ee0a 54bc ebe0 733d 6cce 53bd f1e5 d13d
00000030: b99b 80bd e01a 38bc 00c8 b5b9 f5ff d13d
00000040: 572d 933d e5fd 92bd 1518 983c d002 243d
00000050: a728 d73d 805c 0b3e 00ba 59bc d399 bcbd
00000060: ba60 c93d 4478 703d a457 07be b4d2 b4bd
00000070: b1ab e43c 014d a8bd
-0.106070794 0.054529667 -0.17160511 0.019052682 0.045134682 0.13055697 -0.039768096 -0.038998477
-0.012942059 0.05954067 -0.05171053 0.10248936 -0.06279702 -0.011236876 -0.00034672022 0.10253898
0.07186382 -0.07177333 0.01856617 0.040041745 0.10505801 0.13609505 -0.013288975 -0.09209027
0.09832902 0.058708444 -0.13217026 -0.08829251 0.0279139 -0.08217812

weight_ih_l0 f4 [90, 30]
00000000: 20dc 653c 3ee6 06be 9173 bc3c 2667 f8bd
00000010: f32c 893d 08b3 de3d 6ae7 29be 8abd 99bd
00000020: 135b b33d d41d 1dbe 4cbc 1c3e cc64 4fbe
00000030: 0b21 17be 4ad8 0b3e 198f 02be e7e3 abbd
00000040: 0340 0fbe 6c5f ea3d d0e9 203e 5aad 323e
00000050: 68db 13be 34c8 9d3d 04e6 12bd 6e8d 99bd
00000060: d839 aabd a261 233e 9065 a53c c3c3 33be
00000070: 18ff bb3d b6e0 e3bb d86c d03c 24da 143e
00000080: 98fb 3c3e fada 203e 9361 bbbd 84c1 a63d
00000090: 4c78 b3bd 0026 f7bb 3652 753d 9b1f 3abe
000000a0: 0a0d 9e3d 514b bbbc aabb d0bd 7431 60bd
000000b0: 188d 893d d7cb e23d 8eea f6bd 5968 343e
000000c0: 6fdf 213c 3efb 30be 484a 223e 786a 423d
000000d0: d0c0 343d 73d9 cf3c bd5f f73d 80cc 87bc
000000e0: ca63 2f3e e71f 01bd a650 2a3e a08d 47bd
000000f0: 3a41 063e c484 74bd 22ee 3ebe 29c4 22be
00000100: ee68 ec3c 9cc8 133d dda7 113d cee1 243e
00000110: c893 923d a0d4 ff3d 10dd 2fbe 3bc4 1dbe
00000120: b3a3 0dbe c889 0a3d 68e1 eb3d f249 d73d
00000130: 0d0e 24bd aaa5 ec3d 1ed6 943d 1bcc c5bd
00000140: 6d9c 953c e0a0 eb3c 247e 5c3d 7a46 b2bd
00000150: 2c8b 393d dcee 873d e45e f63d 398d 463d
00000160: 1720 f83d b215 d0bc 9350 f33d 78d3 e33c
00000170: e1a3 963d e094 37be fa91 a4bc 0094 f9b9
00000180: 1e5d 7ebd c8db 073e 85ec 6ebd b8dc 12be
00000190: 0b61 f7bd 2c13 91bd 42bc 52be 1cf5 8ebd
000001a0: fd7a 33be 4490 033e b3bd c33d d585 da3d
000001b0: 29b8 373c fcf8 68bd d10e 7abd bc44 b63d
000001c0: 785e 8c3c efb5 2ebe 9d7a e4bd aac0 1c3e
000001d0: 0cff 8ebd f1dc f7bd 3893 f1bd 5032 1c3e
000001e0: 7afe adbd 4af5 94bd 9847 f1bc 7e23 2f3e
000001f0: f7e3 6a3e 1051 1dbc 0f9f 67bd 5031 febc
00000200: 36ee 47bd a6c5 003d 21e1 8bbd 7ad7 8b3d
00000210: 4fb5 b8ba af78 c2bd 2434 c43d deec 643d
00000220: ec8f f7bd 5a2d d83d 9624 9e3d 34aa e73d
00000230: 60dd b23d fca1 5e3d 0426 04bd 36d4 2a3d
00000240: 3209 4b3d 168c 1c3e d417 70bd 5515 033e
00000250: 8d53 3bbc e2a5 98bd f3a0 c5bd 6eed 873d
00000260: 6e9e 7a3b c326 2abe c199 eb3c bafc 263e
00000270: 5798 5f3d 13d7 80bd c197 07be bf6d 0e3e
00000280: 9c68 653d ca3a 3c3e 7d7e 013e 4ef3 e6bd
00000290: 7479 04bd 0521 d33d a707 32bd cbc1 fd3d
000002a0: 5817 013b a4c7 383e 88d6 1ebe b0ad 2b3e
000002b0: 2ed9 a4bd 3f08 b53c 5f72 babc 8a70 283e
000002c0: c40f 9f3d fd96 f8bd e967 09be b461 153e
000002d0: a7ae 1ebd 5711 d5bd 8506 07be 2c69 193e
000002e0: 4379 933d 000e f0b9 38be 54bd 585c 18bd
000002f0: afb8 103e b27a b9bd 3c5b d53d 9697 063e
00000300: d4de 073e 8553 f8bd 824e c2bd ab2b 103e
00000310: ba0b ac3d 5caf 353e 7457 3a3e a160 bfbd
00000320: 49c8 103d a42f 6fbd 9ca9 bf3d b80e 493d
00000330: 7c3d 2fbe fa04 893d fe8b cdbd 686d 39be
00000340: 76c9 2c3e 4568 253d dc0e c0bd de86 83bd
00000350: 57f2 73be c883 1e3e 2343 9a3c 3de8 a0bd
00000360: 01b5 703d 3a4d 38be f5d6 f13d 40b6 8c3c
00000370: 88e4 2b3d d3bc a0bd 3ed1 353d b048 d0bc
00000380: 9f21 b5bd acd6 873d d4f2 063d 5a58 ce3d
00000390: 1dd7 11bd e018 6abd cda7 c33d c035 81bc
000003a0: a2c8 31be 10d4 673d aa6c aabd fe9e 1abe
000003b0: 800c 26bc 1107 d43c 54c2 80bd 4490 49bc
000003c0: bbab 1dbe 3cc1 09be 065d bf3d 2f8a 103e
000003d0: 7fc1 733d a0cf d23b 38ec 35be f158 22be
000003e0: 9ec4 c33d 00ca 6b3a 257a 22bd 58b5 433e
000003f0: 64c0 17bd 1ae9 f3bd a1d9 83bd fe14 1bbe
0.014029533 -0.13173768 0.023004325 -0.12129049 0.066980265 0.10873991 -0.16592184 -0.07506855
0.087576054 -0.1534341 0.15306205 -0.20253295 -0.14758699 0.13656726 -0.127499 -0.08393078
-0.13989262 0.114439815 0.15714192 0.17448941 -0.14439166 0.07704201 -0.03586389 -0.07497679
-0.08311814 0.15955213 0.02019003 -0.17555146 0.09179515 -0.006954278 0.025442526 0.14536339
0.1845535 0.15708533 -0.0914947 0.08142379 -0.08763179 -0.0075423717 0.059892856 -0.18176119
0.07717331 -0.022863062 -0.10192044 -0.054734662 0.067163646 0.110740356 -0.120564565 0.1761793
0.009879931 -0.17283341 0.15848649 0.047464818 0.044129193 0.025372243 0.120788075 -0.016577005
0.1712791 -0.031524565 0.16632327 -0.04871905 0.1311082 -0.059696928 -0.18645528 -0.15895142
0.028858628 0.036079988 0.035560478 0.16101763 0.07157093 0.12491727 -0.17174172 -0.15406887
-0.13831978 0.033822805 0.11517602 0.10512151 -0.040052462 0.115550354 0.07267402 -0.09658071
0.018263066 0.028763235 0.053831235 -0.087048486 0.04529874 0.06637356 0.12029818 0.048474524
0.12115496 -0.02540097 0.11880603 0.027810797 0.07355476 -0.17927885 -0.020089138 -0.0004760325
-0.062100522 0.13267434 -0.05833103 -0.1434201 -0.12079056 -0.07083735 -0.20579627 -0.06980345
-0.17527385 0.12848002 0.09557667 0.10670058 0.011213341 -0.056878075 -0.061049286 0.08899829
0.01713489 -0.1706159 -0.11156199 0.1530787 -0.0698224 -0.12102688 -0.11795658 0.15253568
-0.08495803 -0.07273348 -0.029453084 0.17103383 0.22938524 -0.009601846 -0.056548174 -0.031029373
-0.04881116 0.031438492 -0.06830049 0.06828208 -0.001409212 -0.09495675 0.095802575 0.055889957
-0.12087998 0.10555525 0.07721822 0.113117605 0.0873363 0.0543537 -0.032262817 0.041706286
0.049569316 0.15287814 -0.058616474 0.12801106 -0.011433494 -0.07453515 -0.09649839 0.06637083
0.0038241404 -0.16616349 0.028759839 0.16307345 0.054588642 -0.06291022 -0.13241483 0.13909052
0.056007966 0.18381801 0.12645908 -0.112768754 -0.03234239 0.10309032 -0.04346433 0.12390479
0.0019697752 0.18044907 -0.15511525 0.16765475 -0.08049236 0.022098659 -0.022759615 0.1644918
0.07766679 -0.12138174 -0.13418545 0.14588052 -0.03874078 -0.10403698 -0.13186081 0.14981526
0.07200863 -0.00045786798 -0.05193922 -0.03719744 0.14132951 -0.090566054 0.10417792 0.13143763
0.13268596 -0.12125305 -0.094876304 0.14079158 0.08400674 0.17742676 0.18197423 -0.093446024
0.035347257 -0.058395043 0.09358522 0.049086303 -0.17113298 0.06690402 -0.10036467 -0.18108141
0.16873726 0.040382642 -0.09377834 -0.06422208 -0.23822914 0.15479958 0.018830841 -0.07856796
0.05876637 -0.1799821 0.11808578 0.017176747 0.04196599 -0.07848515 0.044389002 -0.025425285
-0.08844303 0.06632742 0.032946423 0.100754455 -0.03560554 -0.05715263 0.0955349 -0.0157727
-0.17361692 0.056598723 -0.08321507 -0.15099713 -0.010134816 0.025882276 -0.06287065 -0.012302462
-0.15397541 -0.1345262 0.09343915 0.14115213 0.059510704 0.0064334422 -0.17765892 -0.15854241
0.09558986 0.0008994639 -0.039667267 0.19112146 -0.037048712 -0.11909695 -0.06437994 -0.15144727

weight_hh_l0 f4 [90, 30]
00000000: fb90 b93d b45d 1d3e ea4e 59be 78df a0bd
00000010: 7900 4bbe fee4 083d 7488 eabb 2f11 ffbd
00000020: 4eaf 4f3e d069 f63d e637 11bd c1b8 e73a
00000030: 9885 1fbe 967a 423e 7dfe 00be 4bc3 2bbd
00000040: 8c8e 163c 964b 30be 62ad 373d d05f a7bd
00000050: f211 ad3b 9d0b 05be 8e6d 0f3e 7069 b23d
00000060: daf1 d8bd 9860 5d3e 90d5 eabd ef75 49be
00000070: fcb6 043d c733 a73c 34a1 6d3c 9438 94bd
00000080: f4f5 0c3e 3342 2ebe bed7 a43d ac82 943c
00000090: 8294 093e 9bee d83c a25a 553d 51f2 e4bd
000000a0: 778a b4bd f371 1ebe d204 333e 9d4f 3fbe
000000b0: c4dc a0bd 6f67 9bbd cd4d 06bd 9d40 abbc
000000c0: cfe2 fb3d 319e 453e 7f75 4a3d 6ba9 edbc
000000d0: 3acf 353c df3e 0c3e 5f24 b4bd 0131 323e
000000e0: 441e 06bd df42 063b 1f75 d83d f23e 493e
000000f0: d765 1d3e 6534 923d 0bb8 e3bd 2796 41bd
00000100: e6dc 963d 135b 2bbe 2bb2 0fbe 2958 0dbe
00000110: 269e 36bd 3297 333d 230b f5bd c87b 0e3e
00000120: 9d20 00be f7ad 2a3e 2181 fd3d 5251 283e
00000130: b750 a2bc 3546 87bd 8cae 86bc 3d44 c73d
00000140: ec2d a2bd 2a32 28be 8724 5fbd 6146 3bbd
00000150: 62ad 203d 2ebc 60bb d953 0bbe a102 323e
00000160: b22e fbbc d704 4a3d 85d9 c63d ea5a 76bd
00000170: a68c 283e a253 4bbd 0e85 3d3e 9140 d63d
00000180: 9f0d 403d 0080 4cbe d1ad 15bd 508a 9dbc
00000190: d2d3 673d ac8d 57be c6d0 b23d c236 7ebe
000001a0: 7bf3 2d3e 5833 023e a253 c43c 4a3f 213e
000001b0: f967 4e3e 5a18 25be 3db3 963d 511f e43c
000001c0: dce5 82bd 762f 71bd 166d a8bd 2507 11be
000001d0: 6d2b 783e 4c53 873d 46a3 80bc e945 1d3e
000001e0: e7e5 553d 3c02 c3bd 03d1 d03d c561 6bbd
000001f0: 642b 04be 6081 43be 0f64 323d 974b 6c3d
00000200: d8ba 05be c03f c1bd 21fd 0abd 5775 16be
00000210: 30ac f2bc 11db 1c3e 6900 b53d 95cc ee3b
00000220: 25bc a6bd 2414 30be a668 b53d 8d26 1fbd
00000230: 8a1e 03be a8c6 823d 9e31 813c 9a0b 843c
00000240: 9502 20be e6c0 1bbe 5446 20be 7554 66bd
00000250: 1a28 22be 866f 003e 6442 083e 8bc6 a3bd
00000260: ff63 0f3e 9416 c5bc 9ee1 37be 00b5 593e
00000270: 2ae5 803e fe77 6ebd 0a9f 4bba 797e 603e
00000280: 3ac2 a73d fd0a 78bd 66c6 c43d cd81 df3d
00000290: 5f03 143d 0d57 b23d e33e b13d 4f53 8abd
000002a0: 16a1 0a3d 093b 5dbe 8217 a4bc 998b 8e3d
000002b0: 179b b4bd 04a3 853d db68 0e3d 5ade cfbd
000002c0: 9001 80bb 7f5f 353e 491a 5f3d 6fa1 e6bc
000002d0: b082 f7bd 0fa2 f13d 852b 5bbe 6989 c4bd
000002e0: 580b e6bd 08e9 d83d 8e0f f03d 48be 173e
000002f0: a71a 3a3d 23df 94bd 9eb0 2dbe e0de c53d
00000300: 843b 693d 1276 fe3c e64e c1bc 724c 98bd
00000310: 9c21 2d3e 6421 35be 6280 483d 70bf bfbd
00000320: 7270 083e ea71 c9bd 3f8d 093e 8e9c ccbd
00000330: b5b1 d23d 4df2 193d 44f9 2cbd c477 883c
00000340: fbec b5bd 0649 2cbe 2c51 0dbd 9bf0 443c
00000350: 5a50 783d 2c6a 1ebe 6e39 87bc 9a67 f03d
00000360: 70ea 1bbe d0a3 cabd f9f9 54bd 99dd a7bd
00000370: 95f2 e13d 136b e93c e901 13be 681f f6bd
00000380: 811d 10be 1b1f 4ebc 4132 303d 2057 00bb
00000390: fd8f 683d 1a87 e3bd 4f12 243e 1ab6 96bc
000003a0: 52ad 3abd 7b48 2d3d b502 503d 8c66 c5bd
000003b0: 74d8 543c e754 513e 6d04 4e3d 92ce 073e
000003c0: 882f 343e 1031 d5bd 703b 423d 2af9 db3d
000003d0: bcd3 47be 1820 92bd 5686 7d3d 0259 66bd
000003e0: 13d9 533e 3e1e c8bd 7cc2 dfbc 4c26 d7bd
000003f0: a195 5f3b 3adf 6b3e 9142 ca3c 1884 b73d
0.09060856 0.15367776 -0.2122151 -0.07855123 -0.19824399 0.03342151 -0.0071573798 -0.124544494
0.20281717 0.12031901 -0.0354537 0.0017678962 -0.15578306 0.18992075 -0.1259708 -0.041934293
0.009189259 -0.17216334 0.044843085 -0.08172572 0.0052816803 -0.12992711 0.14006636 0.08711517
-0.105930045 0.21618879 -0.11466515 -0.19673894 0.03240107 0.020410432 0.014503766 -0.07237354
0.13765699 -0.1701744 0.08048962 0.018128715 0.13435557 0.026480963 0.052088387 -0.11179031
-0.088154726 -0.15473156 0.17482308 -0.18682714 -0.07854608 -0.07588088 -0.03278904 -0.020904833
0.1229912 0.19298626 0.04942846 -0.029011449 0.01109677 0.13695858 -0.08796 0.17401506
-0.032743707 0.0020486636 0.10569214 0.19652918 0.1537088 0.071389 -0.11119088 -0.047262337
0.07366352 -0.16733961 -0.1403281 -0.13803162 -0.044584416 0.043845363 -0.11965015 0.13914406
-0.12512441 0.16667925 0.12378145 0.16437271 -0.019813878 -0.06605188 -0.016440652 0.09729812
-0.07918915 -0.16425386 -0.054478195 -0.045721415 0.03922785 -0.0034291851 -0.13606204 0.17383815
-0.030661914 0.049321022 0.09709457 -0.060145296 0.16459903 -0.049640305 0.18507788 0.10461534
0.04688799 -0.19970703 -0.036542717 -0.019230992 0.056598492 -0.21050137 0.087312266 -0.24825576
0.16987412 0.12714899 0.02396566 0.15746799 0.2015685 -0.1612257 0.07358406 0.027846964
-0.063914984 -0.058883153 -0.082239315 -0.14162882 0.24235316 0.066076845 -0.015702855 0.153587
0.052221205 -0.095219105 0.10196116 -0.057466287 -0.12907177 -0.19092321 0.043552455 0.057689276
-0.13059556 -0.094359875 -0.03393281 -0.14693199 -0.029623121 0.15317942 0.08837969 0.0072875717
-0.081413545 -0.17195183 0.08857851 -0.038855124 -0.12804618 0.06385547 0.01577073 0.016118813
-0.15625985 -0.15210304 -0.15651828 -0.05623289 -0.1583561 0.12542543 0.13306576 -0.079968534
0.14002989 -0.024058618 -0.1795716 0.21260452 0.25174838 -0.058219902 -0.0007767534 0.21923245
0.08191343 -0.060557354 0.09608154 0.109134294 0.036136027 0.0870801 0.08654573 -0.06754171
0.03384503 -0.21604551 -0.02003074 0.0696022 -0.088186435 0.065252334 0.034767967 -0.10149832
-0.0039064363 0.1771221 0.054468427 -0.02815315 -0.120854735 0.11798488 -0.2140332 -0.095965214
-0.112326324 0.10591322 0.11721717 0.1481868 0.045435574 -0.072691225 -0.16961905 0.09661651
0.056941524 0.03106216 -0.023597192 -0.07436456 0.16907352 -0.17688519 0.04895056 -0.09362686
0.13324144 -0.098361805 0.13432787 -0.09990798 0.10287801 0.03758459 -0.042229906 0.016658671
-0.08883091 -0.16824731 -0.03450124 0.012020255 0.060623504 -0.15470189 -0.016506877 0.117385104
-0.1522615 -0.09894526 -0.051996205 -0.08196563 0.11032597 0.02849344 -0.14356197 -0.12017709
-0.14073755 -0.012580658 0.043016676 -0.001958318 0.056777943 -0.11109753 0.16022609 -0.01839738
-0.045575447 0.04230545 0.05078383 -0.096387 0.01299106 0.20442544 0.05029719 0.13262394
0.17596257 -0.104097486 0.047419965 0.10740884 -0.19514364 -0.07135028 0.06189569 -0.05623723
0.20688276 -0.09771393 -0.027314417 -0.105053514 0.0034116285 0.23034373 0.024689944 0.08960742

bias_ih_l0 f4 [90]
00000000: 400e 06bb 28b9 3bbd ca75 933d da60 0b3e
00000010: 2c6c 55bd 2cdc 50be 0a45 0abe 7590 ba3d
00000020: 209b 67be 577f 173e 0710 22bb 6cb0 a0bd
00000030: 7edc 993b 8f0f 473e 64a5 d93d e155 733c
00000040: f010 e0bd 9b14 013d 9da3 0bbe 357c d1bd
00000050: 9796 8a3d eec7 cc3d 1bba e1bc 30f1 93bd
00000060: 4846 3a3d 1d70 383d 2413 ecbd 6b9d 05be
00000070: 5df5 813e 56c3 08be 5abb 7ebd 1e8c 5e3c
00000080: a222 c33c d816 263e 9d69 883d 41c0 64bd
00000090: 40e5 cdbd e48f c53c 2e2c 00b9 450a 1f3d
000000a0: aabd abbd b35f 96bb 8840 ad3d 5230 fc3d
000000b0: a43f 913d e4b5 25bd ef30 813c fcec 513d
000000c0: ace8 fc3d 87ec 7bbd 6636 173e 8eba 8abe
000000d0: 4cc5 9e3d 2e05 fabc 51e4 193d 8d1f 663e
000000e0: f79f 103d 6042 d63d fea7 13bd f09f 0b3e
000000f0: cde2 9bbd cd61 19be bdd1 a4bd 944f b13c
00000100: 7914 b7ba 3ae3 5f3d 210d 19be f087 e83c
00000110: 4cde 533b 0c1e cfbd a6d9 1f3e 230d 0a3e
00000120: d83d ff3d 4c5d 2abd 2b46 d0bd d6ce 2e3e
00000130: 4345 2ebe 6a5c 0a3e ab33 ba3d 8617 93bd
00000140: 6f21 b8bc 98b8 81bd 26a8 eabd 5e94 87bd
00000150: 02d4 953c d8f7 86bd 2891 e5bd 1d0c 343e
00000160: 98d3 183e e4ea 43bc
-0.002045527 -0.045830876 0.07200201 0.13611165 -0.052105114 -0.20396489 -0.13502899 0.09109584
-0.22617769 0.1479467 -0.0024728791 -0.0784615 0.004695474 0.19439529 0.10627249 0.014852018
-0.109407306 0.03151379 -0.13636632 -0.10228769 0.06767004 0.09999071 -0.027554562 -0.07223737
0.04547718 0.045028795 -0.11527088 -0.13048331 0.2538251 -0.13355765 -0.06219039 0.013583211
0.023820225 0.16219652 0.06660769 -0.05584741 -0.100534916 0.024116464 -0.0001222349 0.038828153
-0.08385785 -0.004589045 0.08459574 0.12313904 0.070922166 -0.040456668 0.015770404 0.051251397
0.12349066 -0.061504867 0.14766845 -0.27095455 0.07752475 -0.030520048 0.037571255 0.22472973
0.035308804 0.10461879 -0.03604888 0.1363523 -0.07611618 -0.14978714 -0.08047817 0.021644391
-0.0013967893 0.05466006 -0.14946415 0.028385133 0.0032328544 -0.10113153 0.1561037 0.13481574
0.12462968 -0.04159288 -0.101696335 0.17071089 -0.17018609 0.13511816 0.09091886 -0.07182221
-0.02247688 -0.063340366 -0.11457853 -0.06620096 0.01828957 -0.06590241 -0.11209327 0.17582746
0.14924467 -0.011957858

bias_hh_l0 f4 [90]
00000000: 0f23 d13b e731 cf3c aa35 f4bd 3747 003e
00000010: 9dc1 8dbd 5b6e 403d 8588 853d 3db8 533e
00000020: df66 d63d 67ea 5e3e 9e0d 643e a00b 183e
00000030: 38e0 463e fd42 0f3e 6153 55be 0fee be3c
00000040: 24ba fc3d 3698 f1bc 3a1c adbd 1170 a3bd
00000050: 3aa0 56be 9664 f23d d796 00be 6d28 30bd
00000060: 1f65 bfbc bc20 e5bd a68f f63d 08a5 163d
00000070: 270f 2dbb 5ebe 98ba b6f1 7d3e 0395 b9bc
00000080: 924b 963b 65bd ebbd 691d a7bd e726 353c
00000090: 83a0 01be accb 1fbc 7aa4 00be 9779 fc3b
000000a0: d5e5 023d a480 34bc 542e f63d 70b4 acbd
000000b0: e895 103b 429e d0bd 096b 6fbd 2632 fd3c
000000c0: 06b2 2fbd 6f63 723d 8653 0bbd 5b49 34bc
000000d0: fe1a ac3d b3d9 3dbd 62c5 a8bd 9ca4 173d
000000e0: 8a1f 9f3d fe3b 7cbd 0069 89be 2f43 613d
000000f0: 75af 11be 26af e93d bde6 b6bd 736d 55be
00000100: 9e0f e6bd 215c 84bd b3f0 e4bc bae2 57be
00000110: e3d9 903d a508 00be c8b7 343e 3afc aebd
00000120: 376d 68bd 2172 593d acb7 efbd 44f2 a6bd
00000130: f87e a03c bb9b 883d 6237 473d 3580 8cbd
00000140: 6c8f b1bd 3cda 95be 97f0 183e 43a6 0b3e
00000150: 2c48 5fbd d533 65be edc2 74bc e3dd 29bd
00000160: f526 58bb 12bb 94bd
0.006382353 0.02529235 -0.11924298 0.12527166 -0.069216944 0.046980243 0.0652018 0.2067575
0.1046884 0.21769105 0.2227082 0.14848185 0.1942147 0.13990398 -0.20832588 0.023306875
0.12340191 -0.029491525 -0.084526494 -0.07980359 -0.20959559 0.118355915 -0.12557541 -0.043007303
-0.023363648 -0.11187884 0.120391175 0.03677848 -0.0026406737 -0.0011653414 0.24799237 -0.022654062
0.0045866454 -0.115107335 -0.081599064 0.011056638 -0.12658887 -0.009753149 -0.12562743 0.0077049243
0.031957466 -0.011016998 0.12020555 -0.08432853 0.0022062007 -0.10186435 -0.058451686 0.030907702
-0.042894386 0.05917686 -0.0340152 -0.011003817 0.08403586 -0.046350192 -0.08240773 0.037022218
0.077696875 -0.06158065 -0.2683792 0.054995712 -0.14227088 0.1141036 -0.089307286 -0.20842533
-0.112334475 -0.06462885 -0.027946806 -0.21082583 0.070728086 -0.12503298 0.17648232 -0.08544202
-0.05674478 0.053087357 -0.117049545 -0.08151677 0.019591793 0.06670328 0.0486368 -0.06860391
-0.08669934 -0.29268062 0.14935528 0.13637643 -0.054512188 -0.22383054 -0.014939052 -0.041471373
-0.0032982205 -0.07262243

weight_ih_l0 f4 [15, 30]
00000000: b02a 82be 521d 993e 4bfa c6be 3f8c 093e
00000010: e496 4a3e c432 dabe b72b b63d 7044 76bd
00000020: 67e5 65be 9474 efbd f1b6 b0be fab2 ca3e
00000030: 9114 29be 409c 40be e0d6 34bc de84 32be
00000040: 2848 e03e 116b a4be 10ee 1fbe 04fd 7d3e
00000050: 8028 af3e bc78 9cbe b2a4 b5be 653c d3be
00000060: 4ca2 223e e2ef 69be f0f2 053d 201b 9ebe
00000070: 8b7d 48bd e632 80be 588f 803d 2ada 96be
00000080: 631a e4bd 4207 993e 904c 35bd 7086 abbc
00000090: 707c b13e f81c 173d 0cf2 0c3e 0c2b 94be
000000a0: 1176 d4be 68c6 c93e 5cd6 133c 098b d2be
000000b0: fc89 1f3e b4ae a43e 80a3 5ebb c05d 113d
000000c0: 50da 733e 85f1 c0be 029f 5abc f8aa 6d3e
000000d0: 5a5a cb3e 08bf d93e 601f 2c3e 1d4a e2be
000000e0: de4a d33e 4ad5 dcbe 0097 023b 3a89 d03e
000000f0: 4517 d53e 7821 123d 563d 59be 1bed c8bd
00000100: e1d8 6cbe 0856 413d 7d67 2dbd 005a a83d
00000110: be4a 123c 4e2b babe 3129 8c3e 3dcf 97be
00000120: 34cd 3abe 5f3e a8be a0ec ee3c 4b19 a93e
00000130: fc2d aa3d 47d6 c0be f8ab 18bd d0ce 833d
00000140: 1507 d2be c087 8b3e c2f8 9fbe 0e62 37be
00000150: 59a6 8d3e 1acc b1be b6fe a03e 45a0 d139
00000160: 42e5 bfbd e077 cabe 80f6 e4be cee4 86be
00000170: b365 c8be c87f ae3e 5a24 55be e83e 15bd
00000180: f5bd 8bbe 3863 b3bd 855e 3abe 6790 e0be
00000190: 11c5 5cbd 7f05 923e 14f4 c6be e852 c7bd
000001a0: cdc3 58be e814 8f3e 199e 913e 46d9 81be
000001b0: 827e ac3e 647a 503e 79bc 61be 7457 bc3e
000001c0: 00c3 1cbb b69e 543e 01c5 d0be 24ec 80bd
000001d0: e0aa b7be 78c0 c63e ba95 92be 5ce1 19be
000001e0: 0e68 643e 4891 a73e fbcf 083e e07b 923c
000001f0: 537e 38be 5a40 dfbe 7012 82bd a0ee 073e
00000200: 48f8 ec3d ec30 b1be 11b9 4c3e 4ea1 7dbe
00000210: 8bd2 9f3e 7253 80be 8821 313e 6d11 d0be
00000220: f289 b23e cdf9 be3e 5765 d0be 3864 ddbd
00000230: 9147 bcbe 507e 3d3e ec70 623e a6f0 9abd
00000240: 9cda 06be 70c1 653d 2642 38be b706 71be
00000250: 0ecf 433e 12bb aa3e 2a84 973e aed5 ba3e
00000260: ed55 dabe 6473 da3e 75c4 e93d a478 c5bd
00000270: d35e 7c3e c2d1 c93e 2f91 8abe 2c39 823e
00000280: f9d2 a3be a98c af3e 9813 393e 84a8 d3bd
00000290: d0a5 fb3d 67a2 b93e 55d1 adbe 8363 8cbe
000002a0: 24a0 ac3d 40a7 05be 1a81 363d 08fc c9be
000002b0: 2816 953d d0a1 dcbc b8bd 383e 2a03 b3be
000002c0: 4939 58be c847 ce3e a8c3 c1be 6da6 dabe
000002d0: 166c d83e a7ac 95be 2b85 823e 6059 adbd
000002e0: d547 a63e 86d3 953e 7c53 d4bd b827 2e3d
000002f0: eab2 30bc 109e 453e 87d2 f4bc 7c34 93be
00000300: e421 543e 0086 183b 1c08 e8bd 319b 253e
00000310: 246d 3d3e 88f3 93bd 956a 9e3e 467a dd3e
00000320: e065 913d 9fca 70be 860f a7be 3ff8 cfbc
00000330: e00a ec3e 383d da3d c456 9b3e 5aad bb3e
00000340: bf08 e93d 68cc 103e bace d1be a4fc 0dbe
00000350: 448e 95be 2559 0b3e ad87 bf3e 3460 953e
00000360: f03b b8be e90a adbe 50eb 28be c642 50be
00000370: 8927 8e3d 7967 223e 82ca 0f3e bc2b a4bd
00000380: 00b0 4f39 dec7 db3e e55a 29bd 4da6 3a3e
00000390: acf0 cebe c65d 02be c7b8 b3be 2879 6ebe
000003a0: 7477 223e 7c53 ad3e bc3d 92be c8d0 503d
000003b0: a9dd 9c3e 9edb ecbd d027 65be 56b9 b73d
000003c0: 8375 4a3c 86f5 953e 5c3f c9be 13d7 cc3b
000003d0: e6d7 0bbe f269 c6be 7777 3dbe 687e 9c3d
000003e0: a7b6 993e 1c69 3fbe 62ff 5bbc cb60 8ebe
000003f0: 5ce7 8d3e 62e6 863e ba7a 71be acec 29bd
-0.25423193 0.29905182 -0.38862833 0.13432406 0.19784123 -0.42616856 0.08895057 -0.06012386
-0.22450791 -0.116921574 -0.34514573 0.39589673 -0.16511752 -0.18809605 -0.011037558 -0.17433497
0.4380505 -0.32112935 -0.15618157 0.24803549 0.34210587 -0.30560863 -0.35477215 -0.41257015
0.15882224 -0.22845414 0.032702386 -0.3088007 -0.048947852 -0.25038832 0.06277341 -0.2946332
-0.11137845 0.2988835 -0.04426247 -0.020938128 0.3466525 0.03689286 0.13764209 -0.28939092
-0.41496328 0.39409184 0.009023275 -0.411217 0.1557998 0.32164538 -0.0033971965 0.035489798
0.23813748 -0.37684265 -0.0133435745 0.2320975 0.3971737 0.42528558 0.16808844 -0.4419717
0.41268057 -0.43131477 0.0019926429 0.40729696 0.41619316 0.03567645 -0.21214804 -0.09810849
-0.23129608 0.047201186 -0.042335022 0.08220291 0.008928953 -0.36361164 0.27375177 -0.29650298
-0.18242341 -0.32860085 0.029165566 0.3302711 0.08309552 -0.3766348 -0.037273377 0.06435931
-0.41021028 0.27252007 -0.31244475 -0.17908499 0.27665976 -0.3472603 0.3144433 0.00039982997
-0.09369899 -0.39544582 -0.44719315 -0.2634644 -0.3914009 0.34081864 -0.20814648 -0.036436945
-0.27293363 -0.08759159 -0.18200119 -0.4386017 -0.053898875 0.28519818 -0.38858092 -0.0973261
-0.21168442 0.27945638 0.2844093 -0.2536108 0.33690268 0.20359188 -0.22044553 0.3678547
-0.002391994 0.20763668 -0.40775302 -0.0629504 -0.35872555 0.38818717 -0.28629857 -0.15027374
0.22305319 0.32728028 0.13360588 0.017881334 -0.18016939 -0.43603784 -0.06351173 0.13274622
0.115707934 -0.34607637 0.19992472 -0.24768564 0.3121532 -0.25063664 0.17297947 -0.40638295
0.3487087 0.37299958 -0.40702316 -0.10810131 -0.3677335 0.18505216 0.22113389 -0.07565431
-0.1316933 0.05609268 -0.17993984 -0.23537718 0.19121954 0.33345848 0.2959302 0.3649115
-0.4264368 0.4266616 0.11414424 -0.09642151 0.24645548 0.39417845 -0.2706389 0.25434244
-0.31996897 0.34287003 0.1807388 -0.10334876 0.122874856 0.36256716 -0.3394877 -0.2741967
0.08428982 -0.13052082 0.044556715 -0.39450097 0.072796166 -0.026932627 0.18041122 -0.3496335
-0.21115603 0.4028914 -0.37844586 -0.42705098 0.42269963 -0.29233286 0.25492224 -0.084643126
0.32476678 0.29262942 -0.10367486 0.042518348 -0.010784844 0.19298577 -0.029885544 -0.2875098
0.20716053 0.002327323 -0.11329672 0.16172482 0.18498665 -0.07224184 0.3094069 0.4325735
0.07099509 -0.23514794 -0.3262903 -0.025386928 0.46102047 0.10656208 0.30339634 0.36655694
0.11378621 0.14140475 -0.40978032 -0.13865906 -0.29210103 0.13608225 0.374082 0.2917496
-0.3598323 -0.33797386 -0.16496015 -0.20337972 0.069411345 0.15859784 0.14042094 -0.08016154
0.00019806623 0.42925924 -0.04134645 0.18227501 -0.40417993 -0.12731084 -0.3510191 -0.23288405
0.1586588 0.33852756 -0.28562725 0.05098036 0.30637863 -0.11565326 -0.22378469 0.08970897
0.012357119 0.29288882 -0.39306152 0.006251225 -0.13656577 -0.38752705 -0.18502603 0.076412976
0.30022165 -0.1869244 -0.013427587 -0.27808222 0.27715576 0.26347643 -0.23581973 -0.041485474

weight_hh_l0 f4 [15, 5]
00000000: fcd7 8f3d 5897 38be 4a42 5dbe 4be7 543e
00000010: bc4d b03e ec95 dabe 98c2 a0be e593 84be
00000020: 649c c9be 31d2 943e 3566 afbe d8b2 c0bd
00000030: b266 803e ce51 183e 70f9 4e3e 0b66 86be
00000040: 0f43 97be ce31 623e a1f5 86be 6313 1fbe
00000050: 4c4e 423e 68d0 a13e 8647 19be 2cb0 1d3e
00000060: 8dbd 5bbe 2600 223e 3b6c b7be 0b08 683d
00000070: 01fd 61be 07d1 abbe 5770 42be 6a74 80be
00000080: 8075 9cbe 7694 803c 5c1d f5bc 4450 cb3d
00000090: 9a91 a5be c9c5 633e 83bd 4f3e 59d6 2fbe
000000a0: bfe1 933e 6d81 27be c1d9 c4bd 770e d2be
000000b0: 6cdf fbbd f510 963e d19d 82bd 97e2 c3be
000000c0: 0289 e03c 918a 483e 06b8 f1bd f441 c03e
000000d0: 9cbc e23e a8d5 463d f4d8 a3bd 47bc 06be
000000e0: b48f d13e 5aee 89be 6663 f33d 4a27 d53e
000000f0: 2490 b5be 801d e03e ac7a c8be 04be c33e
00000100: b65f 9cbe 869c 0cbe 359b b63c f464 af3e
00000110: 1f7d 013f 1ca2 90be bbef b13d 348f 683e
00000120: 00ad 983e 8182 11bd 9bef ce3e
0.070236176 -0.18026483 -0.21607319 0.20791356 0.34434307 -0.42692506 -0.31398463 -0.25894085
-0.3937713 0.29066613 -0.34257665 -0.09409112 0.2507835 0.14874956 0.2021234 -0.26249728
-0.2954335 0.22089311 -0.26359275 -0.15534739 0.1897518 0.31604314 -0.1496869 0.15399235
-0.21459027 0.15820369 -0.3582476 0.056648295 -0.2206917 -0.33557913 -0.18988167 -0.25088817
-0.30558395 0.015695792 -0.029921226 0.09927419 -0.32337648 0.22243418 0.20287137 -0.17171611
0.28883168 -0.16357966 -0.09611846 -0.4102666 -0.12298474 0.29309812 -0.06377757 -0.38258812
0.02740908 0.19584109 -0.11802678 0.37550318 0.44284523 0.048543602 -0.08000365 -0.1315776
0.4092995 -0.2693966 0.11884193 0.41631538 -0.35461533 0.43772507 -0.3915609 0.38230908
-0.30541772 -0.13731584 0.022290805 0.3425671 0.50581545 -0.2824868 0.08688303 0.22710878
0.2981949 -0.03552485 0.4041718

bias_ih_l0 f4 [15]
00000000: bda5 813d 4fd9 bfbe 7504 a23e 8ff5 e53d
00000010: 664d f4be d105 40be dafd 8abe f563 a4be
00000020: bb82 80be ae20 413c 1502 ab3d ef3f c13e
00000030: 4106 743e 146d a53d a9a2 14bc
0.0633044 -0.3747048 0.31644025 0.11228477 -0.477153 -0.18752219 -0.27146798 -0.3210751
-0.2509974 0.011787577 0.083500065 0.3774409 0.2383051 0.080774456 -0.009071984

bias_hh_l0 f4 [15]
00000000: 920d 283d f12e b6be 155b cfbe b1b2 803e
00000010: 71d9 24bd 5058 98be 80c8 933d ba31 bd3d
00000020: cf30 843e 7909 9cbc bb56 0e3e 9393 8bbd
00000030: 000f 0f3e 8b5a 043e 3bff d2be
0.041028567 -0.35582688 -0.40499178 0.2513633 -0.04024643 -0.29754877 0.07215977 0.09238
0.25818488 -0.019047486 0.13900273 -0.06815257 0.13970566 0.12925164 -0.4121035

weight f4 [8, 90]
00000000: d8b8 d8bc 763f 483c beaa cdba b936 5fba
00000010: 3410 13bd 96dd 1e3c 23ad 933b ede0 46b9
00000020: 0b36 88bc 5384 0ebc 12ce 823b 5336 20bb
00000030: 0dc8 55bc 592d edbb 09f3 883b 1d6a 53bb
00000040: 7db4 b5bc a750 31bc 79e6 b23c 5c33 60bd
00000050: 0258 f4bb 6e61 703a 3f63 623c 5b5f 383b
00000060: 7842 4e3c 5ae5 a53b 4816 403c fab0 fb39
00000070: 3568 baba 90f2 493b c8ce 803c 084e 06bd
00000080: dcd9 e7b9 56a5 e53b c6af 89be 6440 45bc
00000090: 12de 4fbd 6d33 b73c 226c 4c3b 978c 68be
000000a0: fea6 bcbc d9e0 b6bd 768e 023b f1b7 b63a
000000b0: 3a5e aebd 2e80 2ebd 3b56 523c b019 50bc
000000c0: 32bb debb 9470 e83d 8dcd eebc 538a 473d
000000d0: 5c6e 99bc 87c3 1f3c b8a3 963e ae71 85bd
000000e0: e7fd 4bbd 71d3 55bc 47cc a43b efb8 2e3e
000000f0: abe0 643c b954 6e3c acc1 52bc 2498 f0bb
00000100: 9d6e f13c 6850 19bd 368b 003e 71d1 af3c
00000110: fddd cabb 8c7c bd3d 42da 343b b011 4cbd
00000120: 8952 b63c b3a5 8b3b fd2e 1abc 6973 073c
00000130: a7f8 1d3d 28fd abba 55b2 3d3b 184c 063d
00000140: f2c5 143c 7174 c23d e504 a83c 709a 93b8
00000150: a2b1 043d 80a1 6c3c 5292 f53d 9b82 043c
00000160: 9ddd 053c 2c63 38be 07f6 82bd 5d60 bbbc
00000170: ba6d ef3c df98 453d a2d6 a53d fb9b 59bc
00000180: 0127 bfbc 8507 933c 07b7 51bd d3ee bbbc
00000190: de6a 4d3c a1c7 cabb e6fc e83d d414 b0bd
000001a0: cca1 eabb 3bcd 813d 2c67 95bd f988 c43d
000001b0: 8a68 dc3c ebf1 88bd ceeb 263c 672e c13d
000001c0: 6f3d e3bc e920 b93d 03dd 1f3d 01a4 713c
000001d0: ab2f 603c 0348 09bd 67e7 7fbd 7624 a93c
000001e0: 34db 33bd 0ddf 583d 9c93 f93c 81fc 103d
000001f0: be9e a13d c9e6 b6bc 28e0 3c3c 28da 0dbd
00000200: a249 06bc f8c2 91bd 3ee9 36bd 5351 c4bd
00000210: 7db0 41bc f474 0b3c 33ed e1bd 5681 6e3a
00000220: cba2 723d 04ab bc3c 8633 ac3c e25a eabd
00000230: cfb5 1ebc 8977 25bd 15c9 d5bb d635 603b
00000240: 7438 b5bd 92b2 37bc a00c 06bc 4f88 963d
00000250: facb 483c 75d8 d5bd d304 27bd 2ec9 af3b
00000260: e294 c33d 5e15 6abb 8db6 aebc c021 2fbd
00000270: 2616 a9bd fb6c 813d 1411 343c 9ee8 25bd
00000280: 731b 29bd fbeb 07bc c8f4 c13d a0c2 9b3c
00000290: b3dc c63c 6d40 87bd 8de8 8a3d b32e cc3c
000002a0: eee0 83bc fcde 843c 6184 30bd 63af a63d
000002b0: c4c6 513a 5d8c ff3c 576a 523e 478e c3bb
000002c0: 9397 16be 55ae 0e3d 29cc c03b 897d 483e
000002d0: 77c4 923c 34e5 cdb9 7dfe f1b9 8483 0b3b
000002e0: 5947 d4ba 9801 b2b8 6176 133a 171f e7b9
000002f0: 8862 2e3b 3cce 9c3a dbcd d0ba a028 193a
00000300: 5ef9 1abb 69ee b73a 51b8 67b8 49aa a5ba
00000310: a178 eb3a 4c4b 1bbb bc7a 16bb 3a9d 3a3a
00000320: 7bea 5739 124a f3ba 5268 873a 99e7 f8ba
00000330: 0d6c 3bbb cecc 893a e2a8 00bb 5211 ac39
00000340: 2784 ad3a d1a8 f2ba cc5a ebb8 c8ee 853c
00000350: 11de 023b 4c65 393a 4d84 5e3a 4d32 9aba
00000360: 1e63 0fbb c6a1 e63a 966e 033a f7f1 9e3b
00000370: 1f87 a138 70fe cf3c 88c7 d83a 17a8 0b3a
00000380: c976 5aba b053 b83a 15f7 5ebc 0bb6 f83a
00000390: 2876 8339 48bf c93a 5878 beba 4ef4 ec38
000003a0: 1ec5 a63a 10b4 933a ccf0 d2ba df7b 2eb9
000003b0: 66a6 ca3a c02b c83a 381b ed39 171b 4b3b
000003c0: 7357 96ba 7d1c fb3c bb5c 863a ea6b 68b9
000003d0: 6e4d 5eba 5033 833a 417a 273b 8e6c e53a
000003e0: 442c 4839 1de5 fd3a e56b 483a 93ff 67bc
000003f0: 2268 933a 00c5 e337 6de7 8e3a 56eb 1dba
-0.026455328 0.0122221615 -0.0015691144 -0.0008514929 -0.035904124 0.009696385 0.0045067235 -0.00018966543
-0.016627332 -0.008698541 0.0039918507 -0.0024446442 -0.013048184 -0.007238072 0.0041793627 -0.0032259293
-0.02218079 -0.010822452 0.021838414 -0.05473648 -0.0074567804 0.00091697916 0.013817607 0.0028133008
0.01258909 0.005062741 0.011724062 0.00048006308 -0.001422173 0.0030814745 0.015723601 -0.03278926
-0.0004422207 0.007008235 -0.26891917 -0.012039278 -0.050748892 0.022363389 0.0031192382 -0.22709881
-0.023028847 -0.08929605 0.001992134 0.0013940317 -0.08514066 -0.04260271 0.012837942 -0.012701437
-0.0067972178 0.113495976 -0.029150749 0.0487159 -0.018729381 0.009751207 0.29421782 -0.06515823
-0.049802687 -0.0130509 0.0050292346 0.17062734 0.013969581 0.014546567 -0.012863558 -0.0073423553
0.02947169 -0.037430197 0.12553105 0.021462174 -0.006191014 0.09252271 0.0027595912 -0.049821556
0.022256153 0.0042616962 -0.009410617 0.008267262 0.03856721 -0.0013121711 0.0028945406 0.032787412
0.009080397 0.09494866 0.020510146 -7.0382725e-05 0.032395966 0.0144428015 0.11990799 0.008087779
0.0081705125 -0.18006581 -0.06394582 -0.022873098 0.029227126 0.048241492 0.080975786 -0.013281818
-0.023334028 0.017947922 -0.05119994 -0.022941029 0.012537686 -0.0061883484 0.113763615 -0.08597723
-0.007160401 0.06337973 -0.07295069 0.09596438 0.026905317 -0.06686767 0.010188056 0.09432679
-0.027739255 0.0903948 0.039029133 0.014748574 0.01368324 -0.03351594 -0.06247654 0.020647269
-0.04391022 0.052947093 0.030465893 0.035397056 0.07891606 -0.022326844 0.011528052 -0.03463188
-0.008196266 -0.071172655 -0.04465603 -0.09585824 -0.011821863 0.0085117705 -0.1103157 0.0009098252
0.059237283 0.023030765 0.021020662 -0.11443116 -0.009686901 -0.0403972 -0.006524215 0.0034211776
-0.08848658 -0.011212008 -0.008181721 0.073502176 0.012255663 -0.104416765 -0.040776085 0.0053645587
0.095498815 -0.0035718302 -0.021327281 -0.042756796 -0.082561776 0.063196145 0.0109904 -0.040505044
-0.041285943 -0.008296008 0.094705164 0.019013703 0.02427516 -0.06604085 0.06782637 0.024924612
-0.016098466 0.016219608 -0.043094996 0.08138921 0.00080023357 0.03119486 0.20548378 -0.0059678885
-0.14706258 0.034834225 0.005883713 0.19579138 0.017915947 -0.00039271417 -0.0004615671 0.0021288106
-0.001619558 -8.487998e-05 0.0005625245 -0.00044082917 0.0026609022 0.0011963318 -0.001593049 0.00058425404
-0.002364717 0.0014032844 -5.524635e-05 -0.001263925 0.0017965027 -0.0023696003 -0.002296134 0.00071187655
0.00020591349 -0.0018561503 0.0010330772 -0.001898992 -0.0028598339 0.0010513307 -0.0019631912 0.000328193
0.0013238237 -0.0018513446 -0.000112225855 0.016349211 0.0019968788 0.00070722844 0.0008488342 -0.0011764258
-0.0021879147 0.001759582 0.0005013732 0.004850622 7.7022465e-05 0.02538988 0.0016538957 0.00053274765
-0.00083337404 0.0014063027 -0.013608714 0.0018975151 0.000250743 0.0015392089 -0.0014531715 0.00011298862
0.001272354 0.0011268873 -0.0016093492 -0.00016640079 0.0015460968 0.0015271828 0.00045224442 0.0030991489
-0.0011470154 0.030653233 0.0010251025 -0.00022165445 -0.0008480166 0.0010009799 0.0025555047 0.0017503665
0.00019089977 0.0019370649 0.0007645472 -0.014160055 0.0011246244 2.7152244e-05 0.001090271 -0.00060241425

bias f4 [8]
00000000: 71dd ae3d 0ca4 423e 1d2a 94bd 8003 c1bd
00000010: c630 cabc dc1d abbb b607 40bd df58 943d
0.0853833 0.19007891 -0.07234595 -0.09424496 -0.02468146 -0.0052220654 -0.046882354 0.07243513

weight f4 [1, 24]
00000000: 5c40 803e fa9a a53d ba15 5c3d a016 fabd
00000010: a145 0fbd 63be e63d 0813 eb3d 9f58 fabd
00000020: e67c 013c 87f0 42bd ac16 843d a1c1 c13e
00000030: 121f 893b ad31 a6bd 7fa4 85bb 25c0 0c3d
00000040: 7d3e a0bd 55ca c63d 3bd6 f8bd 8124 7d3c
00000050: c189 95bd 6cbf 0c3e 6a90 423e 5608 103e
0.25049102 0.080862 0.053731658 -0.122113466 -0.034978513 0.11266782 0.11478239 -0.122239344
0.007903313 -0.047592666 0.06449637 0.3784304 0.004184612 -0.08114944 -0.0040784474 0.03436293
-0.07824419 0.097065605 -0.12150236 0.015450598 -0.07301665 0.13744897 0.19000402 0.1406568
