model_files/LSTNET/lstnet_model_hor_96_win_35_skip_1.pt (torch, 36780 bytes, 13 tensors)

weight f4 [30, 1, 6, 8]
00000000: 8ac2 0fbe 3349 f03d 216d 4d3d 01ff 09be
00000010: 6b5a 3cbd c5ab bcbc 2629 bdbd 5f98 1fbd
00000020: f722 10be a41b e53b fe22 543c 8f55 99bc
00000030: b860 99bd 3ba4 a13c 827d 513d 504c a2bd
00000040: 04b4 1a3c 91ad 17be c711 f03d 6818 bcbd
00000050: 3c9e 05bd 7223 2fbe a035 e7bd ec24 26be
00000060: ad31 bb3d a00c 8a3d 87fa a93d 9e2e a53d
00000070: 33e3 1bbd cb30 943d a2fc 3d3d f827 343c
00000080: 7da5 82bd b946 db3d a935 af3d d1fc cc3b
00000090: 403f c23c 6b9f 38bd 3b75 843d ce68 9fbd
000000a0: 2685 9cbd 6748 fbbc 76ea 493c 0b8c b2bd
000000b0: 285e 933d 9cdc b73d 0710 bb3d a645 8c3c
000000c0: 4bca f2bd 67b3 853d 0aba 88bd 551e 81bd
000000d0: 16c7 6f3d 9b83 11bc eab5 643c 8367 37bd
000000e0: 8bc1 a7bc ff80 c6bd 0caa 313d 7e23 3ebd
000000f0: e6b0 12bc f6eb 19bd 0e48 febd d31f ba3c
00000100: d079 b2bc 79c5 fcbd 4df1 693d 3f96 10bd
00000110: 4b84 dc3c 1a2d 18bd b1e7 a1bd 6392 103d
00000120: 59c5 a0bd 07ac d63d 6291 90bd 12c7 d23c
00000130: 6d05 bbbd 2a0d ac3d f7bd 603d 92e9 743d
00000140: 4ea8 a13d fd9c 8f3d a434 693d 1d0d 2abc
00000150: ac5f 023e 9544 28bd 8c52 9bbc 1439 a9bd
00000160: 658f a33d 76e8 99bd 77a7 4dbc 18f6 e13c
00000170: 6f32 8dbd 9ac0 ad3d 7b9e ad3d b44e a43d
00000180: 843d 2abe 7090 7a3d 8663 28be 5a88 0ebe
00000190: 1ccf 153e 297f 6dbd 2a4e 503c 4ca6 a3bd
000001a0: 777a 10be a389 b9bd 6344 00bd adef cbbc
000001b0: 4b81 903d 2b57 ab3d 57f8 b9bd 72ed 8bbd
000001c0: 0b34 933d 5e66 b03d 7720 f2bd 1efc 22bd
000001d0: b2eb 9d3d 7051 8e3c 596a d5bd dc55 42bc
000001e0: 7ca4 3bbd 3ee7 bf3d aa08 a9bd bb65 c13c
000001f0: 1b7f 6abb 45fe c3bd 5584 cebd d96c 83bc
00000200: 09bc f1bd b1d3 9cbd a4d1 c03c 2d98 11be
00000210: 832f 99bd ce1b 90bd 1d68 0dbc ccb8 993b
00000220: 6bcd c6bb e1ab 943d 7f0e e8bd 189d 9f3c
00000230: ce8b 19be 5f72 4f3d d68f debd 7d56 60bd
00000240: 7a42 00bd fdf9 38bc bdea 81ba 4a9c 8c3d
00000250: e985 323e eabb dfbd 6865 d2bc e4dd 633e
00000260: 9993 7e3d 5d89 683e a5ef d03b 6eb0 f53d
00000270: 4434 ccbc 3397 5f3d c389 693d 3353 9c3d
00000280: 9b4b cd3d e0ef 1d3e ff57 253e c2cf bb3d
00000290: 7b07 5b3c e933 523e d92e 5c3e d0dc 693e
000002a0: 14af ff3d 37ba 463e f125 a63d 3f89 1b3e
000002b0: 4eba 9b3c 1c06 653e 9605 703e e278 163e
000002c0: d7e8 603e b964 223e 2823 abbc 1a03 303e
000002d0: 08cc d2bd ebad ffbc 6cc6 883d 1711 143e
000002e0: 980f 7b3e 137a c4bc cdd0 0e3e 6cc7 aa3d
000002f0: ac0b fd3b 6db4 263d cc58 f13d d253 2d3e
00000300: 7824 adbd 208e 063d 8514 883b 5dd4 07be
00000310: f138 8d3c f621 7bbc 7df4 91bd 27b9 a7bd
00000320: 07df 9dbd 7f24 83bc d329 79bd 701e acbd
00000330: 5d41 f2bc bb1d 87bd 7c9b ef3d 2887 9bbc
00000340: 414c e23d 70da f13d f32d 263d def4 cd3d
00000350: f034 83bd 6031 c6bd 83e2 073d 8dd8 36bc
00000360: e227 f93d 2890 cabd 8ce3 00be 9538 56bd
00000370: f8ea 2cbc 4181 29bd 5e26 03be 99c5 583d
00000380: c304 883d ccb8 e6bd 589b 5dbd 55ac 1bbc
00000390: 4957 fcbd 0c79 8f3c f7fb 563d d3f8 043d
000003a0: a7c2 7a3d bc23 34bc 92ba 9e3d 9502 96bd
000003b0: be10 913d 097b e8bd 518f c2bc cf69 95bd
000003c0: f4b9 253d b7c5 9bbd f91d d8bd 4fbf a1bd
000003d0: 13eb 4fbd 6608 81bd ba05 bbbd 23ca edbd
000003e0: 96db 103d bd8f 413d 3f83 8abd d176 383b
000003f0: 2712 92bd b6d8 633d aebd b33d 16f3 2bbe
-0.14039055 0.11732712 0.0501529 -0.13476183 -0.045984667 -0.023031125 -0.09236364 -0.03896367
-0.14075838 0.0069918204 0.012947796 -0.018717555 -0.07489151 0.019731632 0.051145084 -0.07924712
0.009442333 -0.14812304 0.11722141 -0.091843426 -0.032621607 -0.17103365 -0.11289525 -0.16225022
0.09140334 0.06740689 0.082997374 0.08065532 -0.03805847 0.07235869 0.046383508 0.010995857
-0.06379221 0.10706849 0.08555157 0.006255724 0.0237118 -0.045073908 0.064676724 -0.07783662
-0.076425835 -0.030674173 0.012323966 -0.08718117 0.07195693 0.08977625 0.09133916 0.017123055
-0.118549906 0.06528359 -0.06676109 -0.063046135 0.058539473 -0.008881475 0.013959387 -0.04477645
-0.02047803 -0.09692573 0.04337506 -0.046420567 -0.008953309 -0.037578546 -0.12416087 0.022720253
-0.0217866 -0.123423524 0.057114888 -0.035299536 0.026918551 -0.037152387 -0.0790552 0.035295855
-0.07850141 0.1048203 -0.070589796 0.02572969 -0.09131894 0.08400948 0.054868665 0.059793063
0.0789343 0.07012365 0.056934968 -0.010379103 0.12731808 -0.04108103 -0.01896026 -0.0826284
0.07986335 -0.075150415 -0.012552134 0.027583167 -0.06894385 0.084840015 0.084774934 0.08022824
-0.16625029 0.061172903 -0.16444215 -0.13919201 0.14629787 -0.057982598 0.012713948 -0.07990703
-0.14109217 -0.09059455 -0.03131522 -0.02489456 0.07055911 0.08366235 -0.0908057 -0.068323985
0.07187661 0.08613275 -0.118225984 -0.03979122 0.07710971 0.017372817 -0.10420675 -0.011861291
-0.04581116 0.09370278 -0.08253606 0.02360808 -0.0035781327 -0.095699824 -0.10083834 -0.016043114
-0.11803443 -0.076575644 0.023537464 -0.14218207 -0.07479765 -0.07036553 -0.00863078 0.004691219
-0.006066968 0.07259346 -0.1133089 0.019484088 -0.14994738 0.050646182 -0.10867278 -0.05476998
-0.031313397 -0.011290071 -0.0009911876 0.06865747 0.17433895 -0.10924514 -0.02568312 0.22252613
0.06215248 0.2270865 0.006376224 0.11996542 -0.024927266 0.054587554 0.057016145 0.076330565
0.10024186 0.15423536 0.16146849 0.09170486 0.013368483 0.20527615 0.21502246 0.2283814
0.124845654 0.19406973 0.081127055 0.15189074 0.019009735 0.22365612 0.23439631 0.1469455
0.21963821 0.15858735 -0.020890787 0.17188683 -0.10292822 -0.03121086 0.06678471 0.14459644
0.24517667 -0.02398399 0.13946839 0.08338818 0.0077223387 0.04069941 0.11784515 0.16926506
-0.084542215 0.032850385 0.0041528367 -0.13264604 0.017239066 -0.015327921 -0.071267106 -0.08189612
-0.07708555 -0.016008614 -0.060830902 -0.08404243 -0.029572183 -0.065974675 0.11699578 -0.018985346
0.110497005 0.11809242 0.040571164 0.1005647 -0.064065814 -0.09677386 0.033175003 -0.011160028
0.1216581 -0.09890777 -0.12586802 -0.052300055 -0.010554068 -0.04138303 -0.12807605 0.05292282
0.06641533 -0.11265716 -0.054103225 -0.009501536 -0.12321336 0.017513774 0.052486386 0.03246386
0.06122079 -0.010994848 0.07750429 -0.07324711 0.070832714 -0.11351592 -0.02374998 -0.07295572
0.04046054 -0.076060705 -0.10552592 -0.07897817 -0.050761294 -0.0630043 -0.09131952 -0.1161082
0.035365663 0.04725622 -0.067633145 0.0028146992 -0.071323685 0.055626594 0.08776413 -0.16791949

bias f4 [30]
00000000: b416 88bd 3c9c aa3d 1b06 89bd fa48 10bb
00000010: 867d 393c 07ac 043d 6a60 0a3d 9467 cabd
00000020: 1ebc cd3d d619 943c f6dc 093e 7a7c 84bd
00000030: 6dd1 21bd 3be7 4c3d 0c57 663d 7cc6 ce3d
00000040: e962 a53b 00f0 abbc 62aa 8dbd efa2 20be
00000050: 9837 e6bc b559 9bbd b2e6 bd3d d635 a3bd
00000060: 135b 013e a8e0 013e e914 d4bd f62d debd
00000070: f787 23be 8004 fbbd
-0.06644955 0.083305806 -0.06690618 -0.0022016154 0.011321431 0.03239062 0.033783354 -0.09883037
0.10045646 0.018078726 0.13463196 -0.064690545 -0.039506365 0.050025206 0.056235358 0.10096452
0.0050471914 -0.020988464 -0.069172636 -0.15687154 -0.028102681 -0.0758547 0.09272517 -0.07969253
0.12632398 0.12683356 -0.10355551 -0.1084861 -0.15969835 -0.12256718

weight_ih_l0 f4 [90, 30]
00000000: 003d 413d d030 4d3c 5fa6 a7bd 0bc4 38be
00000010: 34c7 0f3e 44d8 67bd 0030 16bd 6dad a0bd
00000020: 4629 11be 1e16 f8bd b019 ae3d 6066 683d
00000030: 9869 cf3c 6b22 17be 586e e13c b4e6 243e
00000040: 4470 043e 20f8 f83d 13a8 23be 5072 2ebe
00000050: 08a9 cebc c4fd a83d e0a1 963d c065 52bc
00000060: 8466 4b3d 7002 f53d 7844 edbd 7b9e c0bd
00000070: 6aff fcbd ae1c b8bd 1d16 31be 900b 0c3e
00000080: ae74 d4bd f08b 16be 147d 1e3e 41c5 a9bd
00000090: fd14 aebc 48b5 c8bd f93f 99bd 3e34 bfbd
000000a0: 1312 9ebd 8831 ad3d ee97 cfbd eec9 29be
000000b0: ac5a 343e cc7b 373d b5dc febc 4c36 51bd
000000c0: f0d6 11be 9008 0dbe 0fde 11be 9cbd 02be
000000d0: d640 253e f55d 3f3d 72fe 2cbe 2685 0abe
000000e0: be4e d23c 6f53 e43d c490 13bd 3845 2b3e
000000f0: 183e a03c e834 bfbc 4248 4dbd c0d1 7bbc
00000100: e054 d33d 50f5 c03d 3059 903d 2238 0bbe
00000110: 2a07 03be e297 383e e0fd f03b d0c2 963d
00000120: ee27 8bbd 0527 f3bb 48b8 38be 2c91 2fbd
00000130: 1874 b0ba 4e81 0fbe e03f 0c3e d8c3 1ebd
00000140: a6b7 cdbd 40a6 8dbc d834 0d3e 32e4 0f3e
00000150: 406d e8bc d08c 90bc 243b 19bc b7b0 a1bc
00000160: 2f40 0ebe 711b e5bd a75a 06bd 3765 0abd
00000170: 9320 2d3e 2ec2 debd b289 b23c 8577 313d
00000180: cbbe 20bd 21e7 03be 283b f0bd 4c25 563d
00000190: e869 013e 60e6 f53d b2f5 313e 4387 11bd
000001a0: 7416 3a3d 5ceb 0bbe 53cb a83d e032 f63c
000001b0: d616 edbd a020 403b cabd 2abe 5ad5 203e
000001c0: 2842 e8bc f7d8 7ebd 7934 36be 6cdb 773d
000001d0: 5994 2b3e 232f 503e 98a6 033e c01d b33b
000001e0: bdef f63d 4adb dabc bf3a 113e afec 17be
000001f0: 5ce9 f2bd 286f b43d 6be7 20be 88de 463d
00000200: ec02 ef3d 3aec df3d a65e b9bd 94df a63d
00000210: 3591 81bd 9967 8dbd 49ef 203d 3cc3 253e
00000220: e607 31be 307a 393e 9076 953d 7cbc 9dbd
00000230: b09c b2bd 2831 b53d b000 27bd 0e5f c4bd
00000240: 1de2 0fbe 4f7d 20be bec8 90bd 961a dbbd
00000250: 603b 2fbe 4059 b93b c20f 84bb ef4c 5ebd
00000260: da6b 953d 1cac 073e 8b6d 173d d48e 04bd
00000270: aab7 063e 6d14 21be e0ea 11bc 4b86 7d3d
00000280: 5cf2 0a3e 721a 0c3e cca9 a8bd a69a 253d
00000290: b126 133e 50cd e43c 573b ce3d 08c8 acbd
000002a0: 80b9 39bc 52ec a53d ac19 713d 2cd7 ae3d
000002b0: f8eb 553d 415a 4cbe 840b 60bd ddf6 9bbd
000002c0: 2a2a dfbb 5bef 833d 5282 2ebd 02f7 183e
000002d0: 051a 253e 527e ac3c 0068 463c b034 433d
000002e0: c939 46bd cca3 2fbd c8c8 b1bd 644b 3c3d
000002f0: 3692 17be c622 9bbc 9430 45bd 2030 043e
00000300: e8d2 1abe 1c75 73bc 38fa 2b3d 327d 14be
00000310: 63a6 423e 7c5f 4f3d 0eb8 4ebd d59d 1fbe
00000320: 8206 dfbd 5970 f6bb 84a9 46bd ef4e 103c
00000330: acdd 00bc 6694 97bd 4336 223e c5e0 a73d
00000340: e2df 093e 0cfd ab3d b2ae 2d3e 52f8 2abe
00000350: 6f6b 10be 04f7 b53d 65e2 5d3b a55f 9bbd
00000360: 5f35 ea3c 783a ca3c 6209 0f3e fed9 fd3c
00000370: 9697 30be 4cd7 253e 27c8 a5bd 8f2a b0bd
00000380: 0be0 27bd 1e32 91bd 65ed 2bbe 88b9 083d
00000390: fa2b 2dbe b781 443e b2f9 233e e0e4 09be
000003a0: c0ea 1ebe d0a8 fa3d bb97 263e 02bc 14be
000003b0: ea53 c13c d50a f23d e88a a93d 6439 213d
000003c0: 60e5 3a3d fd04 c5bd 018b ca3d da75 653c
000003d0: c441 01bd b1af 763d 211d 57bd 77f4 93bd
000003e0: f044 553d 5fae 8f3b de06 73bd 00d2 c039
000003f0: 04b8 013e 3e0b 9dbd a6fd 303e 1881 12bd
0.047177315 0.012523845 -0.0818603 -0.18043534 0.14040834 -0.05660273 -0.03666687 -0.07845578
-0.14175901 -0.121135935 0.08500993 0.056738257 0.025318906 -0.14759223 0.027518436 0.16103631
0.12933451 0.12156701 -0.15982084 -0.17035794 -0.025227085 0.08251527 0.07355094 -0.012841642
0.049658313 0.119633555 -0.11585325 -0.09405228 -0.12353404 -0.08989845 -0.17293592 0.13676286
-0.103738174 -0.1470182 0.15477401 -0.08289576 -0.021250242 -0.09800202 -0.07482905 -0.09336136
-0.07718291 0.08456713 -0.101364 -0.16580936 0.17612714 0.044795796 -0.0311111 -0.051077172
-0.14242148 -0.13772798 -0.14244865 -0.12767643 0.16138014 0.046720464 -0.16893938 -0.13527355
0.025672313 0.11148726 -0.03602673 0.16725624 0.019560859 -0.023340657 -0.05011774 -0.0153698325
0.10318923 0.0942179 0.07048261 -0.13595632 -0.12795702 0.18026689 0.007354483 0.07361376
-0.06794725 -0.007420423 -0.18039048 -0.042863056 -0.0013462333 -0.1401417 0.13696241 -0.03876099
-0.10044794 -0.017291188 0.1378969 0.14051893 -0.028372407 -0.01764527 -0.009352479 -0.019737585
-0.13891672 -0.11186875 -0.032801297 -0.033787932 0.16906957 -0.108768806 0.021794174 0.043326873
-0.039244454 -0.12881137 -0.11730033 0.052281663 0.12638056 0.12006831 0.17378882 -0.035529386
0.04543157 -0.13664001 0.08241906 0.030053556 -0.11576621 0.002931632 -0.16673961 0.15706387
-0.028351858 -0.062218633 -0.17793454 0.06051199 0.16755809 0.20330481 0.12856519 0.005466193
0.12057445 -0.026715893 0.14182566 -0.14836381 -0.11860916 0.08810264 -0.15713279 0.048552066
0.11670479 0.109337285 -0.09051256 0.08148113 -0.06326524 -0.06904525 0.0392907 0.16187757
-0.1728817 0.18113017 0.072980046 -0.07701966 -0.08721292 0.088472664 -0.04077214 -0.09588443
-0.14051099 -0.15672801 -0.070695385 -0.1069843 -0.17112494 0.0056563914 -0.004030199 -0.05427259
0.07295962 0.13249248 0.036969703 -0.032362774 0.13156 -0.15730448 -0.008906096 0.06189565
0.13569015 0.13681963 -0.08235511 0.040430687 0.14370228 0.027929932 0.10069912 -0.084365904
-0.011335731 0.08101715 0.058862373 0.085371345 0.05222699 -0.19956304 -0.054698482 -0.07615445
-0.0068104463 0.06442138 -0.042604752 0.14937976 0.16123207 0.021056328 0.0121097565 0.04765767
-0.048394952 -0.04288082 -0.08680874 0.045970336 -0.14801869 -0.01893748 -0.04814203 0.12908983
-0.15119517 -0.014859464 0.041986674 -0.14500883 0.19008784 0.05062817 -0.050468497 -0.15587552
-0.10889913 -0.007520717 -0.048501506 0.008807882 -0.007865351 -0.07401352 0.15841012 0.08197168
0.13464311 0.08397874 0.16961172 -0.16696289 -0.14103483 0.08885005 0.0033856865 -0.07586602
0.028589902 0.024686083 0.13968423 0.030987736 -0.17245325 0.1619541 -0.08094817 -0.086018674
-0.04098515 -0.07089637 -0.16789778 0.03338006 -0.16911307 0.19190107 0.1601322 -0.13466215
-0.15519238 0.1223923 0.16268818 -0.14524844 0.023599584 0.11818472 0.082784474 0.039361373
0.045628905 -0.09620092 0.09889794 0.014005149 -0.03155686 0.060226146 -0.052518014 -0.07224362
0.052067697 0.0043848003 -0.05933272 0.00036777556 0.12667853 -0.0766816 0.17284259 -0.035767645

weight_hh_l0 f4 [90, 30]
00000000: 5af9 04be 0824 97bd a83e 903b 92e7 9b3d
00000010: d646 f13b b50e ec3d 0c5e e4bb 29aa 8bbd
00000020: daeb 36bb c6fc a7bd 2e32 94bd db68 3bbc
00000030: f91f a6bc 93f7 763c f98c 4a3c d3b5 c13c
00000040: 52ad 1e3d 62b8 f2bd 3563 1fbd fd82 b0bc
00000050: c074 4f3b 3b83 513d e0be ad3b 7ca2 213e
00000060: 0def 03be 0c87 393d f8d0 c13d 0535 03be
00000070: 4370 2b3e 522e 3cbe 6a86 2a3e c76c 2bbe
00000080: faef 78bc 0e49 f93d 5f04 cf3d 3809 9abd
00000090: 0317 ed3d 259f d03d 82d7 01be 2677 a9bc
000000a0: a91d 303e 44ef 14be ce25 ce3d cdd2 283e
000000b0: 17e8 4cbc 9551 63ba 833b c93d cb38 edbd
000000c0: 18fd fbbd 654d d03d 4d30 f83c 1201 e7bb
000000d0: 5c24 133e 5ce2 06be 0c98 08bc c1c1 0bbe
000000e0: e1a7 c4bc cc05 883d ed45 00bd e7b8 fcbd
000000f0: fc92 043e 9045 2dbd 7063 c93d 1fe9 3fbe
00000100: 2b3c 253c 0eb1 093e 2157 273e fe4f c4bd
00000110: 23d8 cc3d 6f7b 27be d7ce 673d 9295 57bb
00000120: 9187 f03d cc43 d5bc 8b8b 4f3e 17f8 eabd
00000130: 0a79 c33c 70a6 f13c 5bbd dd3c 44e1 0d3e
00000140: 44f4 24be 21d3 3b3e 490e 1fbe a57c 76bd
00000150: b089 223d f5d0 b43d 8840 fc3d eb7f 57bd
00000160: 1ea7 073e 65e7 7a3d 0b71 19be ecb4 00bd
00000170: 19b7 cd3c 0d73 2e3e 100c f4bd 4cb9 7c3d
00000180: a606 05bc dff2 14be 0de2 a23d 1af1 74bd
00000190: f265 0ebd 9c80 a6bd 0c9c ecbd b448 e3bd
000001a0: f9b1 1a3e ff7c 08be 6bb6 1ebe f15e c6bd
000001b0: 2547 24be 3ac1 853d 00c8 cd39 be22 c33d
000001c0: 3c29 4bbe 10ab acbd d992 263e 15f1 103d
000001d0: a856 df3d 8ee7 9cbc 7c59 1dbe 187d 37bd
000001e0: 4924 5bbd 785b de3d 5fee 1ebe 9943 d43d
000001f0: 2456 98bd d993 1b3e 6b82 d0bd f349 34bd
00000200: c010 6ebe 77bf 00bd 4dee fb3d f3e8 37be
00000210: e3b5 f0bd 3ed7 b9bd 6309 353e 0f8d ccbd
00000220: 91ce b93d c025 70be fcc6 23bd 248f 9bbd
00000230: 8b63 1e3e baa8 973d 7af7 78bd bd28 aa3d
00000240: 40cb 4fbc 567d 8c3e 6d74 303d 920e d93d
00000250: 872d a1bd e589 0fbd 860b db3d 273c 213e
00000260: 4e25 433d b211 8f3d 9867 2ebe f1f6 5a3e
00000270: 5f63 eb3c 8dca 163b d5d0 4abe 7014 65bd
00000280: 5ea8 5f3e aef0 8e3b 5ed5 2a3e 354e 173e
00000290: 06aa 3d3e f302 afbc 5276 113e 684e 3fbe
000002a0: b6b0 f1bd 26af a03c 63e1 e23d 1027 203e
000002b0: e988 73bc e4e5 643c 8689 ccbd c734 5fbb
000002c0: b740 e63d d994 b63d 536f 96bd 9ccf 533e
000002d0: 3372 4d3d e143 cebd d94e 5dbd 8669 56be
000002e0: 5f81 0cbe 7689 04bd c102 69bc 9d6c 343e
000002f0: fd4b a13c 5650 06be 8b82 963d 8e14 edbc
00000300: 97d4 c53d f30a 963c a5b0 bf3d 3172 5bbd
00000310: 57a1 ac3c 3212 b13d b62c 253e 0ebb 4fbd
00000320: 41dc 9cbd 1d85 06be 65a0 673e 100d f2bc
00000330: 11b6 f23c 793c 0e3e 15be af3d 355d 92bd
00000340: c91a 12be 0e74 6b3d 5276 aa3d 5f3f fa3c
00000350: 51f2 cbbd df75 ecbd 3113 d03c ad58 21be
00000360: 38ed f4bd 0552 a1bd aab3 85bd ac54 063e
00000370: 82c4 473d 9ab7 263d 1bcb bdbc 10b7 b8bd
00000380: 393c 133e 99de a93c d10a cdbd 8e7b 1a3d
00000390: 060b 4abe 699f cabd 08f8 92bc adb5 ad3d
000003a0: 2b0f e33d 8a5c e43c fcf7 aabc 78bb 50be
000003b0: 0dd5 053d f068 9f3c df4b 003e 47d1 90bd
000003c0: 4e0d 63bd ee66 e4bd 8534 033e f32f 00be
000003d0: ed4c 0c3e 6eff b9bd e061 eebc f0e2 a9bb
000003e0: 2c25 1d3e f499 e63d 62c8 1fbc f8a5 ee3c
000003f0: ef9b c23b 1123 ea3d 06f0 b13d be04 ddbd
-0.12985745 -0.07379919 0.0044020005 0.07612528 0.0073631806 0.11526243 -0.006969219 -0.06819565
-0.0027911575 -0.082025096 -0.072361335 -0.011438574 -0.020278918 0.015073675 0.012362712 0.02364627
0.03873951 -0.118515745 -0.03891297 -0.021546835 0.0031655282 0.05115054 0.005302295 0.15784639
-0.1288416 0.045294806 0.09463686 -0.12813194 0.16742043 -0.18377045 0.16652837 -0.16740714
-0.015193934 0.12172137 0.101082556 -0.075212896 0.11576655 0.101866044 -0.12679866 -0.020686697
0.17198814 -0.14544398 0.100658044 0.16486664 -0.012506506 -0.00086715195 0.09825804 -0.11583098
-0.12304133 0.10171012 0.03029647 -0.007049688 0.14369339 -0.13172287 -0.008337032 -0.1364813
-0.024005832 0.06641731 -0.031316686 -0.12339955 0.12946695 -0.042302668 0.09833419 -0.18741272
0.010085146 0.13446447 0.16341831 -0.0958557 0.10002162 -0.1635568 0.056593742 -0.0032895547
0.11744607 -0.026033305 0.20268075 -0.11473101 0.023861427 0.029498309 0.02706783 0.13855463
-0.16108805 0.18342258 -0.15532793 -0.060177464 0.03968209 0.08828918 0.12316996 -0.052612226
0.13247344 0.06125583 -0.14984529 -0.03142254 0.025111722 0.17036076 -0.11916363 0.06170015
-0.008119261 -0.14545773 0.07953272 -0.059800245 -0.03476519 -0.08129999 -0.11553201 -0.110978514
0.15106954 -0.13328932 -0.15499274 -0.096860774 -0.16042764 0.06530996 0.0003924966 0.09528111
-0.19839948 -0.08431065 0.16266955 0.035386164 0.109052 -0.019153383 -0.15366167 -0.044797033
-0.0535014 0.1085729 -0.15520619 0.10364456 -0.07438305 0.15193118 -0.10181125 -0.044015836
-0.23248577 -0.031432595 0.12301312 -0.17959957 -0.11753442 -0.09074257 0.17679362 -0.09987842
0.090726025 -0.234519 -0.03998469 -0.07595661 0.1546766 0.07405229 -0.060782887 0.083085515
-0.012682736 0.27439374 0.043079782 0.10598482 -0.07870012 -0.035043616 0.10695557 0.15745603
0.047643 0.06985797 -0.17031705 0.21383263 0.028733907 0.0023008913 -0.19806226 -0.055927694
0.2184157 0.0043621873 0.16682956 0.14775927 0.1852189 -0.021363711 0.14205292 -0.18682253
-0.11801283 0.019614767 0.11078145 0.15639901 -0.014864185 0.013970826 -0.09987168 -0.0034058557
0.11242812 0.08915109 -0.07345452 0.20684665 0.050157737 -0.100715406 -0.054030273 -0.20938691
-0.13721226 -0.032357655 -0.014221848 0.17619558 0.019689554 -0.13116583 0.07349118 -0.028940465
0.09659689 0.018315768 0.09359864 -0.0535757 0.021073027 0.086460486 0.16130337 -0.0507155
-0.076591976 -0.13136716 0.2261978 -0.029547244 0.029627832 0.13890256 0.08581177 -0.07146684
-0.1426803 0.057483725 0.08323349 0.030547796 -0.099583276 -0.115459196 0.025399776 -0.15756483
-0.119593084 -0.07876972 -0.06528409 0.13118237 0.04877139 0.04070244 -0.023168137 -0.090192914
0.14378442 0.020736026 -0.10011829 0.037715487 -0.19730768 -0.09893686 -0.017940536 0.084819175
0.110868774 0.027876157 -0.020870201 -0.20384014 0.032673884 0.019459218 0.12528943 -0.070711665
-0.05543261 -0.11152445 0.12813003 -0.12518291 0.1370122 -0.090819225 -0.029099405 -0.0051845238
0.15346211 0.11259833 -0.009752365 0.029131874 0.005938999 0.1143247 0.08688359 -0.1079192

bias_ih_l0 f4 [90]
00000000: c023 c53c 02c9 1ebe 5c28 df3d 38ac f7bc
00000010: ee22 7bbd 676e 86bd 69f1 53bd a5b3 d1bd
00000020: 7842 973c 443c 80bd ed0a 093e dcc6 c7bd
00000030: b5c0 dc3d 64ec 10be 7efb 013e caba 333e
00000040: 6e3e 09be df98 61bd 50e0 debd 7960 17bc
00000050: 9603 073d 3157 d2bd 12ad 4ebe 249b 243e
00000060: 9d82 283d 91be 96bc cb8e eb3c 4554 35be
00000070: c196 f9bd a7ab c03d e209 51bd 695b 95bd
00000080: b436 383c 3300 9ebd 347b 3cbd 3bed d03d
00000090: 4bee d83d f0c5 dbbd 1752 03be 4fd0 413c
000000a0: 58bf edbc 8771 f1bc e741 053c 3fc6 05be
000000b0: 4b60 e3bd ec7c d03d 75f0 433e 616c e1bd
000000c0: 0578 88bc d4b2 633e 76d1 303d d3c9 313d
000000d0: 3639 f5bd 68da d6bc 7f77 0d3d ff93 48bd
000000e0: 37b4 61bd 7192 3d3d dff5 043e add0 5f3e
000000f0: c7f2 33be cf34 ccbd 1925 49bd d7c7 343e
00000100: afa4 313e 5fd4 c33d 2df4 5abb ac38 533e
00000110: fbb2 84bd 6c86 eebd d6fe 603d ce39 163e
00000120: 353e acbd 1f42 303e ab28 30be 2484 cd3d
00000130: be47 e33d 9abc 70be 9d7d 413c 578d 43bd
00000140: 0ae7 cdbd 01d9 64bc e2fc dc3d 8d5d 3a3e
00000150: 4cbc 463c 639c d3bc 8675 58bd 5f70 5c3d
00000160: 27fd 173e 0191 17be
0.024064898 -0.15506366 0.1089637 -0.030233487 -0.06131261 -0.06564026 -0.0517439 -0.102393426
0.018464312 -0.06261495 0.13383074 -0.09754726 0.107789434 -0.14152676 0.12693593 0.17551723
-0.13402721 -0.05507743 -0.10882628 -0.0092393095 0.032962404 -0.10270537 -0.20183209 0.16074806
0.041140188 -0.018401416 0.028754612 -0.17707928 -0.12186957 0.0940774 -0.051034816 -0.07292826
0.011243511 -0.07714882 -0.046015933 0.10201498 0.10592326 -0.10731113 -0.12824284 0.01182945
-0.029021904 -0.02947308 0.008133388 -0.13063906 -0.11102351 0.10180077 0.19134696 -0.11007
-0.016658792 0.22236186 0.043168508 0.043405365 -0.11973803 -0.026227191 0.03453779 -0.048969265
-0.055103507 0.046282236 0.12984417 0.21856947 -0.17573081 -0.0997101 -0.049107645 0.17654358
0.17347978 0.09561991 -0.00334097 0.20627087 -0.0647945 -0.11646733 0.05493053 0.14670488
-0.084103025 0.17212723 -0.17203014 0.100349694 0.11097668 -0.23509446 0.011809734 -0.047742214
-0.10053833 -0.013967753 0.10790421 0.1819975 0.012129854 -0.025831407 -0.052846454 0.053818103
0.14842664 -0.14801408

bias_hh_l0 f4 [90]
00000000: 8e44 a13d 8131 e43d 6b1d 1dbe a35a 3c3e
00000010: 7352 aebd ded1 69bd d2da d83d c37d 253d
00000020: 46e1 e4bd b741 94bd fbb9 15bc b837 3dbc
00000030: 46f4 21bc 8044 15be efa4 a0bd 8c57 e1bd
00000040: 12bb 2d3e e124 59bd 45cc 51bc 0650 78bd
00000050: dd45 afbd 3f43 c8bd 042f dcbd 01ad eebd
00000060: d717 6cbd a000 dabd daca bd3b 3c17 3fbe
00000070: 4212 71bd 219d dc3b 90ca 15be c51d 30be
00000080: 69b0 24bd 02f4 0e3e 080b 97bd ba79 773d
00000090: 8176 263d d38a 7b3d 6ef0 0b3e 7e79 07be
000000a0: 3b24 093e f0c6 c73c 4bba 77b9 5e2f b73c
000000b0: 4b59 413d 1b52 663c 3b38 223e c2cb a13c
000000c0: ef5a 5ebd d123 eb3d ea38 4b3e 0945 9abd
000000d0: 2448 1abe 90c3 c73b 26eb cf3d 1bea 49bd
000000e0: f437 6abe 3dce c1bb 3b05 f93d 34e5 443e
000000f0: 15d7 bd3d 0687 60bd b4f7 fbbd c127 92bd
00000100: e09a 86bd d827 12be ff98 0fbe 9b82 37bc
00000110: 6afa ac3d 7849 8d3c 16f4 95bd 5c8d 46be
00000120: 2b39 633d 2082 c5bd f543 cf3d 9c70 213e
00000130: 1292 033e eb02 acbc e22e 813d 78c0 bebd
00000140: 7910 a0bc 0d93 3dbe abde 363e 36a4 22be
00000150: 4a7f 193c ecf0 183e 7100 d23d d7c5 8f3c
00000160: 74ac be39 00db 1b3d
0.07874404 0.111422546 -0.15343253 0.1839395 -0.0851182 -0.05708491 0.10588612 0.04040314
-0.1117578 -0.072390966 -0.0091385795 -0.011548929 -0.0098848995 -0.14576912 -0.078439586 -0.11003026
0.16965893 -0.053013686 -0.012805049 -0.06062319 -0.08558247 -0.09778451 -0.10751155 -0.116540916
-0.057639923 -0.106446505 0.005792004 -0.18661207 -0.058855303 0.0067325984 -0.14628053 -0.17198856
-0.0402073 0.13960269 -0.07375151 0.060418822 0.040640358 0.06141169 0.13665935 -0.1322994
0.13392727 0.024386853 -0.00023625155 0.022361454 0.047204297 0.014057661 0.15841763 0.01975048
-0.05428594 0.11481441 0.1984593 -0.07532699 -0.15066582 0.006096311 0.10152273 -0.049295526
-0.22872907 -0.005914478 0.12159201 0.19228059 0.09269539 -0.05481627 -0.12303105 -0.07136489
-0.06572509 -0.14273012 -0.14023207 -0.011200572 0.084462 0.017246947 -0.07321946 -0.19389862
0.05547444 -0.0964396 0.10120384 0.15765613 0.1284869 -0.020997485 0.0630777 -0.09314054
-0.019539105 -0.18513127 0.17858379 -0.15882954 0.009368727 0.14935654 0.102539904 0.017550392
0.00036368112 0.03805065

weight_ih_l0 f4 [3, 30]
00000000: f4ea d83e 50df d53d b732 c4bd 868b 3e3f
00000010: de34 6b3f 67f9 4cbe ec17 f63e ba58 343f
00000020: 7465 e7be ecc8 b43d f892 6a3e 5296 373f
00000030: b259 773f 560d bbbe 4669 ecbe 94cc d1be
00000040: 7a60 2c3f d057 633e 30dd 9d3e 1f80 2fbe
00000050: b41e 323f 907a 3a3e 5850 5d3f 789f 2e3d
00000060: 204f b1bd b871 b43e 5729 883e 6724 12bd
00000070: 6cac 71bf b475 fd3e a2ba 4e3f 2c20 633f
00000080: 28a9 913e 700e abbd ec07 7cbf 6417 c93e
00000090: d8aa 33bf 961e 76bf 7872 76be 3850 41bf
000000a0: 143f b8be 580b aa3e 0ea0 7f3f 24e2 503f
000000b0: 1391 27bf 0038 713f 38be d3be 0012 cdbd
000000c0: 4aad febe 848e 39bf 581d cfbe 886f bb3e
000000d0: d252 153f 1f79 f93e e027 0b3e b0d9 dfbd
000000e0: 4fef 66bf 2fdd 69bf 276d 9e3d 889b 17bf
000000f0: 681b d13d ef89 873e 0640 2cbf 809c 79bf
00000100: a880 1cbf 7617 ae3e a243 b7be d89e 47bf
00000110: eac6 c4be d313 f0be 6ca3 a3be a0cc 2a3d
00000120: 9194 33be 71ea b4be 29b0 25be 1aa1 4bbf
00000130: b54a 35bf 52fd 02bf 5e5b 663f 5510 27be
00000140: c4d9 72bf 81c7 f13e 4480 5ebf 95a5 3e3f
00000150: a0ae 34be e02d e3be a104 443f f54e 0f3e
00000160: 4481 e83e a835 5c3f
0.42366755 0.10442984 -0.095799856 0.74431646 0.91877544 -0.20017014 0.48065126 0.70447886
-0.4519459 0.08827385 0.22907627 0.71713746 0.9662124 -0.36533612 -0.46174067 -0.40976393
0.6733471 0.22201467 0.30832815 -0.17138718 0.695781 0.18210816 0.8645072 0.04263255
-0.0865767 0.3524301 0.2659404 -0.035679247 -0.9440372 0.49503863 0.8075353 0.88720965
0.28449368 -0.08352363 -0.9844959 0.39275658 -0.7018256 -0.9614042 -0.24067104 -0.7551303
-0.35985625 0.3321178 0.998536 0.81595063 -0.6545574 0.94226074 -0.41356063 -0.10013199
-0.49741584 -0.72483087 -0.40452075 0.3660853 0.583295 0.4872522 0.1358943 -0.109301925
-0.90208906 -0.91353124 0.07735663 -0.59221697 0.102103055 0.26472422 -0.6728519 -0.97504425
-0.61133814 0.34002274 -0.35793787 -0.7797675 -0.3843301 -0.46890125 -0.31960618 0.04169905
-0.17537142 -0.35335115 -0.16180481 -0.79542696 -0.7081712 -0.51167786 0.89983165 -0.16314824
-0.94863534 0.47222522 -0.8691447 0.7447141 -0.17644739 -0.44370937 0.76569563 0.13994963
0.45411122 0.8601937

weight_hh_l0 f4 [3, 1]
00000000: 4b29 2abf 0dbc 1a3f 0f79 0abf
-0.6646926 0.6044319 -0.5409097

bias_ih_l0 f4 [3]
00000000: 7ce8 03bf dcb0 ccbd 53f1 e7be
-0.5152662 -0.09994671 -0.45301303

bias_hh_l0 f4 [3]
00000000: f7ef 463f 5ff9 35be 069c bb3e
0.7770991 -0.17770909 0.36642474

weight f4 [8, 31]
00000000: 963e 763d 6f2e b83d d69f 743a fa36 983d
00000010: e706 9abc c938 87bd d26b 133d f43c 52bd
00000020: d36b 9e3d e7fd 02be 1565 4ebd aba1 ddbb
00000030: 5cf1 493d 1b05 c1bd b65c e2bd 4399 b13d
00000040: 362e 7c3d f891 a9bc 25fa 00bd 3a3f 833d
00000050: 8370 053d 8b63 d5bd a5c1 15be ab94 20bd
00000060: 27c8 83bd c967 4cbd 67f8 aa3d 64f1 ad3d
00000070: eb54 203c 0186 863b 5313 1fbb 1bfa e0bd
00000080: 6d2c 9dbc fc8d 41bd f803 bcbc aadc 983d
00000090: 0621 95bd 3141 ecbd 5d57 0bbe 00be 0b3c
000000a0: 9cc1 e03d e939 d73c 9562 3a3d 3c1b 693d
000000b0: f69d 5e3d 6835 01be 7b4a 2e3d 3580 3f3c
000000c0: be7a 2f3e 4eb7 933d 7ce8 6bbd e309 013e
000000d0: 44d4 d3bd 939c fbbd d50f d83d c7cd 3b3d
000000e0: 7c8e 28be 93a4 3cbe 3217 c73d 0742 83bd
000000f0: d3d8 5abe d530 95bc c250 3a3c 9acd ef3a
00000100: 4ad0 4abc 6bbf 59bc e956 dfba 1f36 5c3b
00000110: 8e7d 2a3c fd7b 353b a869 4bbc 744d b3bb
00000120: 81a2 12ba 3d98 2dbb b797 833b 5441 e1bb
00000130: eca8 773c a22f 5abc 17cd 5b3c 4274 22bc
00000140: 6b9d 1bbb 6ac0 1b3b e2d8 d4bc f8e7 6d3c
00000150: cd61 463c e749 02bc 804c dcba d6ef 163c
00000160: b6c8 233c 0cac c1bb fdc2 d13b 2504 b63b
00000170: a8d8 6e3a ffe2 fa3b bf49 98ba b392 09bc
00000180: b527 04bc 4a6b 51bb e20b a43a b94e 043c
00000190: 2bdc 653a 3f43 f6bb eb20 afbb 8616 7339
000001a0: 49fb 0dbb 63c9 9a3b 3bd0 edba 1264 1f3c
000001b0: cc67 10bc 2478 143c 7adc 07bc ec7a 39bb
000001c0: 601b 073b 1f51 333d 8d79 053c e319 133c
000001d0: ab2b b3bb 4ffb 02ba c3d5 ab3b e3af c13b
000001e0: 894d 67bb 43ec 473b ab51 703b 681d a93a
000001f0: 2d72 5b3d 868f 953d e473 bebc 4913 713d
00000200: 2504 88bd a860 87bb badd 1e3d ad5c 37ba
00000210: c425 e4b9 9e19 0c3d 465d e33c 8f73 b93c
00000220: ae6b 803b 5691 213d bc82 92bd 66ee 9b3d
00000230: 9dd7 8c3c 4bd3 6bbd f5ab a0bc 0dd7 373c
00000240: 338c c43d 26c9 133d 1f52 42bd 405c 80bd
00000250: d56c cdbb 067b 3d3c 42be 2d3d bf69 b53c
00000260: 8783 4fbd 2744 473d bd5f cc39 8f5a 8f3d
00000270: 117f aa3d 6e79 4cbc 9556 813c 83ae 1a3c
00000280: 6674 bbbb 490d 363d a080 87bc fc42 e7bc
00000290: fe85 eabc 7641 243b 3291 04bc 7e45 09bb
000002a0: 6a3f 24bd d885 05bd 10b7 bcbd 4d3a 06bd
000002b0: 1967 d13c 4a1c 0ebd f404 8f3d 79ab 033d
000002c0: 9bdc ac3d 9d9a 323d 2007 973d 0e58 22bd
000002d0: 9872 01bd b6ef 523d 481c f13c 8111 74bc
000002e0: 3538 28bd 5d4d b13c 7d3f d63b 5e15 0bbc
000002f0: f4c6 98b9 cff4 09bc 551a 1d3c b428 053b
00000300: a54c bc3b e1e1 983a 3958 96bb 40c9 13bb
00000310: e224 6f3b 04c2 903a 59d9 c53b 8365 d7bb
00000320: 53be 5cbb 00b0 3bbc 8ded 803b 8fed 96bb
00000330: 41e4 013a 4bd3 0bbb 4b2c c8bd 332f d13b
00000340: c19a 663a 0434 dfbb 0589 06bb accf 8c3a
00000350: 722b a93b 6a05 203a b367 c43c ccdf a43b
00000360: 65eb 35bb f07b 85bc f840 cf3d da26 ff3d
00000370: e092 0b3e 1149 893d 1753 ae3d 4c38 be3d
00000380: 2def 50bd 37b1 793c 4f93 9b3d c23e 60bd
00000390: 0cc8 5b3d 1fab dc3b f94c c53c 1cda 05be
000003a0: ee1a 1f3d 75cc a33d dcb1 8f3d 3801 bdbc
000003b0: 8ebb 6f3d 95b1 71bd 6789 723d 68de b9bd
000003c0: 49c4 aabc 30f3 9bbb e1a1 553b b096 b9bb
000003d0: 986a 0f3d 6654 abbc ea5c e9bd bedf 8ebd
0.06011828 0.089932315 0.0009331679 0.07432361 -0.01880212 -0.06602628 0.035991497 -0.05132766
0.077354096 -0.12792169 -0.050389368 -0.006763657 0.049302444 -0.09424802 -0.110528395 0.086718105
0.061567508 -0.020699486 -0.031488556 0.06408544 0.032578003 -0.10419377 -0.14624651 -0.03920428
-0.064346604 -0.049903665 0.0834816 0.08493307 0.009785871 0.00410533 -0.0024272993 -0.10985204
-0.019186223 -0.047254547 -0.022951111 0.07463963 -0.07281689 -0.11535872 -0.13607545 0.008529186
0.10974428 0.02627273 0.04550417 0.05691074 0.054349862 -0.12618029 0.0425515 0.011688282
0.17136666 0.07212697 -0.05759476 0.12601428 -0.10343221 -0.122857235 0.10549895 0.04585054
-0.16460603 -0.18422155 0.09721221 -0.06409078 -0.21371774 -0.018211761 0.011371793 0.0018295527
-0.012378762 -0.0132902665 -0.0017039451 0.0033601595 0.010405911 0.002769231 -0.012415327 -0.0054718796
-0.0005593673 -0.0026488446 0.0040158886 -0.006874243 0.015115958 -0.013317021 0.013415596 -0.009915413
-0.0023744951 0.002376581 -0.025982324 0.014520638 0.012108278 -0.00795219 -0.0016807467 0.009212455
0.009996584 -0.005910402 0.0064014182 0.0055546933 0.0009111264 0.0076564546 -0.0011618658 -0.008396792
-0.0080661075 -0.0031954818 0.0012515748 0.00807541 0.00087684643 -0.0075153406 -0.0053445003 0.00023182677
-0.002166467 0.004723714 -0.0018143723 0.009728448 -0.00881381 0.009061847 -0.008292312 -0.0028302027
0.0020615682 0.043778535 0.008146656 0.00897834 -0.005467852 -0.00049965543 0.0052439882 0.00591086
-0.0035294017 0.0030505813 0.0036669772 0.001290244 0.053575683 0.073027655 -0.02324862 0.058856282
-0.066414155 -0.0041313954 0.038785674 -0.0006994706 -0.00043515686 0.034204118 0.027754437 0.02263811
0.0039190864 0.039445244 -0.07153842 0.0761383 0.017192656 -0.05757455 -0.019613246 0.011220706
0.095970534 0.036080502 -0.047441598 -0.06267595 -0.0062690773 0.011564976 0.042417772 0.02214515
-0.050662544 0.04864898 0.00038981243 0.069996946 0.08325017 -0.012480123 0.015788356 0.009441021
-0.005720663 0.044446263 -0.016540825 -0.028230183 -0.028628346 0.0025063432 -0.008091258 -0.0020945962
-0.04009954 -0.032598346 -0.09214604 -0.032770444 0.025561856 -0.034694947 0.069833666 0.03214595
0.08440515 0.043604482 0.07374406 -0.039634757 -0.031603426 0.051498137 0.02943243 -0.014896751
-0.04106923 0.021643335 0.00653833 -0.008488981 -0.0002913993 -0.008420183 0.009588798 0.002031845
0.0057464414 0.0011663997 -0.0045881537 -0.0022550374 0.003649049 0.0011044149 0.0060378728 -0.0065733804
-0.0033682778 -0.011455536 0.0039345683 -0.004605956 0.0004954972 -0.0021335657 -0.09774073 0.0063838004
0.0008796864 -0.0068116207 -0.0020528447 0.0010743043 0.00516265 0.00061043224 0.023975229 0.0050315615
-0.0027758714 -0.01629445 0.10119814 0.12458582 0.13630247 0.067033894 0.08511942 0.092880815
-0.051009346 0.015240005 0.07596456 -0.05474735 0.053657576 0.0067342664 0.024084555 -0.13071483
0.03884404 0.079979815 0.07016346 -0.02307187 0.058528475 -0.059007246 0.05921307 -0.09075624
-0.02084555 -0.004759215 0.0032597708 -0.0056637153 0.035013765 -0.020914268 -0.11394675 -0.06976269

bias f4 [8]
00000000: fb17 973d 87f4 343e 5a33 0fbc 0932 69bd
00000010: f93b e1bd 571c 4fbd 2334 ddbd d908 afbd
0.07377621 0.17671405 -0.0087402705 -0.056932483 -0.10997767 -0.050564136 -0.1080096 -0.085466094

weight f4 [1, 24]
00000000: 6ecc 3e3e ef76 143d 5b66 1dbe 31e1 4f3d
00000010: 23de c93d 466c aabd b827 30bd ad4d 93bd
00000020: 56d9 86bd 18d4 9a3d 88de 8b3e f060 863e
00000030: 8782 963e f3d9 cbbd 9eef 05bc b40e 913d
00000040: 9373 10be 7a8f de3d 5094 0a3d 68b2 b83d
00000050: 98ee 803b 6998 febd 1d9a 053e 2efb 8f3d
0.18632671 0.036246236 -0.15371077 0.05075187 0.09856822 -0.08321433 -0.04300663 -0.0719255
-0.06584422 0.07559985 0.27318215 0.26245832 0.2939646 -0.0995368 -0.008174805 0.070828825
-0.14106588 0.1086721 0.033832848 0.09018403 0.0039346926 -0.12431414 0.13047071 0.070303306
