model_files/LSTNET/lstnet_model.pt (torch, 41275 bytes, 13 tensors)

weight f4 [30, 1, 6, 8]
0	0xbd9286f2	-0.07154645
1	0xbd8010a6	-0.062531754
2	0x3da096c1	0.07841254
3	0xbd8e34e6	-0.06943683
4	0x3c9b186a	0.01893254
5	0x3d929b81	0.07158566
6	0x3e015401	0.12629701
7	0x3d059298	0.032610506
8	0xbe0e9ce9	-0.13927044
9	0x3d20897d	0.03919362
10	0x3d38b896	0.04509791
11	0x3da025af	0.078196876
12	0xbd2500f7	-0.040284123
13	0x3d12459f	0.035710927
14	0xbd37aff0	-0.04484552
15	0xbd205ae0	-0.039149165
16	0xbe1abbe5	-0.15110739
17	0xbd0d9d3c	-0.03457378
18	0xbe3829b8	-0.17984664
19	0xbd9e50fe	-0.07730292
20	0x3da2ef3d	0.07955787
21	0x3e2cc62a	0.16872469
22	0x3e0933bf	0.13398646
23	0x3dbbeb67	0.09175759
24	0xbdcb3348	-0.099218905
25	0x3dcd7c12	0.1003343
26	0xbd89c3f3	-0.067268275
27	0xbd880506	-0.06641583
28	0x3cc4974d	0.023997927
29	0xbcea3c00	-0.028593063
30	0x3da3701a	0.07980366
31	0x3d8e6019	0.06951923
32	0x3db0c82e	0.08631931
33	0xbd109653	-0.03529961
34	0x3d2bb729	0.041922722
35	0x3d2cd4d2	0.04219515
36	0x3d1c1490	0.038105547
37	0x3e1849d5	0.14871915
38	0xbc654df4	-0.013995636
39	0xbd01f4c6	-0.031727575
40	0xbdde07e4	-0.10841349
41	0x3d8121b4	0.063052565
42	0xbdf75962	-0.12077595
43	0x3de38c38	0.11110729
44	0xbdc5d18f	-0.09659111
45	0xbe5ca2c7	-0.2154647
46	0x3db94ed0	0.090482354
47	0x3d9450f5	0.07242004
48	0xbb840ae2	-0.0040296176
49	0x3dc5eb3f	0.0966401
50	0x3d1819c7	0.03713396
51	0xbe183f56	-0.1486791
52	0xbd46b883	-0.048515808
53	0x3d84a585	0.06476883
54	0x3e0665d1	0.13124777
55	0xbe00921f	-0.12555741
56	0x3d217990	0.03942257
57	0xbb91f3c0	-0.004454106
58	0xbce8887a	-0.02838539
59	0xbceefe8f	-0.029174117
60	0x3d890134	0.066896826
61	0x3d509d1e	0.05093109
62	0xbd779375	-0.06044336
63	0x3d4e5f0f	0.050383624
64	0xbdb1a2ff	-0.08673667
65	0x3d8b605d	0.06805489
66	0xbd7499e4	-0.059717074
67	0x3dd1e6ed	0.10249124
68	0xbdc0a931	-0.09407271
69	0xbcc5e754	-0.024158157
70	0xbda9f6cd	-0.08299027
71	0xbd5e02af	-0.054201778
72	0xbd97a813	-0.074051045
73	0xbd9e34d6	-0.077249214
74	0xbd824d8e	-0.06362449
75	0xbd349500	-0.04408741
76	0x3e11a831	0.14224316
77	0x3ded6612	0.11591734
78	0xbd9aedcf	-0.0756489
79	0xbc89dc32	-0.01682863
80	0x3cf9fb29	0.03051527
81	0xbde1f699	-0.11033363
82	0x3d1e62e6	0.038668536
83	0x3e0a08b4	0.13479882
84	0x3d1d0c3b	0.038341742
85	0x3dda3279	0.10654158
86	0x3d0ad770	0.033896863
87	0xbc1cd7c7	-0.00957293
88	0x3de42ffb	0.11141964
89	0x3c0ec386	0.008713609
90	0x3de13261	0.10995937
91	0xbde10d8b	-0.10988911
92	0x3d81d49a	0.06339379
93	0xbdc8cda6	-0.09804849
94	0x3d8eff13	0.06982245
95	0xbd22aa0e	-0.039712958
96	0xbe216db6	-0.15764508
97	0xbe1d5a0e	-0.15366384
98	0x3dc2660a	0.09492119
99	0x3db43cfc	0.08800694
100	0xbd98a21b	-0.07452794
101	0xbd8557ad	-0.065108635
102	0x3d967d14	0.073480755
103	0xbd94e057	-0.07269352
104	0xbddd7462	-0.10813214
105	0x3dc95069	0.0982979
106	0xbbd592e9	-0.006517757
107	0xbdad69bb	-0.08467432
108	0x3c01a867	0.007913685
109	0x3db1d643	0.08683445
110	0xbdd77eeb	-0.105222546
111	0xbd989757	-0.07450741
112	0x3d2622d2	0.04056055
113	0xbdc7c598	-0.09754485
114	0xbe23047f	-0.15919684
115	0xbd4b48b9	-0.0496299
116	0x3de1e97b	0.11030861
117	0x3df3af59	0.11898679
118	0x3d1c7cd7	0.038204994
119	0x3de988cb	0.11403044
120	0xbe0b89b8	-0.13626754
121	0x3c87f1a6	0.01659472
122	0xbe1b535a	-0.15168515
123	0xbdffe400	-0.124946594
124	0xbd05c947	-0.032662656
125	0x3d433fb9	0.047668193
126	0xbdfcfc7b	-0.12352844
127	0x3d2ae380	0.041720867
128	0x3c636e15	0.013881226
129	0x3d5edbf4	0.054408982
130	0xbdd10237	-0.102055006
131	0xbe1c188e	-0.15243742
132	0x3dbc4948	0.09193665
133	0x3ca27483	0.019830948
134	0xbd4d9d99	-0.050199125
135	0x3de4736c	0.111548275
136	0xbd08c152	-0.03338749
137	0x3dd80a69	0.105488606
138	0xbe1604d0	-0.14650273
139	0xbd340ced	-0.04395764
140	0x3d9e3fad	0.07726989
141	0xbd2219e8	-0.039575487
142	0xbdbf65df	-0.09345602
143	0xbc42c4d6	-0.01188775
144	0xbe162bce	-0.14665148
145	0x3cdff4c9	0.027338402
146	0xbddd76eb	-0.108136974
147	0xbd807d3c	-0.062738866
148	0xbdbfe974	-0.093706995
149	0xbd4a6fe6	-0.04942312
150	0x3dde7604	0.108623534
151	0xbd2f414e	-0.04278689
152	0x3d52f5c4	0.05150391
153	0xbd6d4eca	-0.057936467
154	0x3cd04879	0.025425183
155	0x3dd95251	0.10611404
156	0x3d848b45	0.06471876
157	0x3d2d4a0f	0.042306956
158	0xbdede02e	-0.116150245
159	0xbdf6ff9b	-0.120604716
160	0x3da640b3	0.08117809
161	0x3ddd80bf	0.10815572
162	0xbd99b59e	-0.07505344
163	0xbd6759f8	-0.056482285
164	0xbc97943e	-0.018503305
165	0xbca3ecb1	-0.020010324
166	0xbdcdd024	-0.10049465
167	0x3bf40586	0.0074469475
168	0xbd9e6875	-0.07734767
169	0xbd24669f	-0.04013693
170	0xbdc33edd	-0.095334746
171	0x3c80daae	0.015729275
172	0x3cd415ad	0.025889242
173	0x3d656212	0.05600173
174	0xbdf1977a	-0.1179647
175	0xbe19f959	-0.15036525
176	0xbd782b92	-0.060588427
177	0x3d35fcf2	0.04443068
178	0x3e0d0ce9	0.13774456
179	0x3c9c954a	0.019114155
180	0x3e0a7077	0.13519464
181	0x3e06ecd6	0.13176283
182	0x3bb84f06	0.0056246547
183	0x3d7b2a84	0.061319843
184	0xbd5fa69a	-0.054602243
185	0xbd00b565	-0.03142299
186	0xbda20f7d	-0.079131104
187	0xb868136d	-5.5331202e-05
188	0x3e037853	0.12838869
189	0x3dc768f6	0.097368166
190	0xbe116276	-0.14197716
191	0x3d94535c	0.07242462
192	0x3d8f3e01	0.06994248
193	0x3dd0bc0e	0.101921186
194	0x3d8736cc	0.066022485
195	0x3b6a0e53	0.0035714104
196	0xbc1f9dbe	-0.0097421985
197	0xbd7d5112	-0.061844893
198	0x3e0b4ce4	0.1360355
199	0x3c8fdb18	0.017560527
200	0xbdcb0e82	-0.099148765
201	0xbd4deaf0	-0.050272882
202	0xbdfd5fbe	-0.12371777
203	0x3daaea5f	0.08345484
204	0x3e0b31a9	0.13593163
205	0xbe050927	-0.12991773
206	0xbda07c91	-0.07836259
207	0xbde39409	-0.1111222
208	0x3cc796a2	0.02436382
209	0xbda170ae	-0.0788282
210	0xbd289197	-0.04115447
211	0x3d1990cc	0.037491605
212	0x3dfbe4d0	0.12299502
213	0x3dafa2d1	0.08575977
214	0x3dcbeca3	0.09957244
215	0xbd895f79	-0.06707663
216	0x3db0739a	0.08615799
217	0xbb8cbb7d	-0.0042948113
218	0xbc0ec9fe	-0.008715151
219	0x3da22e6c	0.079190105
220	0x3e05f04c	0.13079947
221	0xbddb239b	-0.107001506
222	0xbd48c33d	-0.04901432
223	0x3dce3915	0.10069481
224	0xbdcf9732	-0.1013626
225	0x3d8bd42b	0.06827577
226	0x3df81739	0.12113804
227	0xbdfaa34d	-0.122381784
228	0x3d37dbe4	0.04488744
229	0x3ddf4953	0.10902657
230	0xbda274b8	-0.079324186
231	0x3c637344	0.013882462
232	0x3d9e3546	0.07725005
233	0xbdb7a64a	-0.08967264
234	0xbd72823e	-0.05920624
235	0x3af84a33	0.0018943012
236	0xbcf585de	-0.02997106
237	0xbdbb1984	-0.09135726
238	0xbe055d4a	-0.13023868
239	0xbd5faafc	-0.054606423
240	0xbd84beea	-0.064817265
241	0x3e03f6d4	0.12887126
242	0x3dc4ce5b	0.09609672
243	0xbdb63f87	-0.08898836
244	0x3af56667	0.0018722535
245	0xbda47ee9	-0.08032019
246	0xbdf7669f	-0.1208012
247	0xbce9b31d	-0.02852779
248	0x3d885a0b	0.06657799
249	0x3d5c2321	0.05374444
250	0x3d8e5962	0.06950642
251	0xbcab62c7	-0.020921124
252	0xbd28e263	-0.041231524
253	0xbd64a61a	-0.05582247
254	0xbe00c1de	-0.12573954
255	0x3c178c3c	0.009249743

bias f4 [30]
0	0xbe2d981f	-0.16952561
1	0xbd817304	-0.063207656
2	0xbc819925	-0.015820095
3	0x3d722f75	0.05912729
4	0xbd4d35b6	-0.05010005
5	0x3caa6db1	0.020804258
6	0xbd342045	-0.043976087
7	0x3e366659	0.1781248
8	0xbc26b0b0	-0.0101739615
9	0x3c4b9a3e	0.012426911
10	0x3bd7b8e0	0.006583318
11	0x3db10f88	0.086455405
12	0xbd4d44fb	-0.050114613
13	0xbe2ed32d	-0.17072745
14	0x3d91dfa2	0.07122733
15	0xbb9d5720	-0.004801646
16	0xbc8c1f40	-0.017104745
17	0xbe01695b	-0.12637846
18	0x3dc38a93	0.09547915
19	0x3bf34fe2	0.0074252943
20	0xbe12cb42	-0.14335349
21	0x3d62342a	0.05522553
22	0x3d71a134	0.058991626
23	0xbd880998	-0.06642455
24	0xbc0ac3ce	-0.008469535
25	0x3e09376e	0.13400051
26	0xbdaae002	-0.08343507
27	0xbdd0976d	-0.10185132
28	0xbde46ace	-0.11153184
29	0x3d0464a3	0.032322537

weight_ih_l0 f4 [90, 30]
0	0x3e207b41	0.15672018
1	0x3de2811d	0.11059783
2	0x3e14fbb9	0.1454915
3	0xbe0df21b	-0.13861887
4	0xbd208f44	-0.03919913
5	0xbd5c6c69	-0.053814325
6	0xbb8d13e0	-0.004305348
7	0xbd8070c4	-0.06271508
8	0xbcc84c30	-0.024450392
9	0x3e2088a5	0.15677126
10	0xbd58d914	-0.052941397
11	0x3d62a770	0.055335462
12	0xbe14a95f	-0.14517735
13	0xbd8fff25	-0.07031087
14	0xbe1ac70f	-0.15114997
15	0xbd11fbd0	-0.035640538
16	0x3dd23494	0.10263935
17	0xbe35c4da	-0.17750874
18	0xbe03ad41	-0.1285906
19	0xbd9ab217	-0.07553499
20	0xbe38088d	-0.17972012
21	0xbd7c2ed6	-0.061568104
22	0xbe311ef1	-0.1729696
23	0xbd0f0add	-0.03492247
24	0xbda4da8e	-0.080494985
25	0x3e37a5f6	0.17934403
26	0xbd1ce820	-0.03830731
27	0xbcc49ee2	-0.024001542
28	0x3c0b46f2	0.008500801
29	0xbe1c1bda	-0.15245
30	0x3e15078b	0.14553659
31	0xbbabfd00	-0.005248666
32	0x3da5f83c	0.081039876
33	0x3de82f5c	0.11337158
34	0xbd6c993c	-0.057763323
35	0x3db18e10	0.086696744
36	0xbe2bf9d9	-0.16794528
37	0xbddec559	-0.10877485
38	0xbd12cf18	-0.03584203
39	0x3e6ca1b1	0.23108555
40	0xbd698884	-0.057014957
41	0x3e007646	0.12545118
42	0x3df523c1	0.1196971
43	0xbd1f77de	-0.038932674
44	0x3e5a46db	0.21316092
45	0x3ca16c20	0.019704878
46	0x3e3292bc	0.17438787
47	0x3df33a08	0.11876303
48	0xbe3ae3f1	-0.18251015
49	0x3e0187d5	0.12649472
50	0x3e101382	0.14069942
51	0x3e34b3da	0.17646733
52	0x3e2c23c8	0.16810524
53	0xbdc9c3c2	-0.09851791
54	0x3d692c55	0.056927044
55	0x3db049dc	0.086078376
56	0xbc965f70	-0.018356055
57	0x3cf7903a	0.03022014
58	0x3e2cf51e	0.1689038
59	0x3e4f3b92	0.20237568
60	0xbe1d7380	-0.15376091
61	0x3e1ec0fa	0.15503302
62	0xbdbb057c	-0.091319054
63	0xbd216cfa	-0.03941057
64	0xbdca3f5e	-0.098753676
65	0xbe223f50	-0.15844464
66	0xbe1d39f8	-0.15354145
67	0xbd690e31	-0.0568983
68	0x3df49da0	0.11944127
69	0xbd855a36	-0.06511347
70	0xbdc3643a	-0.09540601
71	0xbddeba0f	-0.108753316
72	0xbb9b441b	-0.0047383434
73	0x3e073232	0.13202742
74	0x3e057db9	0.1303624
75	0x3d3140e0	0.04327476
76	0xbe0a516a	-0.1350762
77	0xbce620ea	-0.028091867
78	0xbdab8c71	-0.083763964
79	0x3d9e450f	0.07728016
80	0x3e14a1f4	0.14514905
81	0x3ddb49a0	0.10707402
82	0x3e0ad46e	0.13557598
83	0xbe225d1a	-0.15855828
84	0x3d0a9fb6	0.03384372
85	0x3badba60	0.0053017586
86	0x3da007e4	0.07814005
87	0x3e0f8a80	0.14017677
88	0x3aed4d0a	0.0018104624
89	0x3de20770	0.11036575
90	0xbda67c70	-0.08129203
91	0x3d708dbe	0.058728926
92	0x3e16aa31	0.1471336
93	0x3dc71734	0.097212225
94	0x3d9b9f54	0.07598749
95	0xbda57b5a	-0.08080168
96	0xbd49c7ac	-0.049262688
97	0xbe26f92c	-0.16305989
98	0x3e037240	0.12836552
99	0x3e1e8875	0.15481742
100	0xbdd3430c	-0.103155226
101	0xbde53785	-0.1119223
102	0xbd823ceb	-0.063592754
103	0xbd364fb5	-0.04450961
104	0xbccc031f	-0.024903832
105	0xbd8aefd0	-0.06784022
106	0xbe36507c	-0.1780414
107	0x3e34c726	0.17654094
108	0xbbe2c17f	-0.006920039
109	0xbddb0f6a	-0.106962994
110	0x3d949078	0.07254118
111	0xbd81df16	-0.063413784
112	0x3da8cd40	0.08242273
113	0x3bc5d5ce	0.0060374504
114	0x3d78b546	0.06071975
115	0xbe1c37d6	-0.15255675
116	0xbe1ba240	-0.15198612
117	0x3e24c500	0.16090775
118	0xbd7980ba	-0.06091378
119	0x3e123baa	0.14280573
120	0xbcd1a3d4	-0.025590815
121	0x3da9f9d8	0.08299607
122	0xbdbd1960	-0.092333555
123	0x3c25ca50	0.010119036
124	0x3bb9c000	0.00566864
125	0xbc8126dc	-0.0157656
126	0x3cce4e00	0.025183678
127	0x3d8a43d2	0.06751217
128	0xbcf21f48	-0.029555932
129	0xbd8859ff	-0.066577904
130	0xbdcae828	-0.099075615
131	0x3d5ac61b	0.053411584
132	0xbdea3e45	-0.11437658
133	0xbdbfbb76	-0.09361927
134	0x3e1f212e	0.15540001
135	0xbda1abcf	-0.07894098
136	0xbdbb856e	-0.09156309
137	0xbd43dab2	-0.047815986
138	0x3dceef13	0.101041935
139	0x3dfe7bc3	0.124259494
140	0xbb99b4a0	-0.0046907216
141	0xbdfbb3af	-0.12290131
142	0x3db8a2c0	0.09015417
143	0x3e215182	0.15753749
144	0x3e19ad31	0.15007474
145	0xbdaf86d1	-0.08570636
146	0x3db9a724	0.09065083
147	0x3d5d387a	0.05400894
148	0xbca683b4	-0.020326473
149	0x3c977194	0.018486775
150	0x3e0ddccb	0.13853757
151	0xbdb97da7	-0.090571694
152	0x3d446554	0.047948197
153	0xbde38f04	-0.111112624
154	0xbd44ddb0	-0.04806298
155	0x3dd43b44	0.103628665
156	0xbe166fac	-0.14691037
157	0x3e3600b2	0.17773703
158	0xbdebd23e	-0.1151471
159	0xbc6bf64f	-0.014401986
160	0x3d1ba8d4	0.038002804
161	0x3d916a10	0.07100308
162	0x3e0f2d82	0.13982204
163	0xbce84df8	-0.02835749
164	0x3e311716	0.17293963
165	0xbc6895d0	-0.014195874
166	0xbe02ad63	-0.12761454
167	0x3e13855f	0.14406346
168	0x3d0c72c4	0.034289137
169	0x3d73b608	0.05949977
170	0x3c84bf70	0.016204566
171	0x3dca3504	0.09873393
172	0x3dddee80	0.10836506
173	0xbdad89b5	-0.08473531
174	0x3ddc07b4	0.10743657
175	0x3d4b6b20	0.04966271
176	0xbe2ef5ad	-0.17085905
177	0x3a860f10	0.0010227878
178	0xbd90e073	-0.0707406
179	0x3d9ab4ac	0.07553992
180	0xbdc99e8d	-0.09844694
181	0xbc52642c	-0.012841266
182	0x3dac0335	0.08399049
183	0xbb16ef6b	-0.0023030888
184	0xbc9d6c58	-0.019216701
185	0x3e09d3ed	0.1345975
186	0x3d463d40	0.048398256
187	0x3e0a2d9a	0.13493958
188	0xbd9e5dc6	-0.077327296
189	0x3d920727	0.071302705
190	0xbddc7dd8	-0.1076619
191	0xbd73574a	-0.059409417
192	0xbd994632	-0.07484092
193	0xbd3f059c	-0.04663621
194	0xbe2baec3	-0.16765885
195	0xbe353352	-0.17695358
196	0xbd6a5b58	-0.05721602
197	0xbbb3da3c	-0.005488662
198	0x3dd13348	0.10214859
199	0xbe2435fe	-0.16036221
200	0xbd93c1e1	-0.07214714
201	0xbe31d37a	-0.17365828
202	0x3e084968	0.13309252
203	0xbc711298	-0.014713906
204	0x3e1e30b7	0.1544827
205	0xbe11f253	-0.14252596
206	0x3e2491e0	0.16071272
207	0x3e07cd3c	0.13261884
208	0xbd34e7ff	-0.04416656
209	0xbe29d5ab	-0.16585414
210	0xbe233357	-0.15937553
211	0xbda51d84	-0.0806227
212	0x3d489b39	0.048976157
213	0xbd130feb	-0.035903852
214	0xbdca2416	-0.09870164
215	0x3e18ef29	0.14934982
216	0xbb57d980	-0.0032936037
217	0x3e4638f5	0.19357665
218	0x3d6e0230	0.058107555
219	0x3d238e36	0.039930545
220	0xbd055f50	-0.0325616
221	0x3e1f157e	0.15535542
222	0xbe00bcfc	-0.12572092
223	0xbd9e0bcf	-0.07717096
224	0x3e331571	0.17488648
225	0x3da5dd10	0.08098805
226	0xbd4ce218	-0.050020307
227	0x3b67abf6	0.00353503
228	0xbe005fcc	-0.12536544
229	0x3c6f27a7	0.014596856
230	0xbcd74840	-0.026279569
231	0xbdc0b8a5	-0.09410218
232	0xbd84a4b9	-0.06476731
233	0xbcf93769	-0.03042193
234	0x3c0a0069	0.008422949
235	0x3c8bb848	0.017055646
236	0xbdf22bbf	-0.1182475
237	0xbd3399d1	-0.043847863
238	0xbdb478b2	-0.08812083
239	0x3d8cb328	0.06870109
240	0xbd64e203	-0.055879604
241	0xbd652404	-0.05594255
242	0xbc487f40	-0.01223737
243	0x3e14e280	0.14539528
244	0xbe2ddbd9	-0.16978396
245	0x3da8a45d	0.08234475
246	0xbd851440	-0.06498003
247	0x3d53ddbc	0.051725134
248	0x3d5abc3c	0.05340217
249	0xbdafd004	-0.08584598
250	0xbd1d2028	-0.038360745
251	0x3d9d241d	0.07672904
252	0x3e1d147e	0.15339848
253	0x3d22efe9	0.039779577
254	0xbdad12b8	-0.08450836
255	0x3df5b7cc	0.11997947

weight_hh_l0 f4 [90, 30]
0	0xbe0bb17d	-0.13641925
1	0xbd94d3bd	-0.07266948
2	0x3dbb28a7	0.09138613
3	0xbdd34275	-0.1031541
4	0x3d8522dd	0.0650079
5	0xbd48d3d7	-0.04903015
6	0x3cc6a4e6	0.024248552
7	0xbdb05e9b	-0.086117946
8	0xbdb30016	-0.08740251
9	0x3db114b8	0.0864653
10	0xbe328bad	-0.17436095
11	0xbd44876e	-0.04798072
12	0xbbf7b7a3	-0.007559733
13	0xbd6a8634	-0.057256892
14	0x3e288fa8	0.1646105
15	0x3daf1019	0.08547992
16	0xbadb0c2b	-0.0016712
17	0x3e47405a	0.19458142
18	0xbe2f7573	-0.17134647
19	0x3e094fa2	0.13409284
20	0x3e2b5b89	0.16734137
21	0xbd075a89	-0.033045325
22	0xbd4a9262	-0.049456008
23	0x3d997491	0.074929364
24	0xbd89d0e9	-0.067292996
25	0x3e2965a4	0.16542679
26	0xbe285789	-0.16439642
27	0xbc884483	-0.016634231
28	0xbd6531a2	-0.055955537
29	0xbe102311	-0.14075877
30	0x3cf7e1ba	0.030259002
31	0xbd4909cd	-0.049081612
32	0xbdb1e3d3	-0.08686032
33	0xbe0f29a2	-0.13980725
34	0x3dde3441	0.108498104
35	0x3dd84b29	0.10561211
36	0x3d971f9a	0.073790744
37	0x3da55c62	0.08074261
38	0xbe4be0d1	-0.1990998
39	0xbe0a5442	-0.13508704
40	0x3e00d60c	0.12581652
41	0x3e2d7291	0.16938235
42	0xbd8c5fc7	-0.068542056
43	0xbdade538	-0.08490986
44	0x3d892a96	0.06697576
45	0x3c9e34e1	0.019312324
46	0xbd8ef22f	-0.069797866
47	0x3e1d73fa	0.15376273
48	0xbcef0c0d	-0.029180551
49	0xbc79b752	-0.015241461
50	0xbdaabed6	-0.0833718
51	0x3dd309dd	0.10304616
52	0xbe1b4262	-0.15162042
53	0xbdc5d6be	-0.096600994
54	0xbe1f4af8	-0.15555942
55	0x3b966a0d	0.004590279
56	0xbc2da567	-0.010598517
57	0xbc657900	-0.014005899
58	0x3dec23f8	0.11530298
59	0xb9de007c	-0.000423435
60	0x3d44621c	0.047945127
61	0xbde96f5f	-0.113981955
62	0xbbc9a9fb	-0.0061542965
63	0x3d55d048	0.052200586
64	0xbc14d831	-0.009084747
65	0x3d2a079b	0.04151116
66	0xbd031cec	-0.032010004
67	0x3e405844	0.1878367
68	0xbe301152	-0.17194107
69	0xbdf71c28	-0.12065917
70	0xbdf50da1	-0.1196549
71	0xbdcd5a12	-0.10026945
72	0xbd3ca8f4	-0.046059564
73	0xbc0ae08c	-0.008476388
74	0x3e2a89d0	0.16654134
75	0x3d96de5d	0.07366631
76	0xbdd5de5a	-0.10442801
77	0xbc659f3e	-0.014015017
78	0xbdd12233	-0.10211601
79	0xbd612564	-0.0549673
80	0x3b8972a8	0.0041945763
81	0x3e18b896	0.14914164
82	0x3e372f3d	0.17889114
83	0xbe2536c7	-0.16134177
84	0xbdfc711f	-0.12326264
85	0xbd8a55c8	-0.06754643
86	0x3d7a873d	0.06116413
87	0xbc7ed658	-0.015554033
88	0x3e2db910	0.16965127
89	0xbe15a2ab	-0.14612834
90	0x3ca9e803	0.020740515
91	0xbda6744c	-0.081276506
92	0xbdee3c39	-0.1163258
93	0xbd37991f	-0.044823762
94	0x3e0edd62	0.13951638
95	0xbe00eb91	-0.12589861
96	0xbdee9c7f	-0.11650943
97	0xbdb68c87	-0.08913522
98	0xbe254bc1	-0.16142179
99	0xbe1b3714	-0.1515773
100	0xbc4c2fd5	-0.012462576
101	0x3e263985	0.1623288
102	0xbdae073a	-0.08497472
103	0xbe1a66c7	-0.15078269
104	0xbe19c9c2	-0.15018371
105	0x3de9691a	0.11397
106	0xbdd7667b	-0.105175935
107	0x3cdaf2a3	0.026727026
108	0x3d89a624	0.06721142
109	0xbd8ff1e8	-0.07028562
110	0xbd0a8e56	-0.03382715
111	0x3e2bd294	0.16779548
112	0xbd5700d7	-0.052491035
113	0xbd452ed7	-0.048140373
114	0x3d9e905c	0.07742378
115	0x3e160fde	0.1465449
116	0x3e1bad3d	0.15202804
117	0xbc4a67b1	-0.0123538235
118	0x3df89660	0.12138057
119	0x3ddbf664	0.10740355
120	0x3de3c334	0.111212164
121	0xbda08a52	-0.078388825
122	0x3e0ffe9d	0.14061971
123	0x3e20ab10	0.15690255
124	0xbe38ba73	-0.18039875
125	0xbd8608bb	-0.06544634
126	0xbe217b24	-0.1576963
127	0xbd26a95b	-0.040688854
128	0x3d9b79cc	0.0759159
129	0xbe147c0e	-0.14500448
130	0x3e11892e	0.14212486
131	0xbe258348	-0.16163361
132	0xbddb8bcd	-0.10720024
133	0x3d00efad	0.031478573
134	0x3cf34d05	0.029699812
135	0x3e268540	0.16261768
136	0x3be6d95a	0.0070449533
137	0xbc3e7a16	-0.011625787
138	0xbe314b87	-0.17313968
139	0xbe2753b1	-0.1634052
140	0xbd6aced0	-0.057326138
141	0xbde003c6	-0.1093822
142	0xbdb9dd2b	-0.090753876
143	0x3ca16d60	0.019705474
144	0xbdba4290	-0.09094727
145	0xbdf677c9	-0.12034566
146	0x3e38cefa	0.18047705
147	0x3dd396de	0.1033151
148	0xbd17c0a1	-0.03704894
149	0xbd84171b	-0.064497195
150	0x3db04045	0.086060084
151	0xbd73152e	-0.05934637
152	0xbcec2dbe	-0.028830405
153	0xbe31b2cf	-0.17353366
154	0xbdb33510	-0.08750355
155	0x3e18088e	0.14847013
156	0xbe1ee8f3	-0.1551855
157	0xbd316e22	-0.04331792
158	0x3d5fb244	0.054613367
159	0xbe103007	-0.14080821
160	0x3e19e239	0.15027703
161	0xbe271609	-0.16317
162	0x3de58b42	0.11208202
163	0x3e1f4ab9	0.15555848
164	0xbd1113c8	-0.035419255
165	0xbdd535d3	-0.10410657
166	0xbe0bd0bf	-0.13653849
167	0xbd48a758	-0.048987716
168	0x3d68db4c	0.056849763
169	0x3e21152c	0.15730733
170	0xbcf41112	-0.029793296
171	0xbbbfaf29	-0.005849738
172	0x3d3c2da6	0.04594197
173	0x3dde0dab	0.10842451
174	0x3bf18d29	0.007371564
175	0x3dd19981	0.10234357
176	0x3dace5a2	0.084422365
177	0x3e40c484	0.18824965
178	0xbcd718d8	-0.026256964
179	0x3cfafa6c	0.030636989
180	0xbe4f5a8e	-0.20249388
181	0xbc0dc0aa	-0.008651892
182	0xbd0f4ba9	-0.034984265
183	0x3b12b700	0.0022386909
184	0x3ddf15da	0.1089284
185	0x3d83d885	0.06437782
186	0x3d7e8f40	0.062148333
187	0xbe275d89	-0.16344275
188	0xbdf3445b	-0.11878272
189	0xbda411b5	-0.0801119
190	0xbe579954	-0.21054584
191	0xbe1f165b	-0.15535872
192	0xbe01aded	-0.12664004
193	0xbd576053	-0.052582096
194	0xbd79e284	-0.061007038
195	0xbdc9f630	-0.0986141
196	0xbda2b982	-0.07945539
197	0x3df2b798	0.11851424
198	0x3d774cf2	0.060376115
199	0x3cc27246	0.02373613
200	0xbe20bc1a	-0.15696755
201	0x3e2cb098	0.1686424
202	0x3e2d3b1c	0.1691708
203	0xbba36dca	-0.004987453
204	0x3d66dea9	0.05636469
205	0x3d8f2834	0.0699009
206	0x3d17cebc	0.03706239
207	0xbe2dcd87	-0.16972934
208	0xbdd6fd67	-0.104975514
209	0xbc2dbcae	-0.010604067
210	0xbce91213	-0.028451001
211	0x3e4d8783	0.20071225
212	0x3d1a90a6	0.037735604
213	0x3dc75713	0.09733405
214	0x3a3deb05	0.00072447985
215	0xbe0de824	-0.13858086
216	0xbe0262a1	-0.12732936
217	0xbe299465	-0.16560514
218	0x3dfd6f0c	0.12374696
219	0x3e2b0730	0.1670196
220	0x3cf39cd3	0.029737866
221	0xbdb7c8eb	-0.08973869
222	0x3cc7affc	0.024375908
223	0xbd73fab4	-0.05956526
224	0x3d3ad665	0.04561462
225	0xbd3bd7d5	-0.04586013
226	0x3ce81b51	0.028333338
227	0xbcf9f79b	-0.030513575
228	0x3e178669	0.14797367
229	0xbe0c34a6	-0.13691959
230	0xbd89d555	-0.06730143
231	0xbcf71ef4	-0.030166127
232	0x3e173ba3	0.14768843
233	0x3ca00de9	0.019537883
234	0xbe1a21ad	-0.15051909
235	0xbd273e93	-0.04083116
236	0x3ddf9835	0.10917703
237	0x3d073f9e	0.033019654
238	0xbe4c5db2	-0.19957617
239	0xbde0f9e7	-0.10985165
240	0x3db7fb26	0.0898345
241	0xbc04d48d	-0.008107317
242	0x3c46fb21	0.012144835
243	0xbde29df8	-0.110652864
244	0xbd9162b8	-0.07098907
245	0x3de245f8	0.11048502
246	0xbe1a8d88	-0.15093052
247	0xbe2a1024	-0.1660772
248	0x3d8de32a	0.06928094
249	0xbd257597	-0.040395346
250	0xbdeff15a	-0.11715956
251	0x3d719e68	0.05898896
252	0x3deecf6e	0.11660658
253	0xbd989576	-0.074503824
254	0xbde8831b	-0.113531314
255	0xbe1e69b8	-0.15470016

bias_ih_l0 f4 [90]
0	0x3e2379ee	0.15964481
1	0xbdbeb305	-0.09311489
2	0xbd868086	-0.06567483
3	0xbe1273ba	-0.14301959
4	0x3d514bc3	0.051097643
5	0xbdef588e	-0.11686812
6	0x3e1c90f2	0.15289667
7	0xbd2212e2	-0.03956879
8	0xbdb320ea	-0.08746512
9	0xbe28b7d9	-0.16476382
10	0xbe296075	-0.16540702
11	0x3e24c387	0.16090213
12	0xbde1fdb5	-0.11034719
13	0x3d8e8c0d	0.06960306
14	0xbcad3dd2	-0.021147642
15	0xbd2dbf42	-0.042418726
16	0x3aff52a7	0.0019479588
17	0x3d4b413e	0.049622767
18	0x3c7563ab	0.014977376
19	0xbe655957	-0.22397362
20	0x3e0f8ced	0.14018603
21	0xbe102882	-0.14077953
22	0x3e0590d3	0.13043527
23	0xbdac8be8	-0.084251225
24	0x3e032893	0.12808447
25	0xbd91c869	-0.07118303
26	0xbe2e5027	-0.17022763
27	0x3cb80acb	0.022466084
28	0xbe1cd969	-0.1531731
29	0xbd77201c	-0.060333356
30	0xbd91c9ed	-0.071185924
31	0xbe23fd7c	-0.16014665
32	0x3b3e5333	0.002904129
33	0x3c99fbfe	0.018796917
34	0x3e0638d2	0.13107613
35	0x3c4c443c	0.01246744
36	0x3d7bb1e0	0.06144893
37	0x3e899038	0.26867843
38	0x3deeeaa3	0.11665847
39	0x3ddd2d81	0.10799695
40	0x3df0a958	0.1175105
41	0x3e19cea1	0.15020229
42	0xbd5b73da	-0.05357728
43	0x3cda9a3e	0.026684877
44	0x3dc9b384	0.09848693
45	0x3e10eda0	0.14153147
46	0x3dc46445	0.095894374
47	0x3cc6866b	0.024234017
48	0xbd6b200d	-0.057403613
49	0xbd8d300d	-0.068939306
50	0xbd5c01fc	-0.05371283
51	0x3e3f6edd	0.18694635
52	0x3da113e1	0.0786512
53	0xbb8653cf	-0.004099346
54	0xbd7a3074	-0.061081365
55	0x3e769f09	0.24084105
56	0xbd3bbad9	-0.04583249
57	0xbddade8d	-0.106869794
58	0xbe058bf3	-0.13041668
59	0x3e2fc0ae	0.17163345
60	0xbe3d5a88	-0.18491566
61	0xbe176d31	-0.14787747
62	0x3de3fc49	0.11132104
63	0x3d4b89e0	0.049692035
64	0x3e56b068	0.20965731
65	0x3b981c11	0.0046420177
66	0x3d98ef24	0.074674875
67	0x3d3a42f9	0.045474026
68	0xbe0591a8	-0.13043845
69	0x3d207a7a	0.039179303
70	0x3c3af85e	0.011411754
71	0x3b7d66d1	0.003866602
72	0x3e2b7842	0.16745093
73	0xbd34ee58	-0.044172615
74	0xbe2dc4f4	-0.16969663
75	0xbe16c775	-0.14724524
76	0x3dee6564	0.116404325
77	0x3d5b347f	0.05351686
78	0x3d856ca8	0.06514865
79	0x3c6255e7	0.013814426
80	0xbdf4f48e	-0.119607076
81	0x3da79459	0.08182592
82	0xbe12e4b4	-0.14345056
83	0xbda92f6a	-0.08260997
84	0xbd25cab5	-0.04047652
85	0x3d96fa58	0.07371968
86	0xbe8f7284	-0.28017056
87	0x3de92a54	0.113850266
88	0x3e2a30fd	0.1662025
89	0x3e089e20	0.1334157

bias_hh_l0 f4 [90]
0	0x3da66ae2	0.08125855
1	0xbde605db	-0.112315856
2	0x3e03ac39	0.12858666
3	0x3d732408	0.059360534
4	0xbc97ec14	-0.018545188
5	0xbd9ca6a5	-0.076489724
6	0x3dfd4d19	0.12368221
7	0x3e41b4e0	0.18916655
8	0xbe10e689	-0.14150442
9	0x3db488a3	0.08815124
10	0xbdabe9ac	-0.08394179
11	0x3d75b362	0.059985526
12	0x3ddb847e	0.1071863
13	0x3e7b3b60	0.24534369
14	0xbdf3c3d8	-0.119025886
15	0x3da64660	0.08118892
16	0xbe175901	-0.14780046
17	0xbe7c32aa	-0.24628702
18	0xbe0103e1	-0.12599136
19	0x3d938364	0.07202795
20	0xbe3b90e5	-0.18316992
21	0x3d1042f9	0.03522012
22	0x3d4bf3ca	0.049793042
23	0xbddb48d9	-0.10707254
24	0xbdee826f	-0.11645972
25	0xbe2d282d	-0.16909857
26	0xbe092fe8	-0.13397181
27	0xbb4cd8ac	-0.0031257076
28	0xbd2e6b17	-0.042582598
29	0xbdc022b3	-0.09381618
30	0x3c8f7efe	0.01751661
31	0xbda15539	-0.07877583
32	0x3d86d7d0	0.06584132
33	0x3bf3328c	0.007421797
34	0xbd7776f6	-0.060416184
35	0x3db5e275	0.08881084
36	0x3e8d4e4b	0.27598795
37	0x3c668686	0.014070159
38	0x3d69c690	0.05707413
39	0x3e41cf93	0.1892684
40	0x3e6dae3d	0.23210998
41	0x3cccac92	0.024984632
42	0xbda86cf7	-0.082239084
43	0x3e019fc0	0.12658596
44	0x3e074823	0.13211112
45	0xbdb89621	-0.0901301
46	0xbe174d13	-0.14775495
47	0xbded5669	-0.11588747
48	0xbe3897c2	-0.18026641
49	0x3dd7f03b	0.10543867
50	0x3d26ac5c	0.04069172
51	0x3db8d74e	0.09025441
52	0x3d809337	0.06278079
53	0xbe036d93	-0.12834768
54	0xbe005333	-0.12531738
55	0x3dbc4333	0.09192505
56	0xbe0ca854	-0.13736087
57	0x3d83befa	0.0643291
58	0x3d47d3fb	0.048786145
59	0x3de6ee3b	0.112759076
60	0xbe4da5b9	-0.2008275
61	0xbe4a2464	-0.19740444
62	0xbe1d820e	-0.15381643
63	0xbe0ac82c	-0.13552922
64	0x3da52e47	0.08065467
65	0x3cc76db4	0.024344303
66	0xbca9d5f0	-0.020731896
67	0x3cde93e5	0.027170131
68	0x3ce2ef0a	0.027701873
69	0xbe306374	-0.17225438
70	0x3e1088d9	0.14114703
71	0x3e74f691	0.23922183
72	0x3dbbbd4e	0.091669664
73	0x3e22945a	0.15876904
74	0xbe5584ac	-0.20851392
75	0x3df50d0c	0.11965379
76	0x3d4d9065	0.050186533
77	0x3db12426	0.08649473
78	0xbe25758f	-0.16158126
79	0xbdc9d2bd	-0.09854648
80	0x3d7d1b7a	0.06179378
81	0x3d9379bb	0.072009526
82	0xbdaa6c7a	-0.083214715
83	0x3db4c2f8	0.0882625
84	0xbd23400d	-0.039856005
85	0x3ce85fb1	0.028365942
86	0x3dc90a04	0.098163635
87	0xbdd49242	-0.10379459
88	0x3dff98d1	0.12480319
89	0x3ded3a9c	0.115834445

weight_ih_l0 f4 [15, 30]
0	0xbe80cea1	-0.25157645
1	0xbeacee7c	-0.337757
2	0x3e7ad260	0.24494314
3	0x3e1279c4	0.14304262
4	0xbed8c7aa	-0.42339832
5	0x3d8685e8	0.06568509
6	0xbd9665b0	-0.07343614
7	0x3ccecb48	0.025243416
8	0x3e1de2f0	0.15418601
9	0x3aa6efdc	0.0012736279
10	0x3ea493a6	0.32143897
11	0x3d312640	0.04324937
12	0xbe9cd11d	-0.3062829
13	0x3ebef72e	0.37297958
14	0xbe0b8c96	-0.13627848
15	0x3e317044	0.17327982
16	0xbe781477	-0.24226557
17	0x3e609022	0.21929982
18	0xbd50aba1	-0.050944928
19	0xbeac11fb	-0.33607468
20	0xbec19ab6	-0.37813348
21	0xbe1a9556	-0.1509603
22	0xbe163e54	-0.14672214
23	0xbec4f6e1	-0.38469604
24	0xbe5c9987	-0.21542941
25	0xbcb69e10	-0.022292167
26	0x3dc69690	0.09696686
27	0x3cdba5a3	0.02681238
28	0xbe65d970	-0.22446227
29	0x3e5847ce	0.21121141
30	0x3da0715f	0.07834124
31	0x3ed6895a	0.41901666
32	0x3ebe9719	0.37224653
33	0x3e4da521	0.20082523
34	0xbe4a1943	-0.19736199
35	0x3e08f1c5	0.13373478
36	0xbe9e056e	-0.30863518
37	0xbdd04706	-0.10169797
38	0xbe9dbf12	-0.30809838
39	0xbee5b891	-0.44867375
40	0x3e7b9840	0.24569798
41	0x3e8cf957	0.2753398
42	0xbe3ec766	-0.18630752
43	0xbeb4442b	-0.35208258
44	0x3e90906b	0.28235182
45	0xbe4c0b2d	-0.19926138
46	0x3e0f9ce8	0.14024699
47	0xbed1d2ec	-0.40981233
48	0x3e00b26e	0.12568066
49	0xbed7c3ac	-0.42141473
50	0x3ec7bf28	0.39013028
51	0xbd87b4aa	-0.06626256
52	0x3e1937f0	0.14962745
53	0xbc4b90fa	-0.012424702
54	0x3e1d4aef	0.15360616
55	0x3e34c1f8	0.17652118
56	0x3ea3ad36	0.31968087
57	0xbe2a3ab5	-0.16623957
58	0xbe258c6f	-0.16166852
59	0xbef25cd1	-0.47336438
60	0x3e3abc98	0.18236005
61	0xbe9eb12b	-0.30994543
62	0xbd078914	-0.033089712
63	0x3e19f8d3	0.15036325
64	0xbeb3f592	-0.35148293
65	0x3e9422db	0.28932843
66	0x3d3efb48	0.04662636
67	0x3ecb7220	0.39735508
68	0xbe4f3ddf	-0.20238446
69	0x3eaa6ad1	0.3328462
70	0xbd0ccce8	-0.0343751
71	0xbc6d2399	-0.014473819
72	0x3eb9c40d	0.36282387
73	0xbd4a66e5	-0.049414534
74	0xbde709c2	-0.11281158
75	0x3e4c29f0	0.19937873
76	0xbd50bf68	-0.05096379
77	0xbcf2e810	-0.029651672
78	0x3dab82d6	0.08374564
79	0xbe474a5c	-0.1946196
80	0xbe07d03e	-0.13263032
81	0x3edcb5b9	0.43107393
82	0x3d46fc40	0.048580408
83	0x3c2d8b46	0.010592287
84	0xbeb3c8e1	-0.35114196
85	0xbe3cd6e8	-0.18441355
86	0xbe710e31	-0.2354057
87	0x3e68d97e	0.22739217
88	0xbec332d4	-0.38124716
89	0xbedf458b	-0.43607745
90	0x3e84deec	0.25951326
91	0x3e5c0b74	0.21488744
92	0x3e91610f	0.28394362
93	0xbd74c394	-0.05975683
94	0x3ea0bf14	0.3139578
95	0xbed3fdb9	-0.41404513
96	0xbed6e32f	-0.41970202
97	0xbe414832	-0.18875197
98	0x3e9abcd2	0.30222183
99	0xbe83d729	-0.25750092
100	0x3e886d2c	0.26645792
101	0xbcf73bc9	-0.030179875
102	0x3e3518d2	0.1768525
103	0x3dd897df	0.10575842
104	0xbd06803f	-0.03283715
105	0x3de98c00	0.11403656
106	0x3e304114	0.17212325
107	0x3e54b43c	0.20771879
108	0xbe19cda1	-0.15019847
109	0x3d4a11e7	0.04933348
110	0x3ed38c06	0.41317767
111	0x3e073b59	0.13206233
112	0x3e0295e4	0.12752491
113	0xbe465739	-0.1936921
114	0x3e516e3c	0.20452207
115	0x3e3b7e80	0.18309975
116	0x3dcd9148	0.10037476
117	0x3e3cc865	0.1843582
118	0xbe504b4d	-0.20341225
119	0xbe4851cd	-0.19562455
120	0x3ee2eb17	0.44319984
121	0x3ea50777	0.32232258
122	0x3ed00285	0.40626922
123	0x3e6aed8b	0.22942178
124	0x3ec1a878	0.37823844
125	0x3e6a6e60	0.22893667
126	0x3ece363a	0.40275747
127	0xbe53230e	-0.20618841
128	0x3e847408	0.25869775
129	0x3e17ccb1	0.14824177
130	0x3eae66ea	0.34062892
131	0x3e16d432	0.14729384
132	0x3eb43cec	0.3520273
133	0xbe1e739f	-0.15473793
134	0x3e505358	0.20344293
135	0x3e48a8b0	0.19595599
136	0x3eaf28ea	0.34210902
137	0x3e8c3e2e	0.2739119
138	0x3b305e59	0.0026911704
139	0xbd91630c	-0.0709897
140	0xbea5c830	-0.32379293
141	0x3ed032c1	0.40663722
142	0xbdea0dd0	-0.11428416
143	0x3db51088	0.08841044
144	0x3ee2c25c	0.4428891
145	0xbc960520	-0.01831299
146	0xbec8fa02	-0.3925324
147	0x3cb29040	0.0217973
148	0xbed314c5	-0.41226783
149	0xbd911dc7	-0.07085758
150	0xbeb00aed	-0.34383336
151	0x3ec41388	0.3829615
152	0x3e67652d	0.22597189
153	0xbdaa9fbc	-0.08331248
154	0xbd2c8624	-0.042120114
155	0xbe5e8253	-0.21729402
156	0x3e1e7570	0.15474486
157	0xbc0e6677	-0.008691422
158	0xbe6de8df	-0.23233365
159	0xbe408e02	-0.18804172
160	0x3d940b68	0.07228738
161	0xbd969953	-0.07353463
162	0xbee0ca37	-0.43904278
163	0x3e67f6a3	0.22652678
164	0xbe4e0df8	-0.20122516
165	0x3edee6cc	0.4353546
166	0xbcce1990	-0.025158674
167	0x3de796e9	0.11308081
168	0x3e630cec	0.22172898
169	0xbecbcfe4	-0.39807045
170	0xbe8dd35a	-0.2770031
171	0x3e938813	0.28814754
172	0x3d8795c8	0.066203654
173	0x3ed13067	0.4085724
174	0xbecd61cf	-0.40113685
175	0xbeb7a086	-0.35864657
176	0x3e88229c	0.26588905
177	0x3e81d72a	0.2535947
178	0x3e68db06	0.22739801
179	0x3e8ebd9b	0.27879032
180	0xbe23c06e	-0.15991375
181	0x3ee0cb10	0.43904924
182	0xbe2f8eeb	-0.17144363
183	0xbec3904d	-0.3819603
184	0xbed174bc	-0.40909374
185	0xbe806a84	-0.25081265
186	0xbe51bc6c	-0.20482033
187	0xbeb1597c	-0.34638584
188	0xbe6b8691	-0.23000552
189	0x3d6fbf2e	0.058531933
190	0xbe94480a	-0.2896121
191	0x3e33c747	0.17556487
192	0x3e7fe9ad	0.24991484
193	0xbd52db08	-0.051478416
194	0xbe2ed027	-0.17071591
195	0xbb6ee580	-0.003645271
196	0x3dccbb68	0.099966824
197	0xbee47526	-0.44620627
198	0xbe8c0bb7	-0.27352688
199	0x3eaf9063	0.34289846
200	0xb89f9000	-7.608533e-05
201	0x3eb518d2	0.353705
202	0x3ec488c4	0.38385594
203	0xbda0ea1a	-0.07857151
204	0x3c5b1cab	0.013373534
205	0x3eb5e2c4	0.3552457
206	0x3ec118aa	0.3771413
207	0xbe513acb	-0.20432584
208	0x3e5c84eb	0.21535079
209	0xbecdd5b6	-0.4020211
210	0xbeaca586	-0.33720034
211	0xbe81e65d	-0.25371066
212	0xbdf19fcb	-0.11798056
213	0xbe7d5845	-0.24740703
214	0xbe8df75f	-0.27727792
215	0x3c7bfe59	0.015380465
216	0x3dcc8f80	0.09988308
217	0x3e957e5d	0.2919797
218	0x3e4e7018	0.20159948
219	0xbd9a74b1	-0.07541788
220	0xbec420ee	-0.38306373
221	0xbe6516f1	-0.22372033
222	0xbeb50be2	-0.35360628
223	0xbd3ec04a	-0.0465701
224	0x3e37f1e1	0.17963363
225	0xbea188c8	-0.31549668
226	0xbec29ce0	-0.3801031
227	0x3d33f5a1	0.04393542
228	0xbd82e20f	-0.063907735
229	0xbed8e1b2	-0.42359692
230	0x3ec7723e	0.38954347
231	0x3e531d67	0.20616685
232	0x3ee35ed4	0.44408286
233	0x3f02c0a5	0.510752
234	0xbdb1f1d4	-0.08688703
235	0xbe889958	-0.26679492
236	0xbdd18ef4	-0.10232344
237	0xbe680287	-0.22657214
238	0xbea197b4	-0.31561053
239	0xbe821ab8	-0.2541101
240	0xbc46279b	-0.012094404
241	0xbe414226	-0.1887289
242	0x3e184495	0.14869912
243	0x3db31828	0.08744842
244	0xbd0f5230	-0.03499049
245	0x3dcc11d0	0.09964335
246	0x3e8748b8	0.26422668
247	0x3e330782	0.17483333
248	0x3d84a5d0	0.06476939
249	0xbe42a17a	-0.19006911
250	0xbebb147d	-0.3653907
251	0xbe698ba7	-0.2280718
252	0xbe04e535	-0.1297806
253	0x3c695550	0.0142415315
254	0x3cb1878b	0.021671077
255	0xbe458f54	-0.19292957

weight_hh_l0 f4 [15, 5]
0	0x3beb39c0	0.007178515
1	0x3db58bd8	0.08864564
2	0x3edc045e	0.42972082
3	0x3e7ff208	0.24994671
4	0x3e5f8ce4	0.2183109
5	0xbe95898c	-0.29206502
6	0x3e2846e4	0.16433293
7	0xbde1e1c0	-0.110293865
8	0x3dc294d0	0.0950104
9	0x3e99d794	0.30047286
10	0xbe7c503c	-0.24639982
11	0x3e8608c6	0.2617857
12	0xbd399d38	-0.04531595
13	0xbea38ede	-0.31944937
14	0xbeb59458	-0.3546474
15	0xbe94698a	-0.2898677
16	0xbec64f88	-0.38732553
17	0x3e7598cc	0.23984069
18	0x3e1be7dc	0.15225166
19	0x3ea42222	0.3205729
20	0x3e26495c	0.16238922
21	0xbde9507c	-0.11392304
22	0x3d018e78	0.03163001
23	0x3e45661c	0.19277233
24	0x3daa6428	0.083198845
25	0x3e70e060	0.23523092
26	0x3d57e778	0.05271098
27	0xbe87f4b6	-0.26553887
28	0x3e98807e	0.29785532
29	0x3e7ed390	0.24885392
30	0xbeb89486	-0.36050814
31	0xbdba0118	-0.0908224
32	0xbd315660	-0.043295264
33	0xbd7caff0	-0.061691225
34	0x3e56f340	0.2099123
35	0x3d4fd8b0	0.05074376
36	0xbe6dfb4e	-0.23240396
37	0x3e920c3e	0.28524965
38	0x3e24b2b8	0.16083801
39	0x3dfc3a40	0.12315798
40	0xbde5fb5c	-0.112295836
41	0x3ed0ce60	0.40782452
42	0x3c85bc70	0.016325206
43	0xbed2e1b0	-0.4118781
44	0xbe714997	-0.23563229
45	0xbe8f19de	-0.27949423
46	0xbdb9b950	-0.09068549
47	0xbeb379b8	-0.35053802
48	0x3e85310a	0.26013976
49	0xbdbc2824	-0.09187344
50	0xbdbec874	-0.09315577
51	0xbdbeb804	-0.09312442
52	0xbea86a5e	-0.32893652
53	0xbce38170	-0.027771682
54	0xbea28986	-0.31745547
55	0x3da68698	0.081311405
56	0xbe0382cc	-0.12842864
57	0x3dbb18c8	0.09135586
58	0x3e6b5448	0.2298137
59	0x3e988a6e	0.29793113
60	0x3c9a9300	0.018868923
61	0x3d073408	0.033008605
62	0x3eca82f4	0.39553034
63	0x3e451c54	0.19249088
64	0x3e2dd980	0.16977501
65	0x3e6fb5b4	0.23409158
66	0x3d1bcb00	0.038035393
67	0xbecc0688	-0.39848733
68	0x3edf589e	0.43622297
69	0xbdccb2c0	-0.09995031
70	0x3dc09280	0.09402943
71	0xbe8e7914	-0.2782675
72	0x3ea037a2	0.31292444
73	0xbd749f70	-0.059722364
74	0xbe066df0	-0.13127875

bias_ih_l0 f4 [15]
0	0xbe497605	-0.19673927
1	0x3de8bb1b	0.113638125
2	0xbeb3b6ad	-0.35100308
3	0xbd8ad6cf	-0.06779253
4	0x3eaa7137	0.332895
5	0xbea3cdcd	-0.3199295
6	0x3e4df68a	0.20113578
7	0xbe3b3d4f	-0.18285106
8	0xbe1d8e1c	-0.15386242
9	0xbe2e3d53	-0.17015581
10	0x3d5f3aaf	0.054499324
11	0xbe501c9c	-0.20323414
12	0xbbab3876	-0.0052252365
13	0x3eb353fe	0.35025018
14	0xbeb71e1e	-0.35765165

bias_hh_l0 f4 [15]
0	0xbec3a143	-0.3820897
1	0x3ed94382	0.42434317
2	0xbe7a660d	-0.24452992
3	0xbe970525	-0.29496112
4	0x3e57c2f7	0.21070467
5	0x3edf06c7	0.43559858
6	0xbef4438c	-0.47707784
7	0xbd984847	-0.07435661
8	0xbe3dacac	-0.185229
9	0x3eac1aee	0.33614296
10	0xbdf52620	-0.119701624
11	0xbe1d8d81	-0.1538601
12	0xbd9ecfd2	-0.07754482
13	0xbdcb053e	-0.09913109
14	0xbd70e180	-0.058808804

weight f4 [8, 150]
0	0xbb4f7189	-0.0031653366
1	0x3b97d2b9	0.0046332744
2	0x3b332c40	0.0027339607
3	0xbc1be75e	-0.009515611
4	0x3ad64394	0.0016347044
5	0xbb233551	-0.0024903605
6	0x3d39b3ab	0.04533736
7	0x3c225764	0.009908531
8	0xbc14a3cb	-0.009072254
9	0x3cacc7da	0.02109139
10	0xbc42b049	-0.01188285
11	0x3bb9150d	0.0056482614
12	0x3bc06a27	0.0058720293
13	0x3c28fae3	0.010313722
14	0xbb305fe8	-0.0026912633
15	0x3c361c19	0.011115097
16	0x3af5dafc	0.0018757279
17	0x3b0c64e5	0.0021422443
18	0x3a862d88	0.0010236958
19	0xbbe0133a	-0.0068382295
20	0x3be21c39	0.006900337
21	0x3baf721d	0.0053541795
22	0x3c038612	0.00802757
23	0xbc5a3742	-0.013318839
24	0x3b522f9f	0.0032071841
25	0x3b1ea4d2	0.0024207127
26	0xba63fb81	-0.000869684
27	0xbc1bbd85	-0.009505634
28	0x3a802549	0.0009776737
29	0xbbad916c	-0.0052968767
30	0xbb91a047	-0.0044441554
31	0x3af85442	0.0018946009
32	0x3cc144c6	0.023592364
33	0xbcc9db31	-0.024640651
34	0xbc533bd2	-0.01289268
35	0x3c08642e	0.008324666
36	0xbb158020	-0.0022811964
37	0x3ceead0e	0.029135253
38	0xbc8bd37c	-0.017068617
39	0x3ce0d8fd	0.027447218
40	0x3bc561da	0.0060236277
41	0xb9e5b675	-0.00043814225
42	0x3c7eb14f	0.015545203
43	0x3c214eef	0.009845479
44	0x3d1aef47	0.03782585
45	0x3b1f94da	0.0024350197
46	0x3bd7a581	0.006581009
47	0x3ca4c872	0.020115111
48	0xbbd8a4e9	-0.0066114557
49	0xbcb17334	-0.021661378
50	0xbaa550d9	-0.0012612595
51	0x3c1ff19a	0.009762192
52	0x3c03c9c9	0.008043715
53	0xbceaf6c2	-0.028682116
54	0x3c26a3e2	0.010170909
55	0x3a910305	0.0011063522
56	0x3ae27c74	0.0017279522
57	0x3cbe0aea	0.023198564
58	0xbc47939b	-0.012181188
59	0xba325d27	-0.0006804042
60	0x3bc24bcb	0.0059294454
61	0x3c62859c	0.0138258
62	0xbbb3a3e7	-0.005482185
63	0x3cc847e6	0.024448346
64	0x3ca008ef	0.01953551
65	0xbbdb158f	-0.0066859196
66	0xbc2fcdc7	-0.0107302135
67	0x3c6e9008	0.014560707
68	0xbc9341c8	-0.017975703
69	0xbcd6b935	-0.02621136
70	0x3c22bbad	0.009932441
71	0xbc1dc61b	-0.009629752
72	0x3a4b84b6	0.0007763611
73	0x3b8615fc	0.004091976
74	0x3c817a3f	0.015805362
75	0x3b94b337	0.0045379656
76	0xbb3e22b1	-0.0029012377
77	0x3b878a9f	0.004136398
78	0x3c1c4362	0.00953755
79	0xbd002e65	-0.031294245
80	0xb9f0895a	-0.00045878702
81	0x3c0ad228	0.008472957
82	0xbb695f69	-0.0035609847
83	0x3d1087c7	0.035285737
84	0x3b24c8e3	0.0025144152
85	0xbad5785d	-0.0016286481
86	0x3c0d917f	0.008640646
87	0x3baec349	0.0053333384
88	0x3d03add2	0.03214819
89	0xbb0ee3e9	-0.0021803326
90	0xbb3a5619	-0.0028432666
91	0x3bc1503e	0.005899458
92	0x3bf139a9	0.00736161
93	0xbcaa8c75	-0.020818928
94	0x3d190ef6	0.037367783
95	0x3b538a2b	0.00322784
96	0xbb7274a4	-0.0036995793
97	0x3c469224	0.012119804
98	0xbc80193a	-0.015637029
99	0x3cd0ceb1	0.025489183
100	0xbbabfede	-0.0052488884
101	0x3c3ae728	0.011407651
102	0xbce13d24	-0.027494974
103	0x3ce26c6d	0.027639592
104	0x3d119d10	0.035550177
105	0x3c56dfea	0.013114909
106	0x3c3fdc98	0.0117103085
107	0xbc9081d9	-0.017640041
108	0xbc02db84	-0.007986907
109	0xbc0b8ccb	-0.008517454
110	0x3b8c3b13	0.004279503
111	0xbbd9842b	-0.00663807
112	0xbd088c24	-0.033336774
113	0x3c801475	0.015634755
114	0x3c3023aa	0.0107506905
115	0xb953aed7	-0.00020187661
116	0xba5bde4f	-0.00083873136
117	0x3c6b1135	0.014347364
118	0x3b0b418c	0.0021248786
119	0xbc997ad4	-0.018735327
120	0xbc86b265	-0.016442487
121	0xbb9bf69d	-0.004759623
122	0x3cea8565	0.02862806
123	0x3b5e73d6	0.0033943555
124	0x3c7cd8ca	0.015432546
125	0x3b7f82c6	0.003898786
126	0x3c325b91	0.010886089
127	0xbbe45106	-0.0069676666
128	0x3b836f0a	0.0040110396
129	0x3cb90813	0.022586858
130	0x3b8b86c0	0.004258007
131	0xbbb8118e	-0.005617327
132	0xbc16a744	-0.009195153
133	0x3c4abd7b	0.012374277
134	0xbb4edc0d	-0.0031564266
135	0x3b803048	0.0039120056
136	0x3bbdf227	0.005796689
137	0x3bd2bed5	0.0064314404
138	0x3c0a27b1	0.008432315
139	0x3cf4f423	0.02990157
140	0x3bb5cdc1	0.0055482094
141	0xbc4b155b	-0.012395228
142	0x3c594c54	0.013262827
143	0xbaaa4320	-0.0012989976
144	0x3bfcad90	0.00771112
145	0x3c0ccdb1	0.0085939625
146	0x3addec36	0.0016931358
147	0x3bcb1584	0.006197633
148	0xbcd9f1f0	-0.026604623
149	0xbc8aaeae	-0.016928997
150	0xbc7ccac2	-0.015429201
151	0xbc16a3a5	-0.009194289
152	0xbb982492	-0.0046430314
153	0xbb9afc73	-0.0047298013
154	0x3c2b6062	0.010459991
155	0x3b8a294d	0.004216349
156	0xbda55075	-0.080719866
157	0x3d2d0ed4	0.04225047
158	0xbd1b0f1d	-0.03785621
159	0xbbf920b8	-0.0076027773
160	0x3c6742a7	0.014115012
161	0xbb58d44b	-0.003308552
162	0x3c0cc7a3	0.008592519
163	0x3bd04cda	0.0063568177
164	0xbc398952	-0.011324244
165	0xbb7dcee0	-0.0038728043
166	0x3c11aca6	0.00889126
167	0xbd1cd56b	-0.03828947
168	0x3cca5b4b	0.024701735
169	0xbd02deb7	-0.03195068
170	0x3c68d0f1	0.014209972
171	0x3c2b3437	0.010449461
172	0xbc2dbd95	-0.010604282
173	0x3b9b85a2	0.004746155
174	0x3cb0074a	0.02148785
175	0xbc24d532	-0.010060595
176	0xbd040e1f	-0.03224003
177	0x3acc0968	0.0015566768
178	0x3c94161b	0.018076947
179	0xba82b379	-0.00099717
180	0xbace5de7	-0.0015744538
181	0xbb871dee	-0.004123441
182	0xbc55268a	-0.013009677
183	0x3c9b32e9	0.018945174
184	0xbd980c0f	-0.07424175
185	0xbca2b529	-0.019861775
186	0xbc13ab1e	-0.0090129655
187	0x3cd0e5dd	0.025500232
188	0x3d5f221c	0.05447589
189	0x3d8baea4	0.068204194
190	0xbc1c1d1d	-0.0095284255
191	0x3caf8298	0.021424577
192	0x3d6053e9	0.054767523
193	0xbd29cb01	-0.041453365
194	0x3d0d3130	0.034470737
195	0x3a5985b2	0.0008297815
196	0x3af4013a	0.0018616088
197	0x3ca40c6c	0.020025454
198	0xbcc88d2e	-0.024481382
199	0xbd3dabe7	-0.046306517
200	0x3ca0dc93	0.019636428
201	0xbc4f6001	-0.012657166
202	0xbd2e0433	-0.042484473
203	0xbcf4fb9f	-0.029905139
204	0x3d49ec57	0.049297657
205	0xbc7d47c4	-0.015459005
206	0xbc097f7c	-0.008392211
207	0x3b7990b1	0.0038080628
208	0x3bd96a24	0.0066349674
209	0x3c8a5a65	0.016888807
210	0x3c9b53bd	0.018960828
211	0x3d81cda9	0.06338055
212	0xbcd2f5b1	-0.02575192
213	0x3d7ad312	0.06123645
214	0x3d12882d	0.0357744
215	0xbcb6d1ce	-0.02231684
216	0xbc98bb1f	-0.018643914
217	0xbd718122	-0.05896104
218	0x3c778cab	0.015109221
219	0xbc9e4db6	-0.019324165
220	0x3cd37c65	0.025816152
221	0xbc4ae48a	-0.0123835895
222	0x3ca029a9	0.019551115
223	0xbd1e42df	-0.038637992
224	0xbbcf32f8	-0.0063232146
225	0xbcc54ce8	-0.024084523
226	0xbbd5d8c6	-0.0065260855
227	0xbcb359ee	-0.021893468
228	0x3c45d862	0.012075515
229	0x3d77fff1	0.06054682
230	0xbbd4b152	-0.006490865
231	0xbd02ec20	-0.031963468
232	0xbd372189	-0.044709716
233	0x3d105a81	0.03524256
234	0x3c8e9f65	0.01740999
235	0xb9e90418	-0.00044444273
236	0x3c0453e6	0.008076644
237	0x3d692563	0.05692042
238	0x3d408bc5	0.047008295
239	0xbd9fa7dd	-0.07795689
240	0x3b6e00c0	0.0036316365
241	0x3ccd788f	0.0250819
242	0xbd7b8a05	-0.061410923
243	0x3d4066b7	0.046972957
244	0xbd2c787b	-0.042107087
245	0x3d1904ef	0.03735822
246	0x3cac5313	0.021035707
247	0x3d16bc7b	0.036800843
248	0x3c9b589d	0.018963153
249	0xbd9c2bff	-0.07625579
250	0x3ca06a09	0.019581812
251	0x3be0c95d	0.006859942
252	0x3d048948	0.032357484
253	0x3d15a2c8	0.036532193
254	0xbd5ea51b	-0.054356676
255	0x3bebcbad	0.007195911

bias f4 [8]
0	0xbd25d394	-0.04048498
1	0x3d5fdf11	0.054656092
2	0xbd830387	-0.06397157
3	0xbd5c0fd2	-0.053726025
4	0x3c45bb10	0.012068525
5	0x3c9dc0af	0.019256918
6	0xbcd8e669	-0.026477056
7	0x3d58118f	0.05275112

weight f4 [1, 24]
0	0x3e9ab2e0	0.30214596
1	0x3df28e7e	0.118435845
2	0xbdc19e5f	-0.09454035
3	0x3c716df0	0.014735684
4	0x3da933de	0.08261846
5	0x3d009288	0.031389743
6	0xbdd36c77	-0.103234224
7	0xbdc0da03	-0.094165824
8	0x3df9ebd8	0.12203187
9	0xbdd0db27	-0.1019805
10	0xbdcb1a93	-0.09917178
11	0x3e1f97e4	0.15585285
12	0x3ead640d	0.33865395
13	0x3deebacb	0.11656722
14	0x3d3c2f0f	0.045943316
15	0xbd1c0df5	-0.038099248
16	0xbd500722	-0.050788052
17	0xbdd1e76c	-0.10249218
18	0x3e4616b1	0.19344594
19	0x3d857847	0.06517082
20	0xbe1775b6	-0.14790997
21	0x3dfdee5a	0.123989776
22	0x3c9e4962	0.019322101
23	0x3dd2640b	0.10272988
