model_files/LSTNET/lstnet_model_hor_48_win_35_skip_1.pt (torch, 36780 bytes, 13 tensors)

weight f4 [30, 1, 6, 8]
0.017999768 -0.12726906 0.020714775 0.005990967 -0.036987655 -0.011382207 -0.07132452 0.07086031
-0.092056796 -0.082378596 -0.030098483 0.13357323 -0.03525988 0.069691926 0.014593706 -0.12448249
-0.006908223 -0.13494757 0.07152781 -0.057166487 0.071756095 -0.09325278 -0.08096687 0.12666014
0.07349861 -0.09608637 -0.037989482 -0.0335816 0.045357063 -0.012837604 -0.039212152 -0.035294965
-0.08685012 -0.091886036 0.07050954 -0.060179017 -0.1402254 0.12261838 -0.04911822 0.1380021
0.011530891 -0.10577196 -0.1356816 -0.07637455 0.12699446 0.013244286 0.07252847 0.13984421
-0.055081025 -0.020524077 -0.02860877 -0.06481504 -0.011851475 0.14271316 -0.13725074 -0.079330504
-0.08799124 0.08139883 -0.058028646 -0.042120285 -0.09147759 0.008194879 -0.102520816 -0.018975005
0.07051858 -0.08013611 -0.07830229 0.114308774 0.13338897 0.1330415 -0.02088257 -0.0117670745
0.050951466 -0.13530141 0.013975933 -0.039934218 -0.026615597 0.038520932 -0.102783486 -0.11930543
-0.014746472 -0.0645398 0.040901452 -0.046218023 0.1257441 0.012149766 0.007068038 0.10335879
0.07489176 -0.047973208 0.009097263 0.119102 0.009137064 0.074718624 0.04902087 -0.13988915
-0.087798536 -0.11198324 -0.04940504 0.1415771 -0.050843835 0.09718911 -0.099387616 0.094659135
-0.122091696 0.08683188 -0.027377531 -0.08188335 -0.123758115 0.08180651 0.13175419 -0.14229485
-0.14322844 -0.07073685 -0.009959191 -0.011941299 -0.08114779 0.08480856 0.06585057 -0.103456534
0.10655701 -0.0826778 -0.12532829 -0.055140644 0.10833925 -0.023008108 0.108457595 0.13091263
-0.052083 0.041958645 0.03815502 -0.057933584 0.0057245344 0.09242718 0.025081947 -0.13436483
0.11545476 -0.14082809 0.08366196 0.09211914 -0.04764326 -0.02056121 -0.11260298 -0.06431113
0.15254101 -0.024634669 -0.08234936 -0.00514524 -0.1421363 0.031895503 0.055404197 0.0011474822
-0.001668153 -0.05979051 -0.043752 -0.101935014 -0.059548892 -0.05635822 -0.04001896 0.0020659713
0.083013624 0.14241765 0.100960664 -0.04804012 0.12908225 0.10455206 -0.061273854 0.16393383
0.04297521 0.02437845 0.13827296 0.012144783 0.10655616 0.058680065 0.031931747 0.05937639
-0.06578971 0.1289114 0.16917577 0.10869318 -0.09923502 -0.09160906 0.1682602 0.09571941
0.07951103 0.16434419 0.062177002 0.040147867 0.0023271693 0.13554013 0.11206202 0.0743295
-0.026289543 0.11810598 0.116013885 -0.108741805 -0.07306253 0.16004921 0.05920309 0.041918445
-0.062713474 -0.07919706 0.026315853 0.10162214 0.038151015 -0.0061643375 0.029117348 -0.11887895
0.027286416 -0.01732264 -0.09813399 -0.07428178 0.13463083 -0.055394612 -0.15811686 -0.09974193
0.0027638094 0.059265345 -0.0016945811 0.11270982 -0.0217279 -0.14497699 -0.08518579 0.11437017
0.084965035 0.12769857 0.20543197 0.022198178 -0.09332838 -0.08720887 -0.0007729708 0.03271435
0.08515412 0.10291846 0.093240805 0.14470573 -0.0687402 -0.06227724 -0.19122377 0.12629126
-0.12143816 -0.111806735 0.09561242 -0.00016996264 -0.12364593 -0.06138768 0.13295743 0.061605185
-0.061472297 -0.1162391 0.13718995 -0.046089575 0.07083051 -0.053522952 0.09778826 0.02914372
00000000: 4074 933c d252 02be 08b2 a93c e04f c43b
00000010: 5e80 17bd 707c 3abc 9712 92bd 361f 913d
00000020: 4688 bcbd 1cb6 a8bd 1891 f6bc 6cc7 083e
00000030: aa6c 10bd a4ba 8e3d 701a 6f3c adf0 febd
00000040: 605e e2bb b22f 0abe 2c7d 923d 6827 6abd
00000050: dcf4 923d 50fb bebd f5d1 a5bd 32b3 013e
00000060: 7086 963d eec8 c4bd dc9a 1bbd dc8c 09bd
00000070: 54c8 393d d054 52bc ec9c 20bd 7491 10bd
00000080: 7ade b1bd bf2e bcbd 4e67 903d 467e 76bd
00000090: 3f97 0fbe 581f fb3d 3030 49bd 6c50 0d3e
000000a0: 10ec 3c3c f89e d8bd 1ef0 0abe 436a 9cbd
000000b0: d60a 023e 90fe 583c ce89 943d 5233 0f3e
000000c0: a49c 61bd 1c22 a8bc f05c eabc bfbd 84bd
000000d0: b02c 42bc 6623 123e 758b 0cbe 0878 a2bd
000000e0: c034 b4bd 6eb4 a63d 72af 6dbd 5286 2cbd
000000f0: 9a58 bbbd d043 063c 6ff6 d1bd 7871 9bbc
00000100: 0c6c 903d 671e a4bd f35c a0bd b81a ea3d
00000110: 1e97 083e 083c 083e ec11 abbc b0ca 40bc
00000120: 7cb2 503d 748c 0abe 50fb 643c 1092 23bd
00000130: f408 dabc 20c8 1d3d 2680 d2bd 6856 f4bd
00000140: 309b 71bc 712d 84bd 4888 273d 1c4f 3dbd
00000150: 10c3 003e d00f 473c 009b e73b c6ad d33d
00000160: da60 993d 8e7f 44bd b00c 153c c0eb f33d
00000170: a0b3 153c 1406 993d 1cca 483d 1a3f 0fbe
00000180: b8cf b3bd 7857 e5bd f05c 4abd 96f9 103e
00000190: a041 50bd 160b c73d bc8b cbbd a6dc c13d
000001a0: 360b fabd ead4 b13d d846 e0bc 75b2 a7bd
000001b0: e574 fdbd 2c8a a73d 92ea 063e beb5 11be
000001c0: 7aaa 12be 7bde 90bd e02b 23bc 70a5 43bc
000001d0: d030 a6bd 1cb0 ad3d aadc 863d 05e1 d3bd
000001e0: 903a da3d fa52 a9bd 0f56 00be 28db 61bd
000001f0: f8e0 dd3d 807b bcbc 041f de3d f60d 063e
00000200: fc54 55bd d4dc 2b3d 7048 1c3d c44b 6dbd
00000210: e094 bb3b 764a bd3d a878 cd3c ef96 09be
00000220: 8c73 ec3d 3d35 10be f656 ab3d f6a8 bc3d
00000230: 9425 43bd fc6f a8bc 649c e6bd 8eb5 83bd
00000240: b633 1c3e a5ce c9bc c8a6 a8bd 6799 a8bb
00000250: 2e8c 11be dca4 023d 83ef 623d 1d67 963a
00000260: eda5 daba e5e6 74bd 4c35 33bd 4ec3 d0bd
00000270: 8ae9 73bd e0d7 66bd ecea 23bd 3f65 073b
00000280: 0c03 aa3d efd5 113e 77c4 ce3d b8c5 44bd
00000290: 232e 043e 641f d63d 4bfa 7abd 45de 273e
000002a0: c606 303d 51b5 c73c 6d97 0d3e e9fa 463c
000002b0: 1e3a da3d 825a 703d ddca 023d a834 733d
000002c0: c1bc 86bd 5a01 043e 6a3c 2d3e 889a de3d
000002d0: bb3b cbbd 889d bbbd 674c 2c3e 8a08 c43d
000002e0: aed6 a23d d849 283e 50ad 7e3d 1772 243d
000002f0: 6c83 183b 08cb 0a3e c680 e53d 113a 983d
00000300: 2b5d d7bc 8ce1 f13d b098 ed3d 06b4 debd
00000310: cfa1 95bd f1e3 233e f07e 723d adb2 2b3d
00000320: ec6f 80bd 1132 a2bd 5894 d73c 451f d03d
00000330: 3d44 1c3d 36fe c9bb 8187 ee3c cf76 f3bd
00000340: c387 df3c 36e8 8dbc 79fa c8bd 0c21 98bd
00000350: aadc 093e 76e5 62bd 63e9 21be 7f45 ccbd
00000360: 0721 353b 38c0 723d b51c deba 68d4 e63d
00000370: b5fe b1bc d974 14be e375 aebd e83a ea3d
00000380: 2602 ae3d 6ac3 023e c25c 523e f4d8 b53c
00000390: f322 bfbd 909a b2bd 31a1 4aba 7bff 053d
000003a0: 4965 ae3d eac6 d23d 09f5 be3d bd2d 143e
000003b0: a9c7 8cbd 6b16 7fbd 2ad0 43be 7f52 013e
000003c0: 92b4 f8bd eefa e4bd 72d0 c33d 0038 32b9
000003d0: 143a fdbd a671 7bbd fe25 083e b855 7c3d
000003e0: 60ca 7bbd c40e eebd 867b 0c3e 6cc8 3cbd
000003f0: 960f 913d e23a 5bbd 3645 c83d d0be ee3c

bias f4 [30]
-0.06585399 0.06933093 0.099073485 0.03437168 0.11531008 -0.10317801 0.0490633 0.04562152
0.014623067 0.11699122 0.053297356 0.116669446 -0.10850267 0.09569118 -0.031944603 0.027996304
0.07288571 -0.14359093 0.05220038 0.08306481 0.14762577 0.0059384853 0.10052566 0.012308652
0.065910704 -0.11217127 -0.014800768 0.14766183 -0.13544627 0.071345605
00000000: 75de 86bd 60fd 8d3d 0ae7 ca3d 52c9 0c3d
00000010: b127 ec3d fe4e d3bd 99f6 483d a2dd 3a3d
00000020: 9795 6f3c 1899 ef3d 544e 5a3d 64f0 ee3d
00000030: a636 debd bdf9 c33d 58d8 02bd 8158 e53c
00000040: 1a45 953d 8009 13be 11d0 553d e21d aa3d
00000050: 362b 173e a097 c23b 66e0 cd3d 3aaa 493c
00000060: 31fc 863d 0dba e5bd ec7e 72bc aa34 173e
00000070: 6db2 0abe a51d 923d

weight_ih_l0 f4 [90, 30]
-0.007639572 -0.11666171 -0.1465965 -0.03631235 -0.14749837 -0.16942425 -0.087554455 0.05870949
0.04551679 -0.022404835 -0.057526916 0.15089157 -0.16886006 -0.08976609 -0.10734686 0.07996134
-0.042526145 0.15702903 -0.025840152 -0.16488646 0.12465014 -0.13436514 0.1021328 0.06826633
0.021874372 -0.092319995 -0.0006117609 0.08766724 0.065088436 0.0059876684 -0.030394092 -0.11652662
-0.18082486 -0.087324545 -0.06014998 -0.07918764 -0.0030201937 -0.15781082 0.06912475 -0.08882406
-0.12444979 -0.12534104 -0.029451013 0.13960642 -0.11462455 0.15539613 -0.030395925 -0.054564998
-0.02876627 0.036296032 -0.012382645 -0.07075466 -0.10634245 0.05520998 -0.00033371095 -0.17744172
-0.016571471 -0.08184291 -0.095050596 -0.124091715 -0.11639745 0.011359036 -0.012196168 0.018569073
-0.12898812 -0.12648858 0.1716778 -0.02134769 -0.005748937 0.04641655 0.003268376 3.4362078e-05
-0.16265093 0.053185582 -0.12912026 -0.11115205 -0.12412068 0.026240334 -0.05548 0.13666986
0.029539684 0.011598498 -0.074697375 0.12872241 -0.018337883 0.032485273 -0.17674072 -0.17742024
-0.07565501 -0.14050677 0.092281014 -0.062632136 -0.051849097 -0.016653547 -0.0735752 -0.009750083
-0.082200624 -0.024545029 -0.13976802 0.10333264 0.046633676 0.14170906 0.11387339 0.16394463
0.0752438 -0.1315642 -0.11612155 0.13825545 -0.15773197 -0.07065968 -0.12349589 0.08425516
-0.00974533 0.0041276217 -0.10648474 0.026628073 0.08616873 -0.10812978 0.07249239 0.09784958
0.093463 0.06437293 -0.15141138 0.02344793 0.10238364 -0.13641092 0.04633306 -0.17465755
0.16166003 -0.015559033 -0.11527122 0.088404 -0.17143157 0.050974485 0.13155752 -0.055995297
0.106300786 -0.021013722 -0.03200269 0.10493794 -0.13424048 0.14755708 0.104016244 -0.11002203
-0.06893866 0.05243648 -0.12706721 -0.060139917 0.07083619 -0.054178655 0.15111035 -0.10609969
0.08895993 0.046591334 -0.03274432 -0.18014178 0.11588276 -0.010221437 0.014615587 -0.17825718
-0.1337894 -0.033017322 0.10496348 0.0370986 0.15355015 0.17193884 -0.016107649 -0.09786496
0.12550838 0.066201694 0.164153 0.160907 0.14525872 -0.01828681 -0.04955378 -0.13371341
-0.045697805 -0.031140596 0.054172724 -0.036521718 -0.1346027 0.13510573 -0.10931834 0.15983655
-0.13644144 0.06327514 0.12797743 0.081828475 0.13341671 -0.08620925 -0.06116976 0.121941656
-0.18115772 0.09053519 0.04825808 -0.15898567 0.07707187 -0.07100276 0.1833467 0.102702536
0.08093019 0.16367522 0.070442736 -0.10709711 0.10868425 -0.14866236 -0.027398689 -0.18000053
-0.070348166 -0.09883484 0.10765597 0.14230546 0.10597414 0.11736122 -0.11347573 -0.068784624
0.1342497 0.081493676 0.13495135 -0.04683657 -0.105928905 0.053474277 0.15146348 -0.09562856
-0.16183484 0.16327062 -0.17958327 0.012934476 -0.06549335 0.12509497 0.117156625 -0.13403887
0.13751596 0.02253455 0.050396163 0.08046936 0.15624444 -0.053313658 -0.06688095 0.0050710803
-0.14530423 0.17162466 -0.10259862 0.17246623 0.16959555 -0.16519946 -0.16019884 -0.09793856
-0.17675468 -0.009224907 0.0403935 -0.040150434 0.022627845 0.12870158 0.06992906 -0.15400721
00000000: 6055 fabb 56ec eebd 651d 16be 42bc 14bd
00000010: d009 17be 8d7d 2dbe c04f b3bd 5d79 703d
00000020: d06f 3a3d 588a b7bc 58a1 6bbd 5283 1a3e
00000030: a7e9 2cbe 49d7 b7bd acd8 dbbd c5c2 a33d
00000040: e52f 2ebd 38cc 203e baae d3bc ffd7 28be
00000050: 9348 ff3d 0497 09be 002b d13d 38cf 8b3d
00000060: e231 b33c 4412 bdbd 945e 20ba e28a b33d
00000070: 164d 853d 3434 c43b 08fd f8bc 82a5 eebd
00000080: 272a 39be 36d7 b2bd d35f 76bd 212d a2bd
00000090: 71ee 45bb 2999 21be 4791 8d3d 64e9 b5bd
000000a0: 88df febd 6759 00be 4043 f1bc fcf4 0e3e
000000b0: 47c0 eabd 2a20 1f3e e000 f9bc 8c7f 5fbd
000000c0: 3ea7 ebbc 26ab 143d 94e0 4abc d2e7 90bd
000000d0: 12ca d9bd dc23 623d edf5 aeb9 48b3 35be
000000e0: e5c0 87bc 419d a7bd e3a9 c2bd cc23 febd
000000f0: c961 eebd 401b 3a3c 70d2 47bc 2b1e 983c
00000100: 7615 04be 3986 01be 4ecc 2f3e 5ae1 aebc
00000110: 9461 bcbb 481f 3e3d 4032 563b 0020 1038
00000120: f78d 26be 20d9 593d 1a38 04be b0a3 e3bd
00000130: fc32 febd f8f5 d63c ff3e 63bd 2ff3 0b3e
00000140: 35fd f13c a007 3e3c f0fa 98bd cfcf 033e
00000150: 5439 96bc 470f 053d 85fb 34be a7ad 35be
00000160: 04f1 9abd 02e1 0fbe d4fd bc3d 4745 80bd
00000170: b85f 54bd 056d 88bc 98ae 96bd d0be 1fbc
00000180: cd58 a8bd a812 c9bc 591f 0fbe 10a0 d33d
00000190: f402 3f3d 2e1c 113e 7436 e93d 1ae1 273e
000001a0: 6c19 9a3d c4b8 06be 23d1 edbd d692 0d3e
000001b0: 7d84 21be 06b6 90bd 6aeb fcbd f88d ac3d
000001c0: e0aa 1fbc 0041 873b ac14 dabd 1e23 da3c
000001d0: 3b79 b03d 2573 ddbd e476 943d 5c65 c83d
000001e0: 8869 bf3d f4d5 833d 960b 1bbe e015 c03c
000001f0: 84ae d13d 4eaf 0bbe bcc7 3d3d 6ed9 32be
00000200: 358a 253e 50eb 7ebc 5113 ecbd 280d b53d
00000210: c28b 2fbe 9fca 503d 04b7 063e 535b 65bd
00000220: 3ab4 d93d f824 acbc 4115 03bd b4e9 d63d
00000230: 5676 09be 3419 173e 7806 d53d 3b53 e1bd
00000240: b62f 8dbd a2c7 563d e81d 02be 4655 76bd
00000250: 9012 913d 70ea 5dbd acbc 1a3e cb4a d9bd
00000260: a030 b63d 8ed6 3e3d e81e 06bd 1677 38be
00000270: f153 ed3d d077 27bc 3776 6f3c 0d89 36be
00000280: 1700 09be 2c3d 07bd 18f7 d63d b4f4 173d
00000290: 403c 1d3e bc10 303e 30f4 83bc 6d6d c8bd
000002a0: 4585 003e c194 873d b917 283e cec4 243e
000002b0: b4be 143e 38ce 95bc e8f8 4abd 2bec 08be
000002c0: 9f2d 3bbd 901a ffbc 38e4 5d3d cc97 15bd
000002d0: 4ad5 09be 2859 0a3e 4be2 dfbd 31ac 233e
000002e0: 4eb7 0bbe 6696 813d 840c 033e b095 a73d
000002f0: 649e 083e 7a8e b0bd 248d 7abd 8cbc f93d
00000300: 6981 39be 846a b93d 44aa 453d 24cd 22be
00000310: dbd7 9d3d e569 91bd 3dbf 3b3e b555 d23d
00000320: babe a53d 7a9a 273e 4844 903d bb55 dbbd
00000330: d995 de3d f23a 18be 3773 e0bc 0f52 38be
00000340: b312 90bd ec69 cabd bc7a dc3d 86b8 113e
00000350: f808 d93d 145b f03d f765 e8bd f4de 8cbd
00000360: c178 093e 28e6 a63d b030 0a3e b4d7 3fbd
00000370: 41f1 d8bd d807 5b3d 3e19 1b3e e8d8 c3bd
00000380: 08b8 25be 6a30 273e ade4 37be 20eb 533c
00000390: 6121 86bd e518 003e d0ef ef3d 7c41 09be
000003a0: fcd0 0c3e 609a b83c 356c 4e3d 1fcd a43d
000003b0: 8bfe 1f3e 6c5f 5abd e1f8 88bd 4e2b a63b
000003c0: a2ca 14be 60be 2f3e 3a1f d2bd fd9a 303e
000003d0: 75aa 2d3e 0c2a 29be 2a0b 24be 0394 c8bd
000003e0: 2eff 34be 1024 17bc a873 253d c874 24bd
000003f0: 085e b93c 59ca 033e f836 8f3d 11b4 1dbe

weight_hh_l0 f4 [90, 30]
0.12002407 -0.15165827 -0.20524856 0.1435775 -0.00829478 -0.11474796 -0.022513261 0.0373807
-0.19478604 0.094854 -0.17951757 0.07953605 -0.007150617 -0.17729118 -0.06612821 0.18266155
-0.10641243 -0.1567146 -0.08645284 -0.007992869 -0.06772815 0.21318026 0.122733384 0.19542944
-0.09950819 -0.10879886 -0.0941797 0.01623109 -0.000747065 -0.01638696 0.07263797 0.155398
-0.19181933 0.21221776 0.0867542 -0.013308451 0.07462998 -0.13708237 0.066543676 -0.015302602
-0.089104116 0.14417462 -0.16729994 -0.10825408 -0.016610377 -0.14544891 0.009500686 -0.110435165
0.07463511 0.079563566 0.112493426 -0.01816344 0.038432546 0.15985431 -0.20284955 -0.06260217
-0.1510367 0.0024204792 -0.07678672 0.002517602 -0.050514046 0.014721868 0.098575465 -0.069136694
-0.00029316047 -0.07011396 0.16795886 0.1488951 0.0007254202 0.051016465 -0.13293739 0.14483033
0.12258209 0.013489587 -0.1643859 -0.05521847 0.014317303 -0.023084931 0.07997839 -0.10065472
-0.083850704 0.10004713 0.045973532 0.026928417 -0.104456544 0.11416575 0.120560564 0.055319835
-0.100791566 0.14347358 0.07057741 0.017966697 -0.14047591 0.13476302 -0.09550779 0.101830654
0.019271296 0.12308922 0.13785358 0.03502491 0.06788254 -0.07475145 -0.10669799 0.022010319
-0.100307874 -0.13749246 -0.08117812 0.01264502 -0.07486252 -0.015841654 -0.027048757 -0.11346332
-0.16064833 0.07163358 0.1671905 -0.13007207 -0.15568982 -0.1279302 0.1253963 -0.17636822
-0.152184 0.17344113 -0.06461711 0.005935879 -0.022735735 -0.056339454 -0.09016832 -0.11701269
0.072482266 0.087410465 -0.18321003 0.07766149 -0.07707494 -0.095252216 -0.041259892 0.15185723
-0.12693919 -0.086240955 0.14817597 -0.09317525 -0.03636784 0.098426946 -0.15507203 0.12312937
0.09688598 -0.022268236 0.007517423 -0.14487575 0.15256415 0.12806927 0.11003564 0.17420927
0.067717895 -0.09971725 -0.15924637 0.0052616782 0.07030293 0.042600535 0.12308763 0.012484175
-0.08177628 0.011461585 -0.1250185 -0.047746066 0.060989197 0.10555817 0.15459915 -0.14728983
0.037631348 -0.026608512 0.12577254 -0.1075886 -0.06280639 -0.07365225 -0.1068446 0.18963411
-0.078369506 -0.095750086 -0.0406003 -0.0128169 0.14190319 -0.042744488 0.17124718 -0.10971235
-0.11215588 -0.13415664 0.06255325 0.13094932 -0.036921035 0.12904157 0.07770273 0.1557963
-0.13835211 -0.20126735 -0.07031175 -0.08297024 -0.06866753 0.07451652 -0.051201113 0.19232038
-0.05304664 -0.07029906 0.14210263 -0.13322486 0.057181176 0.1183561 0.07567139 -0.18325374
0.11245462 0.17527026 -0.16918646 -0.15120073 -0.18559642 0.03117863 -0.05476774 0.114584744
-0.1658409 0.15720275 -0.07964753 -0.019439211 -0.015087315 0.055223107 0.14986108 0.052792445
0.12649612 0.11383254 -0.13619058 -0.06552737 -0.11509318 -0.042570338 0.10578885 0.1131621
0.041754484 0.11283413 -0.14445439 -0.023824928 -0.13544801 0.075365365 -0.12437764 -0.14638825
-0.0019198317 0.15682147 0.0069020223 -0.12038732 0.16365522 -0.058484886 -0.09218746 0.117888615
-0.11032266 0.14073358 -0.023754636 0.04798783 0.06931454 0.15445665 0.082493395 0.17579783
00000000: 2ecf f53d 4e4c 1bbe ae2c 52be fb05 133e
00000010: d4e6 07bc fa00 ebbd bb6d b8bc 811c 193d
00000020: fe75 47be d042 c23d 74d3 37be cce3 a23d
00000030: b94f eabb d28b 35be 3a6e 87bd a10b 3b3e
00000040: c3ee d9bd cb79 20be 300e b1bd 86f4 02bc
00000050: 0eb5 8abd ed4b 5a3e a45b fb3d a81e 483e
00000060: f3ca cbbd f0d1 debd 49e1 c0bd 10f7 843c
00000070: afd6 43ba f23d 86bc 37c3 943d a720 1f3e
00000080: 496c 44be 9d4f 593e 30ac b13d b00b 5abc
00000090: 9ad7 983d 525f 0cbe 0d48 883d c4b7 7abc
000000a0: 387c b6bd 83a2 133e ad50 2bbe 51b4 ddbd
000000b0: 7c12 88bc 8ff0 14be c4a8 1b3c d52b e2bd
000000c0: 4bda 983d 39f2 a23d f462 e63d 7fcb 94bc
000000d0: 726b 1d3d d9b0 233e cbb7 4fbe 9135 80bd
000000e0: 5da9 1abe e7a0 1e3b 5b42 9dbd 5afe 243b
000000f0: d1e7 4ebd fd33 713c efe1 c93d 8a97 8dbd
00000100: 55b3 99b9 e897 8fbd 68fd 2b3e f577 183e
00000110: 202a 3e3a a4f6 503d bd20 08be 674e 143e
00000120: 520c fb3d 6e03 5d3c c754 28be c32c 62bd
00000130: 1f93 6a3c 9c1c bdbc b6cb a33d 1024 cebd
00000140: ebb9 abbd 82e5 cc3d be4e 3c3d fc98 dc3c
00000150: 50ed d5bd bccf e93d 75e8 f63d 0d97 623d
00000160: cf6b cebd bdea 123e e48a 903d e52e 933c
00000170: ebd8 0fbe 51ff 093e 9799 c3bd 978c d03d
00000180: d6de 9d3c 3316 fc3d 7d29 0d3e 4876 0f3d
00000190: 0006 8b3d 4a17 99bd 7a84 dabd fc4e b43c
000001a0: 376e cdbd d3ca 0cbe b740 a6bd 0f2d 4f3c
000001b0: 8551 99bd 5bc6 81bc 5b95 ddbc 755f e8bd
000001c0: ff80 24be a0b4 923d fd33 2b3e 9d31 05be
000001d0: 276d 1fbe 2200 03be e367 003e df99 34be
000001e0: 1fd6 1bbe 8d9a 313e fa55 84bd c381 c23b
000001f0: 4b40 babc 33c4 66bd 2baa b8bd 59a4 efbd
00000200: 9571 943d 4204 b33d 699b 3bbe fd0c 9f3d
00000210: 77d9 9dbd 9813 c3bd 2200 29bd 7680 1b3e
00000220: 59fc 01be 199f b0bd 71bb 173e aad2 bebd
00000230: 72f6 14bd 1194 c93d 34cb 1ebe 402b fc3d
00000240: 286c c63d e06b b6bc b754 f63b 4f5a 14be
00000250: c739 1c3e 9724 033e 5e5a e13d ea63 323e
00000260: aeaf 8a3d 8f38 ccbd 7b11 23be 286a ac3b
00000270: fcfa 8f3d e67d 2e3d 5e15 fc3d 6d8a 4c3c
00000280: 537a a7bd 5fc9 3b3c da04 00be 6191 43bd
00000290: cfcf 793d e22e d83d 3d4f 1e3e 25d3 16be
000002a0: 5423 1a3d 18fa d9bc 84ca 003e 6957 dcbd
000002b0: a3a0 80bd fed6 96bd 57d1 dabd 722f 423e
000002c0: 3180 a0bd 9f18 c4bd 804c 26bd fafd 51bc
000002d0: 124f 113e d814 2fbd 6c5b 2f3e deb0 e0bd
000002e0: fbb1 e5bd 5c60 09be eb1b 803d 9417 063e
000002f0: 833a 17bd 7923 043e 9c22 9f3d 1189 1f3e
00000300: 2dac 0dbe 0719 4ebe 9bff 8fbd 4dec a9bd
00000310: 90a1 8cbd 1e9c 983d 42b8 51bd a2ef 443e
00000320: 6f47 59bd f4f8 8fbd 5a83 113e 196c 08be
00000330: cf36 6a3d af64 f23d 9af9 9a3d dea6 3bbe
00000340: 9c4e e63d 0c7a 333e 373f 2dbe 5dd4 1abe
00000350: fd0c 3ebe 546a ff3c 2354 60bd 68ab ea3d
00000360: 32d2 29be c2f9 203e 3f1e a3bd fb3e 9fbc
00000370: c930 77bc a031 623d 2f75 193e e43c 583d
00000380: 3388 013e 0921 e93d 8b75 0bbe 3733 86bd
00000390: f9b5 ebbd 3c5e 2ebd d3a7 d83d 88c1 e73d
000003a0: c006 2b3d 9515 e73d daeb 13be 7f2c c3bc
000003b0: e2b2 0abe 2859 9a3d b4b9 febd cde6 15be
000003c0: dda2 fbba cf95 203e 5c2a e23b a18d f6bd
000003d0: 3c95 273e d98d 6fbd c7cc bcbd 966f f13d
000003e0: d9f0 e1bd 771c 103e 1599 c2bc e38e 443d
000003f0: c8f4 8d3d e229 1e3e 4cf2 a83d 5904 343e

bias_ih_l0 f4 [90]
0.009794162 -0.08057075 0.013113199 -0.14729029 -0.11063805 -0.017518295 -0.048555337 -0.13834447
-0.14690986 -0.13044122 -0.008522853 -0.12093668 0.17107423 -0.096746 -0.015429858 -0.07976042
0.118980676 0.055872284 0.13707028 0.113875754 -0.14575404 0.12954178 -0.09244911 -0.021785114
0.060620163 -0.2173549 -0.11661851 0.0128722405 0.121872276 -0.05731293 -0.14570428 0.14410019
0.00441748 0.14242612 0.12574896 0.09257101 -0.1437712 -0.02229222 0.0041034436 -0.09846415
-0.20437643 -0.14593568 0.002138987 -0.11753898 -0.05239265 0.0036135493 0.1366918 -0.07766726
-0.10993147 0.06614009 0.017276647 -0.07434856 -0.016868314 -0.14451028 -0.15005928 -0.063952595
-0.15164785 0.20177431 -0.030585196 -0.14746039 0.14408152 -0.13255507 0.1438606 -0.14030111
-0.04164621 -0.13238212 0.02878434 0.11751289 0.08325649 -0.07867773 0.03534539 0.038424045
-0.025473993 -0.15523699 0.04321332 0.1600655 0.115476504 -0.07919011 -0.06383348 0.15103602
-0.058112696 -0.15890735 -0.19738129 -0.15478341 0.05500676 -0.073930874 -0.19765493 0.15109123
0.18251497 0.040947463
00000000: b177 203c 4702 a5bd bed8 563c 44d3 16be
00000010: 3496 e2bd 8782 8fbc f6e1 46bd 2caa 0dbe
00000020: 8a6f 16be 6292 05be 70a3 0bbc a6ad f7bd
00000030: 152e 2f3e c422 c6bd 84cd 7cbc 6e59 a3bd
00000040: 24ac f33d 56da 643d 275c 0c3e b137 e93d
00000050: 8c40 15be 9aa6 043e f555 bdbd b276 b2bc
00000060: d94c 783d 4892 5ebe afd5 eebd 17e6 523c
00000070: 2c98 f93d f6c0 6abd 8133 15be 008f 133e
00000080: 82c0 903b 27d8 113e 56c4 003e df95 bd3d
00000090: c238 13be 2c9e b6bc 2e76 863b 93a7 c9bd
000000a0: 0e48 51be 2a70 15be 3f2e 0c3b 47b8 f0bd
000000b0: ad99 56bd 4cd1 6c3b eff8 0b3e 0310 9fbd
000000c0: c023 e1bd 7574 873d c187 8d3c 0f44 98bd
000000d0: 6b2f 8abc 81fa 13be 24a9 19be 94f9 82bd
000000e0: 9349 1bbe ed9d 4e3e ce8d fabc dbff 16be
000000f0: 1b8a 133e 84bc 07be 3150 133e 18ab 0fbe
00000100: 3795 2abd 2e8f 07be 23cd eb3c 99aa f03d
00000110: 6182 aa3d ca21 a1bd 54c6 103d 8862 1d3d
00000120: d6ae d0bc 72f6 1ebe 7300 313d 36e8 233e
00000130: f27e ec3d 6d2e a2bd 21bb 82bd 30a9 1a3e
00000140: 9407 6ebd 9cb8 22be 521e 4abe 8b7f 1ebe
00000150: c54e 613d 1269 97bd 0e66 4abe a9b7 1a3e
00000160: 34e5 3a3e 87b8 273d

bias_hh_l0 f4 [90]
0.09214879 -0.08242024 0.027287267 0.17973535 -0.11792667 0.1950993 -0.0025827917 -0.05946314
0.18120705 -0.12983868 0.0061949356 0.13171391 0.041037254 0.10389547 -0.038021263 -0.12430132
-0.07213469 0.1246324 0.08070394 0.17118122 0.072172835 -0.019450787 0.14293687 -0.06690903
-0.0571212 -0.045136735 -0.023694308 -0.13829938 -0.19554792 0.11308786 -0.04568919 -0.10955619
0.023706276 -0.034605857 -0.03219758 0.15167846 0.0599625 0.14283383 0.09453965 0.08462022
-0.17320697 0.040053938 -0.06211963 0.12160419 -0.022944994 -0.038479667 0.14781846 -0.13678174
-0.20769797 -0.15282188 0.19312678 -0.049147654 0.012236725 -0.0010230981 -0.15805222 -0.09591478
0.053103376 -0.0039533116 -0.15157342 -0.036099724 0.04209044 -0.11569804 -0.16967006 -0.17775814
0.16408144 -0.047112025 -0.049603216 -0.059589136 0.03467051 0.122005835 -0.03688082 -0.15301682
0.052766778 -0.03580605 -0.14440848 -0.12133895 -0.10775338 -0.003108734 0.0155980615 0.09097241
-0.12273708 -0.023138102 -0.022149967 0.030370511 -0.10409497 -0.110031456 0.07027752 0.15100892
0.06501061 0.17138012
00000000: 81b8 bc3d f1cb a8bd 8c89 df3c 8b0c 383e
00000010: 8a83 f1bd 1cc8 473e 0e44 29bb 9f8f 73bd
00000020: 578e 393e 6ef4 04be e3fe ca3b 03e0 063e
00000030: ae16 283d 26c7 d43d 2fbc 1bbd b191 febd
00000040: 5abb 93bd 463f ff3d 1b48 a53d 214a 2f3e
00000050: 5acf 933d 4257 9fbc 0b5e 123e 9a07 89bd
00000060: ebf7 69bd 4ce1 38bd 911a c2bc 5a9e 0dbe
00000070: b73d 48be 9c9a e73d 9724 3bbd ff5e e0bd
00000080: aa33 c23c dfbe 0dbd 9ce1 03bd 9951 1b3e
00000090: 3d9b 753d 0843 123e 019e c13d 5e4d ad3d
000000a0: 2b5d 31be 990f 243d 2771 7ebd 9e0b f93d
000000b0: 24f7 bbbc db9c 1dbd b95d 173e 8310 0cbe
000000c0: c7ae 54be 577d 1cbe 07c3 453e 0d4f 49bd
000000d0: 8b7c 483c 7a19 86ba 71d8 21be f86e c4bd
000000e0: ed82 593d c88a 81bb 1036 1bbe 4edd 13bd
000000f0: 0667 2c3d 18f3 ecbd fdbd 2dbe 3b06 36be
00000100: f704 283e 8af8 40bd be2c 4bbd bd13 74bd
00000110: aa02 0e3d 32de f93d 5810 17bd 71b0 1cbe
00000120: fa21 583d 5da9 12bd d1df 13be 8e80 f8bd
00000130: cead dcbd e7bb 4bbb 038f 7f3c be4f ba3d
00000140: 945d fbbd 1e8c bdbc d973 b5bc 94cb f83c
00000150: be2f d5bd 2c58 e1bd a9ed 8f3d 15a2 1a3e
00000160: 4824 853d 457e 2f3e

weight_ih_l0 f4 [3, 30]
0.1476965 -0.1315074 0.35286438 -0.3051809 -0.90374744 0.8882189 -0.0072510242 -0.59907556
0.20477545 -0.3750999 -0.8621917 -0.8233603 -0.5140047 0.54543424 -0.04025781 -0.17721736
-0.030296683 -0.39710402 -0.663496 -0.9917034 -0.75876415 -0.21641505 -0.70227563 -0.97433066
0.3647412 -0.48886156 -0.9444339 -0.6252569 -0.91707265 -0.27877045 -0.6813947 0.32493985
-0.915998 0.42015576 -0.6954682 -0.26720762 -0.91196764 -0.71285987 -0.8471315 0.38908505
-0.033514977 -0.07139158 -0.595894 0.1799367 -0.4709555 -0.32264957 -0.372859 -0.59705806
-0.3735373 -0.53447753 -0.91780174 -0.64259446 -0.8824861 0.62861073 -0.68367183 0.16899924
-0.04840049 0.650239 0.59272194 0.036043167 0.080473185 0.903175 -0.038043737 -0.22447318
-0.13676102 0.32607877 0.76599276 0.4156507 -0.6599411 -0.23322368 -0.39875782 0.53115153
-0.8727912 0.3530743 -0.79276466 -0.90111804 -0.6824015 0.96144223 -0.14320023 -0.27722263
0.90335536 0.7959926 0.55398583 0.677657 -0.8314057 -0.9864034 0.62896514 0.46155748
0.30268133 0.4320323
00000000: c03d 173e e0a9 06be a4aa b43e ac40 9cbe
00000010: fe5b 67bf 5062 633f 009a edbb 045d 19bf
00000020: a8b0 513e 180d c0be 98b8 5cbf bec7 52bf
00000030: d095 03bf 94a1 0b3f 60e5 24bd 7878 35be
00000040: c030 f8bc 3851 cbbe e0da 29bf 46e0 7dbf
00000050: 5e3e 42bf e89b 5dbe 56c8 33bf bc6d 79bf
00000060: 5cbf ba3e 104c fabe 6cc6 71bf d610 20bf
00000070: 46c5 6abf 00bb 8ebe e26f 2ebf 845e a63e
00000080: d87e 6abf a81e d73e 340a 32bf 70cf 88be
00000090: b676 69bf fc7d 36bf 9cdd 58bf 2836 c73e
000000a0: 0047 09bd c035 92bd 828c 18bf 5441 383e
000000b0: 1421 f1be 5332 a5be 60e7 bebe ccd8 18bf
000000c0: 4840 bfbe 85d3 08bf 0ef5 6abf 1281 24bf
000000d0: 9cea 61bf a2ec 203f 1e05 2fbf 230e 2d3e
000000e0: 983f 46bd 1076 263f a0bc 173f 00a2 133d
000000f0: 20cf a43d 7a36 673f c0d3 1bbd 4cdc 65be
00000100: 150b 0cbe ccf3 a63e 1a18 443f 2bd0 d43e
00000110: e6f1 28bf 30d2 6ebe fc29 ccbe 8cf9 073f
00000120: 3e6f 5fbf 28c6 b43e a0f2 4abf acaf 66bf
00000130: ddb1 2ebf 1421 763f 15a3 12be 20f0 8dbe
00000140: 4c42 673f 2cc6 4b3f 04d2 0d3f ee7a 2d3f
00000150: 01d7 54bf ef84 7cbf dc03 213f 4351 ec3e
00000160: 0cf9 9a3e 5633 dd3e

weight_hh_l0 f4 [3, 1]
0.5122174 -0.55727524 0.80255044
00000000: ae20 033f 97a9 0ebf f273 4d3f

bias_ih_l0 f4 [3]
-0.47313893 0.7028105 -0.49605823
00000000: 443f f2be 64eb 333f 58fb fdbe

bias_hh_l0 f4 [3]
0.8104422 -0.9396193 0.1896224
00000000: 2479 4f3f e48a 70bf 602c 423e

weight f4 [8, 31]
0.08985848 0.062275168 -0.0053501953 -0.0658701 -0.0046256687 0.09552041 -0.08868985 0.021892093
0.10373676 -0.031472296 0.04829538 0.100674845 0.002888059 0.019095924 0.03920359 -0.04725984
-0.0006111042 0.033042546 0.064346336 -0.039068878 0.048671413 0.0105879465 -0.09082192 -0.049114555
0.0028608313 -0.034551516 0.078591034 -0.012108814 -0.021957854 0.0011458413 0.0720731 0.09166102
0.085478745 -0.020548116 -0.0983881 -0.117689945 -0.010471433 0.15632592 -0.10437181 0.113491945
-0.061278492 0.026573606 0.062655 0.11869115 -0.0504678 -0.082344025 -0.040184915 0.1423365
0.1293284 -0.13040729 -0.032815546 0.10388207 0.017923111 -0.1024369 -0.05993573 0.05461612
0.10615069 -0.010836917 -0.07817209 -0.013380758 0.071136825 -0.028068485 -0.0019345824 0.00607828
-0.0006845307 0.0041989097 0.0028515786 -0.0020748568 -0.0036795402 0.0034577283 -0.0024756968 -0.0022297096
-0.00243338 0.0021664137 -0.002632755 -0.0013200366 -5.2569307e-05 2.6307454e-05 -0.0021125553 -0.0040907767
0.0021480497 0.0019253502 -0.0041269897 0.0012470147 0.0021480361 0.0033149705 -0.0017171489 -0.0015355556
0.0023752188 0.0012049286 -0.002218759 0.00028326263 0.0017566393 -0.0035270157 -0.0055188425 -0.0009234604
0.004291047 0.0037542984 -0.003978004 -0.0025598246 0.0014096776 -0.0026120462 -0.0025948638 -0.0026469678
0.002984934 -0.0038053175 -0.0020945664 0.00040808055 -0.00048133457 -0.0038255819 -0.004170256 0.0036124554
0.0029505298 -0.0033711644 0.0014495812 0.0022535343 0.0031792424 -0.0026569956 -0.0027085624 0.0036047895
-0.009270973 -0.0038327833 0.00062104966 0.0013372877 0.028216267 -0.02943845 0.0073772175 0.084710754
0.030381521 -0.04033491 0.007967398 -0.00027915504 0.023481127 0.02603412 0.006654845 0.04800066
-0.022030853 -0.03972146 0.0063159405 -0.0025112932 -0.02095765 0.08173665 0.036584217 -0.07349828
0.065695144 0.04017968 0.051981933 0.010462735 0.00050954375 0.010095809 0.033926006 0.024128612
-0.06850493 -0.0034482228 -0.005635662 0.0027483099 0.08314662 0.018021459 -0.04003812 0.004705955
0.011938428 -0.05209094 0.040959597 -0.034516227 -0.01768636 -0.03516539 0.015311725 0.037571423
-0.010157423 0.027372682 -0.012567135 0.034195643 -0.09060842 0.019454041 -0.042760897 -0.0005924649
-0.018388558 -0.014669317 -0.04968282 -0.038697023 -0.044802863 -0.036485028 -0.027869446 0.01246265
-0.021052469 0.011131283 -0.0012120575 -0.016588397 0.0018060361 0.0014288225 0.0075141094 0.00046960637
-0.0014576284 0.004065332 -0.004200799 0.00037261142 -0.003942684 0.007885451 -0.003497641 0.0008090588
-0.0016949719 -0.0012946319 -0.004363789 -0.0047970274 0.0040942975 0.0022249147 -0.002518445 0.0032335082
3.80226e-05 0.0018147232 -0.0007387859 -0.00032287074 0.0032216685 -0.0029008174 -0.002488447 0.0025846108
0.00010247649 0.041974496 0.10757678 0.060025536 0.10679386 -0.096591726 -0.07450875 0.10402213
0.020131923 0.10548044 0.036104154 0.062134262 -0.011545777 0.008013922 -0.07164299 0.0008659881
-0.0044287606 -0.003791267 0.065960206 -0.10598505 0.06954314 0.106945105 0.0076663923 0.010630759
0.123419724 0.07412591 -0.0066345106 -0.05643623 0.04638816 0.08313935 0.031177176 -0.023746524
00000000: b907 b83d 3f14 7f3d b150 afbb e7e6 86bd
00000010: ec92 97bb 34a0 c33d 06a3 b5bd 0c57 b33c
00000020: f073 d43d 18e9 00bd 60d1 453d 9d2e ce3d
00000030: 9745 3d3b 0e6f 9c3c f293 203d 8993 41bd
00000040: 8232 20ba 9f57 073d 03c8 833d b006 20bd
00000050: ad5b 473d 1179 2d3c d800 babd 582c 49bd
00000060: c97c 3b3b e485 0dbd 56f4 a03d 0c64 46bc
00000070: f5e0 b3bc 0e30 963a 109b 933d c6b8 bb3d
00000080: 7b0f af3d 8654 a8bc b37f c9bd 6d07 f1bd
00000090: 6090 2bbc e713 203e e3c0 d5bd 776e e83d
000000a0: 28ff 7abd e4b0 d93c 4451 803d 5814 f33d
000000b0: 53b7 4ebd fca3 a8bd f098 24bd a9c0 113e
000000c0: aa6e 043e 7d89 05be 9869 06bd 1fc0 d43d
000000d0: 7dd3 923c 70ca d1bd 2b7f 75bd 27b5 5f3d
000000e0: 8865 d93d 538d 31bc b018 a0bd f83a 5bbc
000000f0: 2fb0 913d e1ef e5bc d091 fdba 4f2c c73b
00000100: 1472 33ba 0297 893b 8de1 3a3b 52fa 07bb
00000110: 7124 71bb 0e9b 623b 4d3f 22bb 5220 12bb
00000120: 5879 1fbb 64fa 0d3b 4d8a 2cbb 1405 adba
00000130: dd7d 5cb8 d4ae dc37 cc72 0abb ec0b 86bb
00000140: 4bc6 0c3b 085c fc3a b33b 87bb df72 a33a
00000150: 11c6 0c3b fa3f 593b f511 e1ba b244 c9ba
00000160: 8fa9 1b3b b2ee 9d3a 9968 11bb de82 9439
00000170: 093f e63a 8125 67bb 68d7 b4bb 6114 72ba
00000180: e99b 8c3b ad0a 763b eb59 82bb bbc2 27bb
00000190: eec4 b83a dd2e 2bbb 970e 2abb c078 2dbb
000001a0: e29e 433b a262 79bb fe44 09bb a5f3 d539
000001b0: a25b fcb9 9db6 7abb a5a6 88bb f2be 6c3b
000001c0: ad5d 413b c1ee 5cbb e0ff bd3a 08b0 133b
000001d0: d65a 503b fd20 2ebb 2382 31bb 553e 6c3b
000001e0: 47e5 17bc 6f2f 7bbb f0cd 223a ee47 af3a
000001f0: cd25 e73c e728 f1bc 96bc f13b d57c ad3d
00000200: abe2 f83c 3836 25bd b089 023c 8e5b 92b9
00000210: 7e5b c03c 8245 d53c e310 da3b 579c 443d
00000220: 0c7a b4bc f8b2 22bd f3f5 ce3b 8294 24bb
00000230: 61af abbc 8b65 a73d 55d9 153d 4486 96bd
00000240: 2d8b 863d 7393 243d 02eb 543d e46b 2b3c
00000250: e792 053a e468 253c fff5 0a3d 5ea9 c53c
00000260: 504c 8cbd 94fb 61bb 5cab b8bb fd1c 343b
00000270: c648 aa3d bda1 933c 03ff 23bd 6934 9a3b
00000280: 6599 433c 4f5d 55bd 40c5 273d e360 0dbd
00000290: fce2 90bc 9609 10bd 08de 7a3c 7ee4 193d
000002a0: 526b 26bc ad3c e03c 62e6 4dbc bb10 0c3d
000002b0: e890 b9bd 155e 9f3c 0d26 2fbd a54f 1bba
000002c0: 9aa3 96bc 9357 70bc 3680 4bbd c580 1ebd
000002d0: 3583 37bd 5371 15bd 774e e4bc 2530 4c3c
000002e0: 3a76 acbc fc5f 363c e7dd 9eba 64e4 87bc
000002f0: 84b8 ec3a 5447 bb3a eb38 f63b 8035 f639
00000300: e50d bfba 7a36 853b dba6 89bb 0f5b c339
00000310: a131 81bb fb31 013c ae38 65bb 0417 543a
00000320: d229 deba a3b0 a9ba 1efe 8ebb 6230 9dbb
00000330: 7529 863b e0cf 113b 7f0c 25bb 44e9 533b
00000340: 757a 1f38 02dc ed3a 15ab 41ba fa46 a9b9
00000350: a122 533b a41b 3ebb 3615 23bb 9362 293b
00000360: a6e8 d638 73ed 2b3d 3751 dc3d 56dd 753d
00000370: bdb6 da3d e2d1 c5bd 0b98 98bd 8e09 d53d
00000380: b4eb a43c 2106 d83d f3e1 133d 7f80 7e3d
00000390: 802a 3dbc d34c 033c 8fb9 92bd 7a03 633a
000003a0: 231f 91bb e876 78bb 2516 873d b10e d9bd
000003b0: a26c 8e3d 0906 db3d 5c36 fb3b a32c 2e3c
000003c0: 7bc3 fc3d 53cf 973d 4f66 d9bb ad29 67bd
000003d0: 8301 3e3d f744 aa3d 4767 ff3c 1288 c2bc

bias f4 [8]
0.11585302 -0.050992176 -0.05399794 -0.035839744 0.015602336 -0.058857795 -0.047228497 -0.05282131
00000000: 5944 ed3d 2cdd 50bd f22c 5dbd b2cc 12bd
00000010: f1a0 7f3c df14 71bd ab72 41bd 285b 58bd

weight f4 [1, 24]
0.11822187 -0.08487552 0.0109047135 -0.041773394 -0.14528936 0.058532063 -0.08232608 -0.07050677
0.10488237 -0.013960478 0.19499694 0.19194661 0.09220012 0.21005057 -0.11492799 0.017630626
0.12567239 0.020418372 0.111687526 -0.026181696 -0.11841211 -0.009066587 0.16680266 0.28232443
00000000: 4f1e f23d 37d3 adbd afa9 323c 941a 2bbd
00000010: bcc6 14be 51bf 6f3d 939a a8bd da65 90bd
00000020: 91cc d63d 7dba 64bc 47ad 473e a78d 443e
00000030: 6bd3 bc3d 7f17 573e 5e5f ebbd 1a6e 903c
00000040: 43b0 003e 6e44 a73c 6ebc e43d ff7a d6bc
00000050: 0c82 f2bd 068c 14bc 51ce 2a3e d48c 903e
